PV_prediction/modelpth/model_19.pth (torch, 75295 bytes, 5 tensors)

weight_ih_l0 f4 [256, 4]
0.02291558 0.0030978555 0.20620045 0.15563257 0.121600315 0.011039226 0.10167579 -0.0010037547
-0.0836365 -0.004729344 0.028554436 0.068052724 0.16063158 0.16102637 0.20686965 0.048217487
0.07802248 0.069905885 0.15829828 -0.00836991 0.19513935 0.1321287 0.14345327 -0.04215383
0.18895009 0.21112317 0.1369638 0.11905967 -0.03819499 0.093865044 -0.08974231 0.16833043
0.0057460447 -0.009609891 0.16128977 0.014787627 0.010900331 0.023447253 -0.10109135 -0.096914135
0.09484699 -0.0097359 0.16553903 0.045407254 0.23378298 -0.39322144 0.1474073 -0.4308261
0.2879323 0.21524328 0.010143919 0.114943266 0.21313827 -0.3873848 -0.041429326 -0.275063
0.09014627 0.09643514 0.16210043 0.2248348 0.055808693 0.115126744 -0.14199309 0.08338472
0.09065649 0.17847419 0.019531574 0.2184031 0.11699687 0.2723148 0.17704742 0.20484357
0.13438247 0.01644917 0.25449702 0.17088728 0.08511956 0.21687706 0.15459444 0.072700694
0.09120067 0.04846846 0.20663004 -0.13360724 0.15054235 0.2189643 0.22551937 0.19339196
0.09554238 0.09207664 0.22405924 0.21915501 0.22394632 0.26508865 0.24631695 0.21811937
0.111203685 -0.21762596 0.13299307 -0.13441445 0.02597914 0.048300445 0.10169685 -0.023771392
-0.10806398 -0.18314674 0.024727795 0.049131352 0.0062955776 -0.046327733 0.044224177 -0.104668096
0.100421466 0.034904357 0.06758581 0.055544384 0.18215725 0.20520169 0.014562586 0.23507106
0.1251996 0.010825447 0.006144264 0.031076241 0.18546002 0.09358125 0.05389028 -0.022613823
0.058702596 0.05106439 -0.102880076 0.08839311 0.069129184 0.10339356 0.09298869 0.080637336
0.060160737 0.10225505 0.059772424 0.15701148 0.027393717 -0.07614339 -0.08489464 0.06924863
0.24661674 0.120033376 0.04343858 0.17376292 0.15777826 0.10329918 0.14006251 0.06395632
0.019706536 0.02072388 0.15279028 0.004398978 -0.0066310703 0.20571758 0.09233535 0.2151963
0.12100915 0.038862016 -0.04961254 0.032863375 -0.048438303 0.0030942166 -0.0828267 0.1249273
0.042609166 0.019127393 0.10545286 0.19411632 0.11270138 -0.026339725 0.15451835 -0.041138716
-0.06915645 0.032367863 0.008060241 -0.02964722 0.20525323 0.10359151 0.2186163 0.1357307
0.1428183 0.15531026 -0.08751384 0.05492208 0.0053921402 -0.042847738 -0.03332093 -0.045328986
-0.08652679 0.08448886 -0.03837491 0.14197776 -0.07330497 -0.0023622394 0.016884713 -0.11891009
0.03036213 -0.14154072 -0.10446289 -0.054596625 0.07761088 -0.013944849 0.10515428 0.14912425
-0.040151007 0.032961942 -0.018677259 -0.025608938 0.08225441 0.16934626 0.1191501 0.1245021
0.020302687 -0.1459717 -0.02493331 -0.18550086 -0.12152218 -0.2008312 -0.054061964 -0.18214463
0.08370724 -0.09367636 0.08813144 -0.09004191 0.18384522 0.016690265 0.20088492 0.046775736
0.061822012 0.09019655 0.08288109 0.2016067 -0.10536731 0.016816655 -0.03547628 0.055206027
-0.102050535 0.032452226 -0.06316474 0.1325818 0.06565051 0.17381881 0.12825912 0.10456939
-0.02484896 0.03192824 0.12142268 -0.050824463 0.16622454 0.18830885 0.0815844 0.043838333
00000000: 74b9 bb3c 6405 4b3b 3626 533e 255e 1f3e
00000010: 9609 f93d dfdd 343c 663b d03d 6b90 83ba
00000020: 9d49 abbd 9df8 9abb feea e93c 3a5f 8b3d
00000030: 9b7c 243e 19e4 243e a3d5 533e b37f 453d
00000040: 40ca 9f3d d12a 8f3d f218 223e f221 09bc
00000050: 9cd2 473e bf4c 073e 6ae5 123e 7fa9 2cbd
00000060: 227c 413e ac30 583e 3d40 0c3e 8ed5 f33d
00000070: 5a72 1cbd 513c c03d d1ca b7bd d05e 2c3e
00000080: 5149 bc3b ce72 1dbc 2529 253e ce47 723c
00000090: 4d97 323c 7414 c03c fb08 cfbd eb7a c6bd
000000a0: 243f c23d 5383 1fbc 1083 293e f5fc 393d
000000b0: ce64 6f3e 5254 c9be f0f1 163e 3d95 dcbe
000000c0: dd6b 933e bc68 5c3e ae32 263c 6067 eb3d
000000d0: eb40 5a3e 4d57 c6be ccb1 29bd 0fd5 8cbe
000000e0: 9c9e b83d c97f c53d a8fd 253e 183b 663e
000000f0: a897 643d 92c7 eb3d a366 11be 9cc5 aa3d
00000100: 1caa b93d f0c1 363e ae00 a03c 10a5 5f3e
00000110: 0e9c ef3d d86c 8b3e eb4b 353e 83c2 513e
00000120: 8f9b 093e 69c0 863c 6f4d 823e 13fd 2e3e
00000130: 2a53 ae3d 0515 5e3e 014e 1e3e 1ae4 943d
00000140: 6bc7 ba3d dd86 463d d396 533e 56d0 08be
00000150: c627 1a3e 2d38 603e 8dee 663e 8b08 463e
00000160: b9ab c33d ad92 bc3d c96f 653e 2c6a 603e
00000170: 2f52 653e b3b9 873e 833a 7c3e af5a 5f3e
00000180: c2be e33d 57d9 5ebe 562f 083e f1a3 09be
00000190: 35d2 d43c b0d6 453d 7046 d03d 39bc c2bc
000001a0: a650 ddbd d28a 3bbe f291 ca3c f53d 493d
000001b0: 224b ce3b 26c2 3dbd 6924 353d 3a5c d6bd
000001c0: c5a9 cd3d dff7 0e3d 6e6a 8a3d 8282 633d
000001d0: 6e87 3a3e 6420 523e ea97 6e3c 78b6 703e
000001e0: 5334 003e 375d 313c d255 c93b 9a93 fe3c
000001f0: 3be9 3d3e 87a7 bf3d 0ebc 5c3d a040 b9bc
00000200: 2272 703d e528 513d cab2 d2bd 7207 b53d
00000210: 9a93 8d3d 01c0 d33d db70 be3d 3025 a53d
00000220: 1b6b 763d 186b d13d eed3 743d 9ec7 203e
00000230: ca68 e03c 11f1 9bbd 3edd adbd 3ad2 8d3d
00000240: 1989 7c3e 0fd4 f53d a7ec 313d e8ee 313e
00000250: a090 213e 858e d33d 8c6c 0f3e 88fb 823d
00000260: 9a6f a13c 20c5 a93c 0e75 1c3e 4d25 903b
00000270: 7349 d9bb a1a7 523e 511a bd3d 6b5c 5c3e
00000280: a5d3 f73d c72d 1f3d 8536 4bbd bf9b 063d
00000290: 3e67 46bd 57c8 4a3b 0ba1 a9bd e2d9 ff3d
000002a0: f386 2e3d 0db1 9c3c abf7 d73d 6ec6 463e
000002b0: fbcf e63d 68c6 d7bc 0f3a 1e3e 1281 28bd
000002c0: e6a1 8dbd 2a94 043d 1a0f 043c bade f2bc
000002d0: e72d 523e c927 d43d f4dc 5f3e fdfc 0a3e
000002e0: f63e 123e a709 1f3e 753a b3bd faf5 603d
000002f0: 8db0 b03b 1c81 2fbd 877b 08bd e3aa 39bd
00000300: f534 b1bd 7f08 ad3d 022f 1dbd 9e62 113e
00000310: eb20 96bd cdcf 1abb cf51 8a3c 2287 f3bd
00000320: 00ba f83c 0df0 10be a4f0 d5bd b6a0 5fbd
00000330: 74f2 9e3d f078 64bc 215b d73d 07b4 183e
00000340: 6275 24bd 1a03 073d 0d01 99bc d6c9 d1bc
00000350: 0075 a83d 1b69 2d3e f804 f43d f5fa fe3d
00000360: d251 a63c 9b79 15be f140 ccbc f0f3 3dbe
00000370: 9fe0 f8bd b2a6 4dbe 1470 5dbd 1f84 3abe
00000380: b46e ab3d 64d9 bfbd 427e b43d e567 b8bd
00000390: ec41 3c3e 06ba 883c c7b4 4d3e ea97 3f3d
000003a0: 1439 7d3d f8b8 b83d 90bd a93d fd71 4e3e
000003b0: d1ca d7bd 15c3 893c 934f 11bd b71f 623d
000003c0: dfff d0bd a0ec 043d 845c 81bd 86c3 073e
000003d0: c673 863d 8ffd 313e 5c56 033e 7a28 d63d
000003e0: 0c90 cbbc 30c7 023d 74ac f83d 502d 50bd
000003f0: c436 2a3e 09d4 403e b915 a73d d38f 333d

weight_hh_l0 f4 [256, 64]
-0.0949619 0.050079882 -0.091713876 -0.115715295 0.037745535 0.030388921 0.07532567 0.077589214
0.07460959 -0.045058638 0.07909824 -0.056363 -0.06738849 -0.034851015 0.037677586 0.07388055
-0.06431331 -0.108012676 -0.09136161 -0.106886744 0.03291297 0.10403864 -0.050839514 -0.07536608
0.05385503 0.041258976 -0.11459741 -0.052757546 -0.053953245 0.015738785 -0.061942264 -0.034720585
-0.07356532 -0.09766656 -0.052333593 0.11916484 -0.036529496 -0.11481902 -0.019124985 0.10690342
-0.08554837 0.0138014555 -0.08188279 0.08157778 0.11548768 -0.07297869 0.04595782 -0.10332966
-0.017802894 -0.11273837 0.009648368 0.09186602 -0.08172731 0.10690889 0.06413643 0.038620844
-0.019118503 -0.10053229 0.11170612 -0.019089133 -0.00018773973 -0.07088272 0.067267105 -0.008112073
0.029925883 0.05336885 -0.077678725 0.06212625 0.06276697 -0.054763094 0.010640353 -0.018487394
-0.021682337 -0.004037112 -0.06491694 -0.113681644 0.023543268 -0.09877342 -0.048109293 0.045743883
-0.098305136 -0.011117354 0.117116004 0.010357469 -0.038669422 -0.0555034 0.06745838 -0.078730315
0.07307182 -0.040608212 0.10249005 -0.012438878 0.031377554 -0.076504424 0.00095777214 0.04565969
0.025875479 0.09099172 0.05478996 -0.07331687 0.03630799 -0.058683574 0.11816007 -0.0347642
0.03475146 0.059316352 -0.12086268 -0.06810954 0.12108736 -0.062042415 0.097258866 -0.0006877035
0.07765527 0.040186375 -0.023228824 -0.006076619 -0.07811731 -0.07358031 -0.053906634 -0.06852247
0.0934051 0.087886676 -0.1241228 0.10504322 -0.083844215 -0.07563914 -0.013307929 0.016594306
-0.024237633 -0.036613792 -0.048257172 -0.033859164 0.121626884 -0.025716692 -0.06729847 0.06631608
0.027603194 0.06668648 -0.036348566 -0.104787216 0.0139722675 0.07732709 -0.0063058883 0.061974198
0.09409921 -0.12223704 0.0065041482 0.07143247 -0.09879385 0.045329824 -0.060378253 0.0955835
-0.028111428 -0.09539932 -0.122360006 0.12459102 -0.075854436 -0.092054725 -0.09470381 -0.060778514
-0.014901787 0.022961348 0.003107354 0.04474424 0.002392128 0.114292994 0.029710442 -0.07568619
0.03686261 0.098324776 0.03805934 -0.032491475 0.0013822168 -0.091380924 0.029021084 0.05000709
-0.045626923 0.109736204 0.12035261 -0.012134492 0.01932618 -0.08697982 0.01975359 -0.10450891
0.032540992 0.05935529 0.01007539 0.015105799 -0.10644461 0.08331816 -0.11592555 0.05715069
0.02021572 0.08413106 -0.017398015 -0.0016379356 -0.094356105 0.020590916 0.069985226 0.06920433
0.07321176 -0.098593354 -0.060222954 0.11689724 -0.07461889 0.1100378 -0.038848177 0.107122526
-0.0358513 -0.10377328 -0.11020939 0.070282 -0.06254606 0.06283514 0.08341879 -0.050380483
0.11130589 0.072669 -0.10847083 0.11479415 -0.07939637 -0.097771674 0.028451309 0.03129223
-0.029014543 0.06342369 -0.07639602 0.027815178 0.03457865 0.10393213 0.1007195 -0.027169809
-0.026866421 -0.04339914 0.0038030744 0.0024399757 0.11918332 -0.067378834 -0.0008918643 0.10453285
-0.05013515 0.03004311 -0.046066985 -0.07855716 -0.020157441 0.009081617 -0.11194542 -0.033593565
0.013061777 -0.056151927 -0.059775114 0.07213575 -0.03348857 -0.12226176 -0.08607158 -0.036066532
00000000: 627b c2bd 9020 4d3d 7cd4 bbbd 24fc ecbd
00000010: 109b 1a3d 30f2 f83c 5844 9a3d 18e7 9e3d
00000020: eacc 983d 688f 38bd 42fe a13d e4dc 66bd
00000030: fa02 8abd f0bf 0ebd d053 1a3d b04e 973d
00000040: b2b6 83bd c035 ddbd cc1b bbbd 70e7 dabd
00000050: c0cf 063d 3612 d53d 183d 50bd 8859 9abd
00000060: 1897 5c3d 2cff 283d 0cb2 eabd 4c18 58bd
00000070: 14fe 5cbd a0ee 803c 2cb7 7dbd 2c37 0ebd
00000080: 6aa9 96bd 6805 c8bd c05b 56bd b20c f43d
00000090: f49f 15bd 3c26 ebbd 00ac 9cbc 2ef0 da3d
000000a0: fc33 afbd 801f 623c 2ab2 a7bd 4012 a73d
000000b0: ce84 ec3d da75 95bd 443e 3c3d 809e d3bd
000000c0: 60d7 91bc 60e3 e6bd 3014 1e3c 4024 bc3d
000000d0: a660 a7bd 0cf3 da3d f659 833d e430 1e3d
000000e0: 689e 9cbc e0e3 cdbd 2ec6 e43d d060 9cbc
000000f0: 00dc 44b9 f62a 91bd 56c3 893d 80e8 04bc
00000100: 2027 f53c 4c99 5a3d 0616 9fbd 1878 7e3d
00000110: f88b 803d 444f 60bd e054 2e3c e072 97bc
00000120: 289f b1bc c049 84bb 2cf3 84bd ecd1 e8bd
00000130: d0dd c03c b849 cabd 400e 45bd f05d 3b3d
00000140: 3454 c9bd 9025 36bc 84da ef3d 60b2 293c
00000150: d463 1ebd 8857 63bd 9e27 8a3d 5c3d a1bd
00000160: aea6 953d cc54 26bd 4ee6 d13d 70cc 4bbc
00000170: c085 003d 5aae 9cbd 0013 7b3a a805 3b3d
00000180: d0f8 d33c de59 ba3d 706b 603d 2827 96bd
00000190: b0b7 143d 305e 70bd e8fd f13d e864 0ebd
000001a0: 8c57 0e3d b4f5 723d da86 f7bd 047d 8bbd
000001b0: a6fc f73d 3020 7ebd a82f c73d 0047 34ba
000001c0: ba09 9f3d 789a 243d 604a bebc 601e c7bb
000001d0: f8fb 9fbd 46b1 96bd 34cd 5cbd 8255 8cbd
000001e0: 2c4b bf3d eefd b33d 1834 febd e620 d73d
000001f0: 84b6 abbd b2e8 9abd 8009 5abc c8f0 873c
00000200: 008e c6bc 58f8 15bd 50a9 45bd e8af 0abd
00000210: 8417 f93d d0ab d2bc c8d3 89bd bad0 873d
00000220: 1820 e23c ec92 883d 3ce2 14bd ae9a d6bd
00000230: f0eb 643c aa5d 9e3d a0a1 cebb a8d8 7d3d
00000240: 16b7 c03d 6a57 fabd c020 d53b 304b 923d
00000250: 6e54 cabd c4ab 393d 304f 77bd 48c1 c33d
00000260: f049 e6bc b860 c3bd e297 fabd 9429 ff3d
00000270: 9259 9bbd 3087 bcbd 12f4 c1bd e4f2 78bd
00000280: a026 74bc 7019 bc3c c0a4 4b3b bc45 373d
00000290: 40c5 1c3b 7212 ea3d 5063 f33c 5c01 9bbd
000002a0: 40fd 163d 805e c93d 1ce4 1b3d c815 05bd
000002b0: 802b b53a ec25 bbbd a0bd ed3c 3cd4 4c3d
000002c0: 4ce3 3abd 60bd e03d 6e7b f63d c0cf 46bc
000002d0: f051 9e3c 7a22 b2bd 48d2 a13c c408 d6bd
000002e0: b449 053d 881e 733d 4013 253c 507e 773c
000002f0: a2ff d9bd b6a2 aa3d 606a edbd d816 6a3d
00000300: 709b a53c e84c ac3d 4886 8ebc 00b0 d6ba
00000310: c63d c1bd 48ae a83c 6a54 8f3d 00bb 8d3d
00000320: 0cf0 953d 50eb c9bd 58ac 76bd d267 ef3d
00000330: cad1 98bd 805b e13d 441f 1fbd 0e63 db3d
00000340: d0d8 12bd 1687 d4bd 76b5 e1bd 02f0 8f3d
00000350: 2618 80bd b6af 803d 78d7 aa3d c45b 4ebd
00000360: 58f4 e33d 7cd3 943d f425 debd 3219 eb3d
00000370: 909a a2bd 843c c8bd b812 e93c 482c 003d
00000380: e8af edbc 48e4 813d 8475 9cbd a8dc e33c
00000390: 58a2 0d3d 5eda d43d 0646 ce3d 3893 debc
000003a0: f816 dcbc 4cc3 31bd 003d 793b 00e8 1f3b
000003b0: 6216 f43d eafd 89bd 00cc 69ba 5215 d63d
000003c0: 845a 4dbd f81c f63c bcb0 3cbd 94e2 a0bd
000003d0: 3821 a5bc 10cb 143c a443 e5bd 6899 09bd
000003e0: 1001 563c 90ff 65bd c0d6 74bd e8bb 933d
000003f0: 502b 09bd 6064 fabd 4c46 b0bd 80ba 13bd

bias_ih_l0 f4 [256]
0.07590967 0.17832586 0.005694921 0.2241711 0.13657333 0.2125605 0.068396844 0.05611729
0.1251383 -0.06900486 0.114654556 0.28904524 0.30313677 0.13919939 0.17928256 0.00032032977
-0.020661943 0.30769056 0.15331909 -0.025284257 0.08933295 0.029290007 0.04900924 0.29696634
0.11549264 0.18059361 -0.13600971 0.014478714 0.21936749 0.30980948 -0.012128925 0.037694275
0.15451472 0.17510156 0.020753209 -0.08687488 0.1487479 0.07814662 0.03434038 0.14413376
0.1883475 -0.13443856 0.255623 0.19192317 0.047759347 0.17220375 0.14563468 0.12038483
0.12522243 -0.09162946 -0.0069766818 0.23942022 0.06734269 0.04783118 0.13970101 0.0014771565
0.05656639 0.18606313 0.13717262 0.03560923 -0.0053981445 0.20066002 0.04408045 0.13879879
-0.08979818 -0.087706566 -0.052633062 0.05750364 0.01733853 -0.003250733 0.07484195 0.047577932
0.08776775 0.029306501 -0.015664667 -0.028848961 0.04330203 -0.075528696 0.04646997 0.015529498
0.06956391 0.05133702 -0.089957416 0.06905158 -0.04499148 -0.07828534 0.08493292 -0.1168609
0.07674301 0.08494356 -0.04350485 0.060559586 -0.045680806 0.1087172 0.010790363 0.11095339
-0.017231554 0.10763104 0.051826656 0.059500173 0.06495753 0.023605883 0.07237579 0.08578907
0.09149487 -0.058405846 0.003205523 -0.10500836 0.100788385 -0.10484286 0.037356272 0.06701079
0.061294913 0.020520791 0.036729008 -0.09993954 0.012765303 0.11981563 -0.0020709634 -0.029311925
0.029359236 0.02121292 -0.042386115 -0.11797951 0.10784496 0.056896657 -0.040323064 -0.020593897
-0.015186061 -0.061661057 0.087679714 0.08581413 0.026658127 -0.085370176 -0.0055179945 0.043296102
-0.0374981 0.0011628041 0.0008114545 -0.07483235 0.035364565 0.026830826 -0.055606384 -0.082725324
0.023590658 -0.09633985 -0.044007465 -0.011097988 0.020440985 0.076245226 0.07967178 0.019743497
0.14551672 0.11279937 0.12608454 0.11502082 -0.11144318 0.05647255 -0.08323681 -0.04134191
-0.10179155 0.040314987 0.049375936 0.092526644 0.0637486 -0.047282293 0.09064988 0.07171245
0.030221883 -0.0865437 -0.0008857272 0.033783216 0.09096744 0.07292911 -0.069519244 -0.005574246
-0.091095574 -0.024420748 0.027498465 0.063234344 -0.080432095 0.008883578 -0.11921766 -0.06562713
0.053809196 -0.07226389 0.031919606 0.012508258 0.07408808 -0.07451751 -0.031188793 0.041570418
0.21670578 0.20083372 0.11703739 0.19238177 0.17263494 0.2160603 -0.006120442 0.022463584
-0.038378745 -0.030431334 0.24394552 0.27798864 0.21496615 0.10684891 0.09375866 -0.105721556
0.22013997 0.21244936 0.13442664 -0.028153101 0.18177538 0.19747117 0.04851512 0.31503806
0.12873071 0.06058997 -0.09250466 0.028357895 0.13580947 0.28803664 0.022934247 0.22269985
0.12802742 0.06648882 0.21680042 -0.05154061 0.2505861 0.25462657 0.07782573 0.1664353
0.2167633 0.050568614 0.13034451 0.19661917 0.1217089 0.13077548 0.074232936 -0.036100775
0.020433674 -0.13244802 0.0384638 0.26809397 0.040880922 0.24781026 0.08254779 -0.034806114
-0.08468069 0.15606117 0.09699518 -0.10129273 0.0321707 0.03224734 0.15998651 0.08828217
00000000: 8776 9b3d 0e9b 363e 769c ba3b 1c8d 653e
00000010: e1d9 0b3e 76a9 593e a513 8c3d 3edb 653d
00000020: 4124 003e 6c52 8dbd 02d0 ea3d bdfd 933e
00000030: be34 9b3e 498a 0e3e d995 373e eff1 a739
00000040: 3c43 a9bc 9e89 9d3e aeff 1c3e ee20 cfbc
00000050: 32f4 b63d 99f1 ef3c eabd 483d f90b 983e
00000060: 6887 ec3d 88ed 383e 2146 0bbe 2138 6d3c
00000070: dfa1 603e 599f 9e3e 66b8 46bc 5065 1a3d
00000080: 1b39 1e3e d34d 333e a202 aa3c 75eb b1bd
00000090: 5f51 183e 560b a03d 80a8 0c3d cd97 133e
000000a0: 2bde 403e 43aa 09be 05e1 823e 8287 443e
000000b0: 4e9f 433d 2e56 303e 4221 153e 528c f63d
000000c0: 4f3a 003e 3aa8 bbbd a69c e4bb 932a 753e
000000d0: f7ea 893d a1ea 433d c80d 0f3e 269d c13a
000000e0: 29b2 673d 5587 3e3e fb76 0c3e fcda 113d
000000f0: ebe2 b0bb d279 4d3e b48d 343d 4521 0e3e
00000100: 1ce8 b7bd 809f b3bd c495 57bd f088 6b3d
00000110: 8809 8e3c 400a 55bb bc46 993d 14e1 423d
00000120: 94bf b33d 3014 f03c 3053 80bc a854 ecbc
00000130: 785d 313d caae 9abd 4c57 3e3d 706f 7e3c
00000140: 8677 8e3d c446 523d 983b b8bd ea6a 8d3d
00000150: fc48 38bd 1054 a0bd 50f1 ad3d c454 efbd
00000160: 702b 9d3d e4f6 ad3d 2432 32bd 540d 783d
00000170: cc1b 3bbd 20a7 de3d 10ca 303c 883b e33d
00000180: 3029 8dbc aa6d dc3d 3048 543d 74b6 733d
00000190: 7408 853d 2061 c13c c239 943d 2eb2 af3d
000001a0: aa61 bb3d f83a 6fbd c013 523b a00e d7bd
000001b0: 246a ce3d dab7 d6bd e402 193d f43c 893d
000001c0: 6010 7b3d 381b a83c 2871 163d 1aad ccbd
000001d0: 9025 513c e661 f53d 00b9 07bb 901f f0bc
000001e0: c882 f03c b8c6 ad3c 109d 2dbd 3e9f f1bd
000001f0: d2dd dc3d 780c 693d cc29 25bd 88b4 a8bc
00000200: f5ce 78bc 4e90 7cbd 6c91 b33d 52bf af3d
00000210: 2562 da3c 8fd6 aebd 4bd0 b4bb 4157 313d
00000220: 9c97 19bd 3b69 983a cab7 543a b441 99bd
00000230: 6fda 103d 52cc db3c 85c3 63bd e56b a9bd
00000240: 3241 c13c d44d c5bd 2c41 34bd 56d4 35bc
00000250: da73 a73c 7526 9c3d f52a a33d 1dbd a13c
00000260: 5602 153e 5b03 e73d 4e1c 013e 0990 eb3d
00000270: 523c e4bd c34f 673d 1078 aabd 2256 29bd
00000280: 1778 d0bd 5421 253d 6c3e 4a3d 9c7e bd3d
00000290: a08e 823d 14ab 41bd a5a6 b93d fadd 923d
000002a0: e293 f73c d33d b1bd 2530 68ba 4560 0a3d
000002b0: 234d ba3d db5b 953d 1b60 8ebd 2aa8 b6bb
000002c0: 5190 babd 050e c8bc 7644 e13c 0281 813d
000002d0: 95b9 a4bd 6d8c 113c 6328 f4bd 8467 86bd
000002e0: 0867 5c3d 17ff 93bd 22be 023d 70ef 4c3c
000002f0: 7ebb 973d a39c 98bd a47f ffbc be45 2a3d
00000300: 1fe8 5d3e 5ba7 4d3e 4db1 ef3d baff 443e
00000310: 37c7 303e e93e 5d3e fd8d c8bb 8d05 b83c
00000320: 0833 1dbd 224b f9bc dbcc 793e 8754 8e3e
00000330: 1620 5c3e 9ad3 da3d 8a04 c03d 8b84 d8bd
00000340: 5f6c 613e 538c 593e 23a7 093e 55a1 e6bc
00000350: 5323 3a3e e235 4a3e cab7 463d ab4c a13e
00000360: fcd1 033e 302d 783d 1573 bdbd d14e e83c
00000370: a311 0b3e 8a79 933e 9ae0 bb3c 6e0b 643e
00000380: 9f19 033e 4a2b 883d ee00 5e3e 3f1c 53bd
00000390: d24c 803e 6a5e 823e 1963 9f3d 046e 2a3e
000003a0: 33f7 5d3e 0921 4f3d 0879 053e 8956 493e
000003b0: 8442 f93d 02ea 053e 7007 983d 68de 13bd
000003c0: 8564 a73c 74a0 07be 388c 1d3d 9d43 893e
000003d0: c172 273d f9c1 7d3e d10e a93d db90 0ebd
000003e0: 126d adbd 80ce 1f3e 69a5 c63d 9072 cfbd
000003f0: 6dc5 033d c915 043d 81d3 233e 48cd b43d

bias_hh_l0 f4 [256]
0.009680622 0.13253279 -0.009683997 0.28617877 0.25611004 0.03978534 0.19892536 -0.12791152
-0.059517566 -0.01668953 0.15041758 0.28330937 0.14778538 0.050536554 0.20251058 -0.00029167888
0.19708613 0.25954238 0.16839373 0.06412627 0.2163465 0.11832375 0.039799776 0.12886728
0.14987075 0.11293122 -0.117636696 0.24555506 0.17010407 0.2067512 0.15923308 0.081488915
-0.0009998906 0.13636594 0.15048912 -0.047752697 0.23095752 0.21461844 0.16592595 0.2582961
0.07647402 0.08410136 0.15563062 -0.0036093225 0.08902593 0.27618384 0.1251504 -0.050524876
-0.057768356 -0.033052113 -0.05901613 0.272111 0.036140367 0.18231484 0.1776329 -0.09774665
0.028458491 0.05713171 0.20332126 0.09448923 -0.011685929 0.21982431 0.00057804113 0.105636254
0.05144961 -0.1190225 -0.118188545 0.017220497 -0.011129469 0.05614242 0.027054027 0.03651975
-0.07025553 0.09193021 -0.027596325 -0.06263061 -0.077827305 -0.11779486 -0.006218493 0.11773816
0.045354262 0.1099685 0.073420435 0.03468007 0.11980742 -0.0044957846 0.016253144 0.11736758
0.03144078 -0.06921339 -0.031012565 0.11634065 -0.10261071 0.10543363 0.00570634 -0.10383546
-0.08737177 0.022454277 -0.0109796375 -0.07339227 0.012293473 0.00687474 -0.11088194 -0.005032003
-5.8829784e-05 -0.06645277 0.07534441 0.06688064 0.07901868 0.072491065 -0.123287395 -0.08377582
-0.0009587258 0.0039729923 0.06930645 -0.008059576 0.033299357 -0.051221713 0.096689776 -0.0009253323
0.08409572 -0.016070992 -0.12299171 0.010864139 -0.12409864 -0.057723865 0.034161344 0.02824694
-0.05710585 0.10598229 -0.036489323 -0.04159671 -0.04041323 -0.06756783 0.033093784 0.048183206
-0.03962846 0.06791019 -0.13522324 -0.11313347 0.012460443 -0.16543913 0.028599674 -0.069927506
0.009905714 0.036356077 -0.030385673 0.120437436 0.076232895 -0.07625868 0.044197023 -0.061315767
-0.012823356 -0.05594277 0.055559803 0.07349868 0.012186912 -0.03162316 -0.03285357 -0.051084034
-0.0825394 0.068430915 -0.067300566 -0.06203816 -0.13623598 0.0813002 -0.02906862 -0.024188235
-0.0052491357 -0.1119809 0.0788843 0.02335943 0.055617545 -0.10396684 0.10882565 -0.056429766
0.11868139 -0.054251414 -0.10471813 0.017066661 -0.055223964 -0.027840808 -0.08629901 -0.0996702
0.06580631 0.056123793 -0.009240052 0.07260014 -0.08462742 0.035405196 -0.12301094 0.045201145
0.0672648 0.061400738 0.1044448 0.26451305 0.22287156 0.09696267 0.20309325 -0.084871665
-0.06387402 -0.043442417 0.25840083 0.15778445 0.2882129 0.059362616 0.16021785 0.08675488
0.005248103 0.12589161 0.15370731 0.034557704 0.06284091 0.09089385 0.078643106 0.24947438
0.20778571 0.22932349 0.01868751 0.08758195 0.157205 0.23395376 0.031954523 0.045500353
0.1307025 0.104972765 -0.015939752 -0.087654434 0.07451609 0.18227334 0.16198975 0.18506545
0.19661678 -0.12526551 0.09521665 0.08537319 -0.09654851 0.036505792 0.089827135 -0.070128836
0.018110372 -0.12839825 -0.091188975 0.032437272 -0.026742239 0.03797483 0.18634446 0.12017544
0.023846887 0.25436637 0.12361748 -0.06020891 0.046834394 0.23325922 0.012346043 0.16071503
00000000: 799b 1e3c adb6 073e a1a9 1ebc 0686 923e
00000010: db20 833e f4f5 223d 17b3 4b3e 3dfb 02be
00000020: b1c8 73bd 7bb8 88bc 1107 1a3e ed0d 913e
00000030: 0d55 173e 6bff 4e3d ef5e 4f3e 7aec 98b9
00000040: f2d0 493e bde2 843e 686f 2c3e a254 833d
00000050: f089 5d3e b953 f23d 1705 233d c9f5 033e
00000060: b877 193e 7c48 e73d 82eb f0bd c972 7b3e
00000070: c32f 2e3e 96b6 533e ff0d 233e a9e3 a63d
00000080: c30e 83ba 83a3 0b3e d219 1a3e 5598 43bd
00000090: 2180 6c3e f0c4 5b3e 7ee8 293e 633f 843e
000000a0: 699e 9c3d 553d ac3d a25d 1f3e 628a 6cbb
000000b0: 3a53 b63d f867 8d3e 6d27 003e 2cf3 4ebd
000000c0: 839e 6cbd a761 07bd e6ba 71bd 2252 8b3e
000000d0: ec07 143d beb0 3a3e 66e5 353e 652f c8bd
000000e0: c821 e93c f102 6a3d 7333 503e 9283 c13d
000000f0: 5776 3fbc a019 613e af87 173a d257 d83d
00000100: d4bc 523d 12c2 f3bd d60c f2bd 0012 8d3c
00000110: 6058 36bc 98f5 653d 68a0 dd3c bc95 153d
00000120: 22e2 8fbd e845 bc3d b011 e2bc 7a44 80bd
00000130: ec63 9fbd 6e3e f1bd 80c4 cbbb b420 f13d
00000140: 64c5 393d 2a37 e13d 745d 963d b00c 0e3d
00000150: 985d f53d 6051 93bb 5025 853c 6a5e f03d
00000160: 0cc8 003d c0bf 8dbd 100e febc 0244 ee3d
00000170: 9025 d2bd 96ed d73d 40fc ba3b b0a7 d4bd
00000180: f8ef b2bd 08f2 b73c f0e3 33bc b04e 96bd
00000190: 906a 493c 8045 e13b 1216 e3bd 80e3 a4bb
000001a0: 00c0 76b8 6418 88bd 2c4e 9a3d b8f8 883d
000001b0: 8cd4 a13d 3276 943d 1a7e fcbd a892 abbd
000001c0: 0053 7bba e02f 823b 8af0 8d3d 500c 04bc
000001d0: e864 083d dccd 51bd 4a05 c63d 0092 72ba
000001e0: 603a ac3d 50a7 83bc 14e3 fbbd 80ff 313c
000001f0: 6e27 febd dc6f 6cbd c4ec 0b3d 2066 e73c
00000200: d3e7 69bd 3e0d d93d d475 15bd 5061 2abd
00000210: 5888 25bd 0161 8abd 598d 073d c15b 453d
00000220: 7451 22bd 7f14 8b3d f677 0abe 85b2 e7bd
00000230: e326 4c3c e068 29be dd49 ea3c 2736 8fbd
00000240: 934b 223c 1cea 143d 60eb f8bc e7a7 f63d
00000250: fe1f 9c3d 832d 9cbd f007 353d 3e26 7bbd
00000260: 0e19 52bc 3f24 65bd ad92 633d 7a86 963d
00000270: 9dab 473c 4987 01bd 7791 06bd 7e3d 51bd
00000280: 6b0a a9bd 8225 8c3d e1d4 89bd ba1b 7ebd
00000290: 7281 0bbe b880 a63d 5121 eebc 6826 c6bc
000002a0: f100 acbb 3e56 e5bd 188e a13d 465c bf3c
000002b0: 39cf 633d 91ec d4bd fbdf de3d e622 67bd
000002c0: 3b0f f33d bb36 5ebd 7576 d6bd 62cf 8b3c
000002d0: 8632 62bd 6812 e4bc 89bd b0bd e41f ccbd
000002e0: 75c5 863d 10e2 653d 9663 17bc 62af 943d
000002f0: 2451 adbd 0a05 113d 29ed fbbd d624 393d
00000300: 21c2 893d 577f 7b3d 28e7 d53d 416e 873e
00000310: 7138 643e 5d94 c63d adf7 4f3e 32d1 adbd
00000320: 62d0 82bd adf0 31bd 1d4d 843e 3f92 213e
00000330: a490 933e 3726 733d 2610 243e 8bac b13d
00000340: 47f8 ab3b bbe9 003e 7365 1d3e 618c 0d3d
00000350: bcb2 803d 8e26 ba3d a30f a13d 3676 7f3e
00000360: c7c5 543e c7d3 6a3e 8d16 993c 2a5e b33d
00000370: 59fa 203e 9391 6f3e bfe2 023d 945e 3a3d
00000380: e0d6 053e f6fb d63d 1594 82bc 2b84 b3bd
00000390: e49b 983d dda5 3a3e a4e0 253e cc81 3d3e
000003a0: e955 493e 9a45 00be f200 c33d 24d8 ae3d
000003b0: 3abb c5bd 1987 153d 4af7 b73d b59f 8fbd
000003c0: 345c 943c d57a 03be 49c1 babd f2dc 043d
000003d0: 8a12 dbbc 7f8b 1b3d 15d1 3e3e 8b1e f63d
000003e0: 8c5a c33c 4f3c 823e 292b fd3d 9e9d 76bd
000003f0: 6cd5 3f3d 81db 6e3e 0f47 4a3c 7b92 243e

weight f4 [1, 64]
0.18266365 0.13067466 -0.16180885 0.08937059 -0.13657263 0.17049754 0.19663389 -0.019107765
-0.04321873 -0.0025630684 0.13846059 0.18870977 0.20170031 0.12190511 0.17012957 -0.114868745
0.14844757 -0.1770622 0.13891135 0.16748582 -0.21692269 -0.2227146 -0.17834657 -0.21291757
-0.15221262 -0.2447516 -0.051052477 -0.2000458 0.13907543 0.24818648 -0.13101183 0.1448798
-0.18070209 0.14183742 -0.21837744 -0.028787915 0.12595451 -0.25793508 -0.22637612 0.13614184
0.20233408 -0.08923399 -0.20696768 -0.12821665 0.082502455 0.2237829 -0.20815942 -0.14344208
0.14503118 0.028524896 0.06395069 -0.24885082 0.14617155 0.19303156 0.17219646 0.13468261
0.012096062 0.10015487 0.17936131 -0.008048558 0.08067443 0.16485837 0.15970984 0.17698103
00000000: 2e0c 3b3e 94cf 053e 38b1 25be ee07 b73d
00000010: b2d9 0bbe e896 2e3e 655a 493e e387 9cbc
00000020: 1f06 31bd 27f9 27bb 9dc8 0d3e 223d 413e
00000030: 878a 4e3e 63a9 f93d 7236 2e3e 4e40 ebbd
00000040: a402 183e cb4f 35be c73e 0e3e 6781 2b3e
00000050: fb20 5ebe 4c0f 64be 7ca0 36be 1007 5abe
00000060: a0dd 1bbe 2aa0 7abe 671c 51bd ced8 4cbe
00000070: ca69 0e3e 9924 7e3e f727 06be 5f5b 143e
00000080: f809 39be d43d 113e 569e 5fbe a2d4 ebbc
00000090: 38fa 003e 1110 84be 24cf 67be c468 0b3e
000000a0: aa30 4f3e 4fc0 b6bd 56ef 53be 3a4b 03be
000000b0: 0cf7 a83d 5827 653e be27 55be 7be2 12be
000000c0: 0e83 143e 0bad e93c 94f8 823d c0d2 7ebe
000000d0: ffad 153e 11aa 453e 4554 303e 3dea 093e
000000e0: 902e 463c ff1d cd3d 7eaa 373e 19de 03bc
000000f0: a338 a53d a2d0 283e fa8a 233e 843a 353e
