PV_prediction/modelpth/model_22.pth (torch, 75295 bytes, 5 tensors)

weight_ih_l0 f4 [256, 4]
000000 54 a6 de 3d 94 78 4c 3e 4e 10 3c 3e 42 15 92 bd
       0.10871568 0.19967872 0.18365595 -0.07132961
000010 ed bf 84 3d f7 8c 5c 3e 23 4b 89 3e 66 33 f1 bc
       0.064819194 0.21538149 0.26815137 -0.029443454
000020 0c 6a ce bb e4 f9 f8 3d 36 29 82 3c e1 51 d4 3c
       -0.006299263 0.12157038 0.015888792 0.02591795
000030 e1 f3 0c 3d d2 6b 17 3e ef 4c 89 3d 5c f3 9b bb
       0.03441227 0.14787224 0.06704127 -0.0047592353
000040 66 02 54 3c d0 df 50 bc bc 78 0a 3e 0c bb f7 3d
       0.012940025 -0.012748674 0.13522619 0.12096223
000050 35 c6 bd 3e b2 35 c6 be d9 55 96 3e 5f c7 05 3f
       0.37065282 -0.3871284 0.29362372 0.5225734
000060 ea 54 30 bd b0 c7 cc bd 3c de df 3c 58 5a ae 3d
       -0.04304973 -0.09999025 0.02732765 0.085133255
000070 b6 cc cb bc ae 69 a1 bd e3 da 5b 3e 1f 4a f0 bd
       -0.024877887 -0.07881485 0.21470217 -0.117328875
000080 93 3f 6a 3e 90 a3 96 3d fa fb 02 3e cb ec f4 39
       0.22875814 0.07355416 0.12791434 0.0004671573
000090 85 2d 99 3d a9 55 1c 3e 58 21 2b 3e de 8d 22 bd
       0.07479385 0.15267052 0.16711938 -0.039686076
0000a0 7e 81 8a 3d 4a f5 1e 3e bd c1 a8 bb bc 70 99 bd
       0.0676298 0.15523258 -0.0051500485 -0.074922055
0000b0 b3 f2 0b 3e d3 e1 ac 3e 12 bd 0d bc b2 98 44 3d
       0.13666801 0.3376604 -0.008651035 0.047997184
0000c0 eb ae b6 bb f6 e8 5f 3e 2f 66 bf 3d 11 57 26 3e
       -0.005575051 0.21866211 0.09345662 0.1624415
0000d0 68 81 d8 3d ba 59 1d 3e 9e 3f b3 bd cb 6b b1 3d
       0.10571557 0.15366259 -0.087523684 0.08663138
0000e0 b4 36 df bd 2b 02 f5 3c 8d 8b 03 be 16 5c 02 bd
       -0.10899106 0.02990826 -0.12846203 -0.0318261
0000f0 9b 36 9c 3d 34 55 2c 3e bd 39 e3 3d 76 e4 5a 3d
       0.07627603 0.16829377 0.11094997 0.053440534
000100 3a 60 03 3e 0d cf 84 be 29 44 0b 3e 91 a0 ad 3d
       0.12829676 -0.25939217 0.1360022 0.08477891
000110 bf 33 0a 3e 70 49 2c be ea f9 c8 3d be 70 0f bd
       0.13496302 -0.16824889 0.09813292 -0.03501963
000120 2e c5 0b 3e c8 ab 43 3e 60 17 8c 3e ae d7 96 3d
       0.13649437 0.19108498 0.27361584 0.073653564
000130 8b 34 ed 3d e8 4b 69 3e cc 51 39 3e f0 e3 23 3e
       0.115822874 0.22782862 0.1809761 0.1600492
000140 df d4 da 3d c9 4c 6f 3e c8 61 be 3e b6 c9 0c 3e
       0.10685133 0.23369135 0.37183976 0.13748822
000150 4a d1 6c 3d d7 dd f1 3b f2 8b 30 bb 92 56 22 bd
       0.05781678 0.0073811817 -0.0026938883 -0.03963334
000160 1f 38 0e be 5b 37 9f 3d 0f 2b 86 bd 74 d9 d6 bd
       -0.13888596 0.0777423 -0.065511815 -0.10490695
000170 ad 5b d5 3d b2 28 5f 3e 33 f3 3d 3e 42 7b 70 3d
       0.104178764 0.21792868 0.18549804 0.058711298
000180 55 68 96 3d 52 20 a7 3e 41 7b 4a 3e 9b 6b 0c 3e
       0.073441185 0.32641846 0.1977358 0.13712923
000190 ab 29 8e 3b 4c 14 65 3e fe 41 ed 3d c8 12 70 3c
       0.0043384633 0.22371024 0.11584853 0.014652915
0001a0 bd c5 8f 3c 8a db 86 3d a8 02 ff bd e8 02 05 3e
       0.017550344 0.065848425 -0.124516785 0.1298939
0001b0 5a 94 11 3e a4 1a c7 3d 61 2d b2 bd ee e9 d3 3c
       0.14216748 0.09721878 -0.087000616 0.025868382
0001c0 bf b1 f4 3d df 64 7f 3e a2 51 21 3d b7 64 83 bd
       0.11947965 0.24940823 0.03938449 -0.06415694
0001d0 c9 62 6d 3e 9f f9 9a 3e 70 55 89 3e 02 8d 32 3d
       0.23182215 0.3026857 0.26822996 0.043591507
0001e0 39 cf 1d 3e 4e 5c 2a 3e 28 15 2f 3e de 22 c2 bb
       0.1541108 0.16636774 0.17097914 -0.0059245666
0001f0 cd 6b 26 3e b2 78 a5 3e 3f fd af 3e 52 40 cb 3c
       0.1625206 0.32318646 0.343729 0.024810944
000200 3a d1 09 3e 02 fd 98 3e 92 97 07 be ad d8 d8 3d
       0.1345872 0.2988053 -0.13241413 0.105882026
000210 44 e1 eb 3d 43 b2 8b 3e 19 60 43 bc 38 2b 30 3e
       0.115175754 0.2728444 -0.011924767 0.17203987
000220 4a af 72 3e 73 da 2d 3e 53 f1 3c 3e 76 ab 74 3d
       0.2369968 0.16977863 0.18451433 0.05973383
000230 8c 58 27 3e 01 9e 0f bf 24 09 d6 bc ce d1 15 3f
       0.16342372 -0.5610047 -0.026127405 0.5852326
000240 4c 31 2f 3e 1a be 85 3e b0 e3 3d be 4f 23 e9 3d
       0.17108649 0.26121598 -0.18543887 0.11383688
000250 7f eb 31 bd 34 0a fe bd f9 a9 7c 3e ce 0c 11 3e
       -0.043437477 -0.1240429 0.24674214 0.14165041
000260 3a 09 4b 3e 89 53 65 3e 50 ef bd 3d 87 b8 01 3e
       0.19827738 0.22395147 0.09274161 0.12668048
000270 ca 96 f1 bc 55 01 ef 3a 9c 32 80 3d ef 6a 3b bd
       -0.029490847 0.001823465 0.06259653 -0.045756277
000280 21 9d 66 3e db 4e 0d 3e 94 5d fd 3d 67 a3 18 3d
       0.22520877 0.13799612 0.12371364 0.037265208
000290 17 b9 5c 3e fa 76 35 3e 1d 66 28 3e 23 97 b2 3d
       0.21554981 0.17721167 0.16445203 0.08720233
0002a0 5d 1e 36 3e 6b 8f da 3d c1 02 a4 3d bb fe e5 3d
       0.1778502 0.10671886 0.08008338 0.112302266
0002b0 b2 f8 36 3d bf fd a3 3b 3d 62 8f 3d d8 81 d7 3a
       0.044670768 0.005004614 0.07001159 0.0016441895
0002c0 1b b0 7c 3d ce c8 ca bc c5 25 18 bd 7e cf c9 bc
       0.061691385 -0.024753954 -0.037145395 -0.024635073
0002d0 42 61 14 3e 83 d7 d8 bc 91 6d 5a 3e a5 aa 78 3c
       0.14490226 -0.026469951 0.21330859 0.015177404
0002e0 87 ce 2a 3e 30 8e cb 3d 14 19 77 3e 34 9e 8a 3d
       0.16680346 0.099392295 0.2413066 0.06768456
0002f0 1b 6b 45 3e 23 db 00 3e bb c5 3b 3e 28 27 29 3e
       0.19279139 0.12583594 0.18337147 0.16518843
000300 66 c4 27 be f3 88 e8 bc 9d b1 e7 bd e2 7d 83 3d
       -0.16383514 -0.028385615 -0.11313174 0.064204946
000310 50 03 7d 3e 74 27 84 3e 09 31 82 3e 82 00 1f 3e
       0.24708295 0.2581135 0.25428036 0.15527537
000320 b2 6f fa 3e 03 ce a4 be 6f 7f c3 3e 09 cd d2 3e
       0.48913342 -0.32188424 0.38183162 0.41172054
000330 5b 28 98 3e 81 5f 46 be ce 94 e4 bc df 1b 5e 3e
       0.2971829 -0.1937237 -0.027902987 0.2169032
000340 a7 ab 5c 3e df 8a 00 3e 4e 5f 96 3e cd 71 90 3d
       0.21549855 0.12552975 0.29369587 0.07052956
000350 34 78 7e 3e f6 b0 92 3d 7f 34 06 3d be 62 de bc
       0.24850541 0.07162659 0.032764908 -0.027146693
000360 14 ad 80 3c ba 87 34 3d 56 da f6 3d aa 11 aa bd
       0.01570753 0.04407475 0.12053363 -0.083041504
000370 9a 12 c1 3d f0 63 81 3e a2 0e 24 be ab c4 fc 3d
       0.09427376 0.2527156 -0.16021207 0.12342199
000380 1e 18 bc 3d b1 75 e6 3d b6 c3 0c 3e fb f2 27 3c
       0.091842875 0.112529166 0.13746533 0.010250802
000390 73 82 17 3e 71 30 a8 3e 97 79 dd 3d 54 35 4c 3d
       0.14795856 0.32849458 0.10814207 0.049855545
0003a0 8a 9a 0c 3e 09 11 3a 3e 86 11 14 3e 56 c3 04 3e
       0.13730827 0.18170561 0.1445981 0.1296514
0003b0 58 1e 10 3e ef fd 28 be ff 84 fc 3d 70 f8 07 3d
       0.14074075 -0.16503118 0.123300545 0.033195913
0003c0 00 ce 9d 3d 57 2e 07 3d b4 3b 63 3e ec 3a 42 3d
       0.07705307 0.033003177 0.22190744 0.047419474
0003d0 bc a7 7d 3c 6f c1 c1 3b 70 ad 64 3d 0f 6a e9 bd
       0.0154818855 0.0059129517 0.055829465 -0.11397182
0003e0 f8 df ef 3d 1a 2f 6f 3e 34 16 93 bd 34 d4 d7 3d
       0.117126405 0.23357812 -0.07181969 0.105385214
0003f0 61 b2 a7 3e b4 5b 4d 3e 69 b8 cc 3e 03 3b 1b 3e
       0.3275328 0.20054513 0.39984444 0.1515923

weight_hh_l0 f4 [256, 64]
000000 32 66 91 3d 54 60 ac bd d8 65 fd 3c f6 3d f6 bd
       0.0709957 -0.08416811 0.030932352 -0.12023537
000010 74 80 97 bd 6c 06 62 3d 2c fd 5e 3d 5c 06 1e 3d
       -0.07397547 0.055181906 0.054440662 0.038580284
000020 04 92 62 bd 68 40 8a bc a0 c0 48 3c 44 a9 4f bd
       -0.055315033 -0.016876414 0.012252957 -0.050698534
000030 30 66 77 3c fc ba 7b 3d ec bc 7c 3d 04 fb 1b 3d
       0.015100047 0.06145762 0.061703607 0.038081184
000040 b0 42 6b bd fc 35 d9 3d c0 23 36 bb 38 e6 e1 3c
       -0.057436645 0.10606 -0.0027792305 0.027575597
000050 08 68 67 bd ea 4d 97 3d c4 98 3d bd 40 fb d1 bd
       -0.056495696 0.07387908 -0.046288267 -0.10253
000060 90 f7 f4 bc 60 16 17 bc ba fb 81 bd 54 c6 28 bd
       -0.029903203 -0.009221643 -0.06346841 -0.041204765
000070 2e 68 ed 3d 10 fa 13 bd 10 30 8c bd 5a d2 a6 bd
       0.11592136 -0.03612715 -0.06845105 -0.0814559
000080 50 88 81 3c d2 f3 bf 3d ba 9b f1 bd 9c 6b 09 3d
       0.01581207 0.09372677 -0.117972806 0.03354989
000090 a6 d5 f6 3d d0 be bb 3d 6a 28 cd 3d a0 fd a8 3b
       0.12052469 0.09167254 0.10017474 0.0051571876
0000a0 80 ad b3 3c 38 35 ea 3d 58 13 97 bd 94 b6 10 3d
       0.021933317 0.11435932 -0.073767364 0.03533037
0000b0 7a f4 f8 bd 20 41 5b 3c 40 bc 4d bd 6e 35 ec 3d
       -0.12156005 0.013382226 -0.050228357 0.115336284
0000c0 0c 17 5c bd b6 fa c5 3d 7e 4a 8d 3d 80 1f 3e 3d
       -0.053732917 0.0966696 0.06898974 0.04641676
0000d0 54 8b 77 3d 50 eb 43 bd 4c 07 bf bd 24 3d 91 bd
       0.060435608 -0.047831833 -0.09327564 -0.0709174
0000e0 a4 e0 63 bd 1e f4 c6 3d ac 20 6d bd a2 79 db bd
       -0.055634156 0.097145304 -0.057892486 -0.10716559
0000f0 ae 02 90 bd d0 d6 33 bc 46 20 88 3d a4 13 a4 bd
       -0.07031761 -0.010976508 0.06646781 -0.08011559
000100 84 dc 22 3d b0 f1 05 3c 80 48 46 3b 54 b2 40 3d
       0.03976108 0.008175299 0.0030255616 0.047045067
000110 74 6f ac 3d 8a cf d8 3d dc 17 18 bd b2 cd b0 3d
       0.084196955 0.1058646 -0.03713213 0.08632983
000120 c8 5a 95 bd de d0 dc bd 78 92 8b 3c 30 bd fe 3c
       -0.07292706 -0.10782026 0.017037615 0.031096071
000130 0e c2 9a 3d 04 b7 6a 3d b0 d0 79 bd b0 53 7a bc
       0.07556544 0.057303444 -0.060990036 -0.015278742
000140 c0 8f 49 bd 8c 49 6c 3d 30 44 85 3d 6c c3 bd 3d
       -0.049209356 0.057687327 0.06507146 0.092657894
000150 b6 f0 b3 bd 70 cc 46 3c 00 93 1c ba a8 29 65 bd
       -0.08786146 0.012133703 -0.00059728324 -0.05594793
000160 10 b2 26 bc b0 67 0c bc aa e0 c0 3d c8 7b 02 3d
       -0.010174289 -0.008569643 0.09417851 0.03185633
000170 8c 45 22 bd bc 3a cb bd c0 63 02 3b d8 64 91 3c
       -0.039617106 -0.09923312 0.0019895881 0.017748281
000180 78 b5 08 bd 10 c0 6e 3c d0 8c 91 3c 48 d9 db 3d
       -0.033376187 0.014572158 0.01776734 0.107348025
000190 70 34 64 3c 70 49 10 bc ea d3 c7 bd 38 66 64 3d
       0.013928518 -0.008806571 -0.09757216 0.055761546
0001a0 3a 38 9a 3d 3a 0e 94 3d c4 15 21 bd 78 16 70 3d
       0.075302556 0.07229276 -0.039327398 0.058615178
0001b0 10 29 97 bd 9a 1c cc 3d f0 ca 80 3d 46 ea d3 3d
       -0.07380879 0.09966393 0.06288707 0.103474185
0001c0 88 44 b2 3d 46 fb ef 3d d0 07 48 3d 80 01 b2 bc
       0.087044775 0.117178485 0.048835576 -0.02172923
0001d0 fc 0d 23 bd 04 22 dc 3d c0 ee e1 bd d8 ea df 3c
       -0.03980826 0.107486755 -0.11031866 0.027333662
0001e0 3e d7 bc bd 00 23 ce ba e0 6b 88 3c cc 72 56 bd
       -0.09220742 -0.0015726984 0.016653001 -0.052355573
0001f0 d0 49 59 3c 94 c1 46 3d 14 07 42 3d 90 34 f8 bc
       0.013262227 0.048524454 0.04737003 -0.030298501
000200 a4 ba 2b 3d 9e ca ad 3d 1c 12 65 bd 98 ee 4a 3d
       0.04192604 0.08485912 -0.055925474 0.049543947
000210 b6 4d 9a bd 32 6d e4 bd 88 fc d8 3d 7a e0 dd 3d
       -0.075343534 -0.1115364 0.105950415 0.10833831
000220 60 87 1a bd b2 f8 fe 3d 68 7d ca bd 40 f0 d1 bc
       -0.03772676 0.124497786 -0.098872006 -0.025627255
000230 a0 ef 7a 3d 32 e4 83 3d b0 63 81 3d 24 ac f0 bd
       0.06126368 0.06440009 0.06317842 -0.11751583
000240 f2 d3 8b bd da 54 86 3d ca 3c e3 bd 4a b7 90 bd
       -0.06827535 0.06559153 -0.11095579 -0.070662096
000250 24 6e f2 bd f6 c6 9d bd 9c e7 a5 3d 1c 71 8b bd
       -0.11837414 -0.077039644 0.081008166 -0.06808683
000260 a0 ef ad bd 00 4e 6b 3d a8 ee f1 bd 02 15 e1 3d
       -0.084929705 0.057447433 -0.11813098 0.10990335
000270 44 6b 0e 3d f0 3d 9c bd a8 7f a2 3d fe 46 f7 3d
       0.034770265 -0.07629001 0.07934505 0.120740876
000280 10 3d 3b bd 7a 73 9d bd ba 93 82 3d d0 e6 87 bd
       -0.04571253 -0.07688041 0.06375833 -0.06635821
000290 f0 0d d0 bc 58 0a 4b 3d b0 3f dd 3c d8 81 6f 3d
       -0.02539727 0.04957041 0.027007908 0.058473438
0002a0 ec c5 4a 3d b8 f8 ea bc a4 2d a5 3d 00 1b 98 ba
       0.04950516 -0.028683051 0.08065346 -0.0011604726
0002b0 c8 7d e0 3c 06 ee ec 3d 44 96 28 3d 00 01 4e bc
       0.027403727 0.11568837 0.04115893 -0.012573481
0002c0 ba 9b fe 3d 38 70 bf bd f8 4a c7 3d 44 b2 ed bd
       0.12432046 -0.09347576 0.09731096 -0.11606267
0002d0 f8 74 34 bd 76 5d 87 3d a4 aa e7 3d 60 ac 4f 3c
       -0.044056863 0.06609623 0.11311844 0.012675375
0002e0 9c d6 ce bd 78 84 35 3d ac d4 b9 bd e4 10 2f 3d
       -0.10099527 0.044315785 -0.09073767 0.042740718
0002f0 e0 ba 91 bd 28 42 e2 3c 64 1c 8b 3d 18 c1 67 3d
       -0.07115722 0.027619436 0.067925245 0.056580633
000300 10 71 3a bd c4 fc 05 3d f8 fc f1 3c 08 9d db 3c
       -0.04551798 0.03271176 0.02953957 0.026808277
000310 e0 f8 ef 3c 58 88 94 bd c8 ee dd 3c 40 08 75 3b
       0.029293478 -0.07252568 0.027091399 0.003738895
000320 1c c8 0b bd 98 66 80 3d 72 c6 cc 3d 44 cf ba 3d
       -0.034126386 0.06269568 0.09998788 0.09121564
000330 00 b6 bd bd 9e d8 de 3d 08 8e 69 3d 1a 5d a1 3d
       -0.09263229 0.1088116 0.057020217 0.07879086
000340 2a dd e3 3d a6 21 d5 3d 70 9a 58 bd cc 2f d0 3d
       0.11126168 0.104068086 -0.052881658 0.101653665
000350 3a dc ef 3d 7c 79 28 bd 38 1e df 3d ee 0c 8b 3d
       0.11711927 -0.04113148 0.10894436 0.067895755
000360 2a 1d df bd 22 c6 e2 3d bc 89 1b bd 04 95 4f 3d
       -0.108942345 0.11072947 -0.03797315 0.05067922
000370 2c 1a d4 bd e0 f2 07 bc 34 69 4c 3d d8 dc 38 bd
       -0.103565544 -0.008297652 0.049905017 -0.045132488
000380 10 c2 73 bc 80 21 e0 3d 88 92 fd 3c 20 1f 3a bc
       -0.014877811 0.109438896 0.03095366 -0.01135996
000390 90 40 17 3d 5e 80 f3 bd 00 1d 95 bb 38 4b 30 bd
       0.036926806 -0.118897185 -0.004550576 -0.043040484
0003a0 a0 fa 61 bd 60 5f 97 bd fc ef a5 bd 20 c6 1c 3d
       -0.055170655 -0.07391238 -0.08102414 0.038274884
0003b0 22 44 a6 3d 30 23 29 3c f8 db a5 bd a6 f9 c0 3d
       0.08118464 0.010323331 -0.08098596 0.09422617
0003c0 2c 33 38 bd c0 d3 5d bc 58 b2 db 3d 94 13 c2 3d
       -0.044970676 -0.013539255 0.10727376 0.094763905
0003d0 a0 58 cc 3c 9c fb b8 3d 9e 39 d8 bd d8 6b d7 bd
       0.024944603 0.09032366 -0.105578646 -0.105186164
0003e0 e6 c9 82 3d b8 49 a9 3d 40 d7 7f bd 7c 02 f9 bd
       0.06386165 0.08266014 -0.062461138 -0.12158677
0003f0 d8 96 17 3d 62 39 f2 3d 50 73 0d bc 10 1e 43 bd
       0.03700909 0.11827351 -0.00863345 -0.04763609

bias_ih_l0 f4 [256]
000000 89 55 73 3e 6d 89 ae 3d 13 bf 9b 3d 9e 45 bd bd
       0.23763098 0.08522306 0.07604804 -0.09241794
000010 98 33 29 3e e1 28 af 3e 12 0e e5 bc 8c 3b 1c 3e
       0.16523588 0.34210876 -0.02796081 0.1525709
000020 25 90 95 3d 2b a0 cd 3d 9c e3 3b 3d 98 53 16 3d
       0.07302884 0.10040315 0.045871362 0.036700815
000030 91 9c da 3d 28 e1 9d 3b 91 22 24 bb 3e 4f f4 3b
       0.10674394 0.0048181005 -0.0025045017 0.0074557355
000040 a0 4f 2d 3e c4 16 ab 3d 33 90 27 3e 4c b2 31 3e
       0.16924906 0.083539516 0.16363601 0.17353171
000050 df 67 a0 3e 4e 84 21 be 5d c9 0b 3d 2a ac 67 3e
       0.31329247 -0.15773126 0.034127582 0.22624269
000060 83 04 2c 3e e8 f0 3c 3d fd aa 7d 3e a8 f3 2c 3e
       0.16798596 0.046128184 0.24772258 0.16889822
000070 2a 01 85 bc 38 9c 8c 3e 56 ca 27 3e a2 68 8b 3e
       -0.016235907 0.27462935 0.16385779 0.27228266
000080 bc 43 c9 bc 0a cf ed 3b c4 3b 71 3e 8b 90 80 3e
       -0.024568431 0.007257347 0.23557955 0.25110278
000090 90 16 a0 3d 2f 62 07 3e 78 6d 4c 3e 65 33 d2 3d
       0.078168035 0.13221048 0.19963634 0.10263709
0000a0 d2 c8 84 3e c1 ce 06 3e b9 31 67 3e 69 b9 99 3d
       0.25934464 0.13164808 0.22577561 0.07506067
0000b0 f4 2e 0b bd 2f 71 39 3e 68 3d c2 3d 81 0d 6b 3e
       -0.033980325 0.18109582 0.094843686 0.2295437
0000c0 e7 e2 e0 bd a2 43 1d 3e e2 8d fd 3e b1 95 b3 3d
       -0.10980778 0.15357831 0.4952231 0.08768786
0000d0 13 d5 7f 3e 40 49 dd 3d 1c fb 28 bd 26 04 71 bc
       0.24983625 0.10804987 -0.0412551 -0.014710462
0000e0 5c 71 43 3e 02 61 e3 3e b2 7b 13 3e 72 0e 8f 3e
       0.19086212 0.4440995 0.14402655 0.27940708
0000f0 66 42 7c 3e dc ce 99 3d e1 19 3b 3d d3 3b 48 3e
       0.24634704 0.075101584 0.045678977 0.19554071
000100 16 a1 91 bd 00 3e dd 3d 2e 78 80 3d f0 70 cd bd
       -0.07110803 0.10802841 0.062729225 -0.10031307
000110 a0 b2 6c bd 18 bc 92 bd 0e 94 8d 3d 10 3b 8a 3c
       -0.057787538 -0.07164782 0.06913005 0.016873866
000120 aa d6 c9 bd e2 7f 9a bd 46 4e ae bd b2 52 b5 bd
       -0.09855397 -0.07543923 -0.08511023 -0.088536635
000130 28 f7 e5 bc fc fb d4 bd 48 48 89 bd 0a 53 af bd
       -0.028071955 -0.10399625 -0.0670324 -0.0856076
000140 d8 ae 6e bd ca ff fd 3d 28 61 f5 bd b0 0e 7c bc
       -0.058272213 0.124023035 -0.11981422 -0.015384361
000150 80 88 15 bc 78 53 d8 3c 50 e7 c3 bd f6 9f 8c bd
       -0.009126782 0.026406989 -0.09565604 -0.06866448
000160 38 2f e8 bd e4 92 df bd 3c 1a 04 3d 7c 31 ea bd
       -0.11337131 -0.10916689 0.03225158 -0.1143522
000170 f8 ee eb bc b8 b3 a3 3c 58 6c a6 bd 20 36 25 bd
       -0.028800473 0.019983158 -0.08126134 -0.04033482
000180 24 49 81 3d f2 ce 89 bd a8 9d 99 bd 56 9e 98 3d
       0.063127786 -0.06728925 -0.07500774 0.07452075
000190 bc 60 98 3d 94 9a cb bd d0 64 99 bd 70 22 65 3d
       0.074403256 -0.09941593 -0.074899316 0.055941045
0001a0 74 a8 43 bd e0 ee cb bd 40 a9 88 3b 60 ae 0c 3d
       -0.04776807 -0.09957671 0.004170567 0.034345984
0001b0 c0 a4 1f bc 6a 81 b4 3d fc fe c8 3d a2 23 f2 3d
       -0.009743869 0.08813746 0.098142594 0.11823203
0001c0 80 9d 35 3b 1e 23 ec 3d 7c 00 07 3d 64 10 3a bd
       0.0027712286 0.115301356 0.032959446 -0.045425788
0001d0 ac b5 57 3d 58 2c eb 3d c0 34 1e 3c a4 88 e5 3d
       0.05266349 0.11483067 0.009656131 0.11207703
0001e0 28 1b 81 bd d8 d4 a3 3d 70 24 2c 3c b8 54 68 bd
       -0.06304008 0.07999581 0.010506734 -0.05672142
0001f0 80 cc cb 3c b0 11 d8 3d da 35 ef 3d b0 7f e3 bd
       0.024877787 0.105502486 0.11680193 -0.11108339
000200 9c 25 e3 bc ef 81 63 bc cd d6 89 3d 88 dd 1a 3d
       -0.027727894 -0.013885959 0.06730423 0.037808925
000210 06 3e d0 bd 34 fa 5f 3e 10 7b 10 3e 1a fc b2 bd
       -0.1016808 0.21872789 0.14109445 -0.08739491
000220 c6 15 d9 3d c0 94 cc 3d ae 2f a1 bd 84 62 20 be
       0.10599856 0.09989309 -0.07870422 -0.1566258
000230 15 9a 50 3d ec 64 05 3e c8 74 aa bd e2 c1 44 3d
       0.050928194 0.1302678 -0.083230555 0.048036464
000240 49 78 c7 bd d3 25 7d bd e1 26 ac bd 0a 46 4a bd
       -0.097397394 -0.06180365 -0.08405853 -0.0493832
000250 92 99 af bd cc 4e 7e bd 6b 76 36 3b d5 93 b4 bc
       -0.08574213 -0.062086865 0.0027841579 -0.022043148
000260 48 89 72 3c 59 59 05 3e 94 0b b6 3d a4 e0 f7 3d
       0.014803238 0.13022365 0.08888927 0.12103394
000270 29 0f c6 bd 25 d2 c0 3d 4b 88 3f bd 98 13 67 bd
       -0.0967086 0.09415082 -0.04676084 -0.05641517
000280 1f 5b 07 3e 09 c9 9c 3d 2f c9 da 3d 48 ef 44 be
       0.13218354 0.07655532 0.10682904 -0.19231904
000290 41 81 e0 bd d0 02 e9 3d 00 d9 e5 bc 7b e7 fc bc
       -0.10962153 0.113774896 -0.028057575 -0.030872097
0002a0 2f ff 31 3d 8c 52 a7 3d f3 3f 1d be 1b d0 41 3d
       0.043456253 0.081700414 -0.15356426 0.047317605
0002b0 a9 a6 ab 3d b5 ed a9 3d a6 c6 b0 bd 2b 2a 7f 3d
       0.08381397 0.08297292 -0.08631639 0.062296074
0002c0 e5 0c 9d bc e0 6d 00 ba 95 b5 6a 3e b6 f3 00 3e
       -0.019171188 -0.0004899185 0.2292083 0.12592968
0002d0 fc 86 0e 3b 38 ee ab bd 4a 20 21 3d dc 86 88 3c
       0.0021747937 -0.08395046 0.039337434 0.016665868
0002e0 6d 6c c3 3d c9 fe 91 3d 0f 3c dc 3d 03 f6 f1 bd
       0.09542165 0.071286745 0.10753643 -0.11814501
0002f0 97 d6 bb 3d b8 3e 9a b8 87 bd 84 3d 7f c8 13 be
       0.09171789 -7.3549745e-05 0.06481462 -0.14431952
000300 b7 c1 7f 3e 67 c0 72 3d 1b df 17 bc d8 ae 8f bd
       0.2497624 0.05926552 -0.009269501 -0.07015771
000310 48 93 54 3e 7b 33 a0 3e 16 bf 01 3e c0 c0 3b 3e
       0.20759308 0.31289276 0.1267055 0.18335247
000320 65 99 80 3e f6 c9 e6 3d ff f3 2e 3c 30 c9 09 3d
       0.2511703 0.1126899 0.01067829 0.033639133
000330 31 4f 28 3e 63 ca 22 3d 95 4d 67 3d 7b 05 6d 3e
       0.16436459 0.039743792 0.056470472 0.23146622
000340 a1 9c c7 3c 0b f4 d4 3d c8 32 53 3e 63 c5 1e 3e
       0.024366679 0.1039811 0.2062484 0.15504985
000350 0a 49 d4 3d 81 b7 29 bc 36 7e f5 bd b8 fa f8 3d
       0.103654936 -0.010358692 -0.119869635 0.12157196
000360 5c 59 84 3e 06 22 18 3e 69 f6 48 3e 73 35 fb 3d
       0.25849426 0.14856729 0.19625248 0.12266054
000370 e5 24 e3 3d bd 62 90 3e f0 07 56 bc 99 f7 64 3e
       0.110910214 0.2820033 -0.013063416 0.22360076
000380 73 21 25 3e 42 93 01 3e fc ec 9e 3e 56 35 50 3e
       0.16126041 0.1265383 0.3104018 0.20332846
000390 b9 02 f6 3d f0 3e 4f 3e cf 70 33 3d 8f 28 09 be
       0.12012238 0.20238853 0.043808755 -0.13394378
0003a0 6b 6d 42 3e 69 b5 f9 3d 44 c2 c3 3d 8e 7d 4a 3d
       0.18987052 0.12192804 0.095585376 0.049436145
0003b0 dd a1 08 be 62 d0 a9 3d a3 e0 74 3e 62 3d 42 3e
       -0.13342996 0.08291699 0.23913817 0.18968728
0003c0 ca eb a2 bd 31 a6 82 3e 30 de d9 3e d0 7b 29 3e
       -0.079551294 0.2551742 0.42552328 0.16551137
0003d0 97 05 87 3d cf 08 82 3e f7 39 ae bc c3 5f 7d bb
       0.06592863 0.25397345 -0.021267874 -0.0038661815
0003e0 1c 4a c0 3d 79 54 f9 3e 53 19 8f 3d c4 cc 11 3e
       0.09389135 0.4869726 0.06987252 0.14238268
0003f0 f9 29 f5 3d 0b 7d ad 3d 16 f3 2b 3d 36 a2 68 3e
       0.11970896 0.08471116 0.04197987 0.22718129

bias_hh_l0 f4 [256]
000000 66 3e 02 3e f3 9b 46 3e e2 b7 f2 3d 59 f9 de 3d
       0.12719116 0.19395427 0.11851479 0.10887403
000010 3c 24 bc 3c c5 2e d2 3e cc c2 4d 3e 29 ad 38 ba
       0.022966497 0.41051307 0.2009384 -0.0007044846
000020 d7 7d c5 3d 02 23 88 3e 42 05 28 3e 72 ce 53 bc
       0.09643143 0.2658921 0.16408256 -0.012927638
000030 91 a9 09 3e 41 cf 57 3e d0 9c 48 bd fa fe e6 3b
       0.1344359 0.21075155 -0.048977673 0.0070494385
000040 58 da 83 3d 1e fd e1 bc 35 d7 a3 3d ef 77 c6 bb
       0.0643813 -0.027586516 0.08000032 -0.0060567777
000050 ab f5 87 3e 12 e0 ad bc 43 74 10 be c6 61 bc 3d
       0.26554617 -0.02122501 -0.1410685 0.09198336
000060 11 eb 6c 3e 74 ab 9a 3c a1 96 9b 3d 1d 03 c4 bc
       0.23136546 0.018880583 0.075970896 -0.023927266
000070 32 cd 56 bc 1b c4 75 3e 98 ff 1b ba 92 5f 26 3e
       -0.013110446 0.2400059 -0.0005950867 0.16247395
000080 3b 45 b6 3d b3 aa 22 3e ab c6 a4 3d 34 34 98 3e
       0.088999234 0.15885429 0.080457054 0.29727328
000090 dc 42 3c 3e a5 47 42 3e 48 9f 26 3e 81 8d 92 3c
       0.1838488 0.18972643 0.16271698 0.01788974
0000a0 14 8b 8f 3e 4c c8 2a 3e 43 29 23 3e 98 bf 96 3d
       0.28035796 0.1667797 0.15933709 0.07360762
0000b0 5e a8 8d bd 3a 43 03 3e e4 0c 19 3e 2e e0 94 3e
       -0.06916879 0.12818614 0.14946324 0.29077286
0000c0 70 0d 34 bd b5 72 9c 3e e5 e2 00 3f b1 e7 60 3e
       -0.043958127 0.30556265 0.50346214 0.21963383
0000d0 ba bb 58 3e 00 d6 56 3d c0 af ad 3d 7a db 76 bd
       0.21165362 0.05245018 0.08480787 -0.060267903
0000e0 2e 96 9f 3d 56 e7 85 3e 62 af b5 3d 1e aa f4 3d
       0.077923164 0.26153058 0.08871342 0.1194651
0000f0 e6 ee 76 3e 61 d7 08 39 14 87 66 3e 4f 6e 3e 3e
       0.2411457 0.00013050206 0.22512466 0.18596767
000100 5a f3 b9 3d 18 5a 67 3d 2c d9 36 3d d6 20 c2 3d
       0.09079619 0.056482404 0.044640705 0.09478919
000110 84 05 c2 bd ae cd ff 3d aa df 84 bd 4e 98 8f bd
       -0.09473708 0.12490402 -0.06487973 -0.07011472
000120 b4 c8 27 bd e4 a2 5e 3d 9c ea 91 3d a0 93 46 3c
       -0.04096289 0.054354563 0.07124826 0.0121201575
000130 d8 af 63 bd f8 52 b6 3d 16 41 ae 3d 0c 02 15 bd
       -0.05558762 0.08902544 0.08508508 -0.036378905
000140 d8 ea 37 bd bc 7d f6 3d 40 b5 69 3b 78 e5 0c bd
       -0.0449017 0.12035701 0.0035661012 -0.034398526
000150 62 73 ed bd 64 f7 7b bd 32 9d d3 3d d0 83 b0 bc
       -0.11594273 -0.061515227 0.10332717 -0.021547228
000160 a0 31 26 bc 00 6a 0b bc 48 33 d8 bd 92 9e d0 3d
       -0.010143667 -0.008509159 -0.10556656 0.10186495
000170 54 49 e3 3d d8 78 70 bd 0c 84 fb bd 18 dc 61 3d
       0.110979706 -0.058708996 -0.12281045 0.05514154
000180 f8 04 a2 3c de a8 95 bd bc 5b 77 3d 42 62 fb bd
       0.01977776 -0.073075995 0.06039022 -0.122746006
000190 18 e9 4f bd 80 3f 45 bc e6 c8 c8 bd ac 88 3d 3d
       -0.050759405 -0.012039065 -0.09803943 0.04627292
0001a0 54 84 04 bd 04 05 34 bd 38 2d c3 3d 5c ab e3 3d
       -0.03235276 -0.043950096 0.09530109 0.111166686
0001b0 b4 af 0c bd d0 b9 eb bd 24 06 fb bd 38 b3 d5 bd
       -0.03434725 -0.1151005 -0.122570306 -0.10434574
0001c0 50 14 0e bc 98 2a e4 bc 3e 2c e9 3d 88 f3 eb bd
       -0.008671835 -0.027852342 0.11385392 -0.11521059
0001d0 bc 90 16 bd ee de 9b 3d 00 72 ea ba d2 07 94 3d
       -0.036759123 0.0761088 -0.0017886758 0.07228054
0001e0 e4 3c 5a bd 82 6e 8d bd a6 8a ef bd 20 29 51 3d
       -0.053280726 -0.06905843 -0.11696367 0.05106461
0001f0 d8 7e 00 3d 40 57 64 3b 78 f8 ac 3c f4 0b 03 3d
       0.031370968 0.0034842044 0.021114573 0.03199382
000200 68 4e 04 b6 3b fe 30 3c cd e6 18 3d ad e3 6f bd
       -1.9715171e-06 0.010802801 0.037329484 -0.058566738
000210 66 cd a0 bd 2a 45 99 3d fa 0f 91 bd 93 3c 7d bd
       -0.07851677 0.07483895 -0.070831254 -0.061825346
000220 f4 1a cc bd 16 e3 6f 3d cc 72 51 3d 96 ed 0b bd
       -0.099660784 0.058566175 0.05113487 -0.034162126
000230 ff a0 81 bd aa 7d 8d bd 36 e6 e9 3d a4 46 16 3d
       -0.06329536 -0.06908734 0.114208624 0.036688462
000240 ed bd b3 bd 0c 71 a9 bd 44 7a 63 3c 36 d9 95 bd
       -0.0877646 -0.08273515 0.013884131 -0.0731682
000250 79 7a d6 3c e3 ce af 3a 13 46 49 bd 09 8b ba bc
       0.026181446 0.0013413097 -0.049139094 -0.022771375
000260 88 70 f9 bd 34 28 0b bd 2d d1 83 bd b5 f9 c3 bc
       -0.12179667 -0.033973888 -0.064363815 -0.02392278
000270 c7 dc 5e bd aa 5b 16 be e2 06 da 3c c7 d0 90 3d
       -0.05440977 -0.14683405 0.02661461 0.07071071
000280 ba 56 1a bd 1b 80 6f 3d 80 13 29 bd 4b 64 54 be
       -0.037680365 0.05847178 -0.041278362 -0.20741384
000290 5f 8c 76 bd 84 df 87 bd 3d 04 8f 3d a5 75 bf bd
       -0.060192462 -0.06634429 0.0698323 -0.09348611
0002a0 58 f4 a4 bb 5c fa f3 bd a5 1a 98 3c 33 40 a4 3d
       -0.005034011 -0.11912987 0.018567393 0.080200575
0002b0 9d a5 8e 3d fc 78 e3 3d 22 a4 c5 3d b5 61 30 3d
       0.06965182 0.1110706 0.096504465 0.04306193
0002c0 b9 61 f6 3d 18 cf b1 3d 38 ec 0d 3d 8e 87 ac bb
       0.12030358 0.08682078 0.034649104 -0.005265183
0002d0 66 0b cc 3d 88 9b 10 bd c6 b7 8d bc fa 16 27 3e
       0.099631116 -0.035304576 -0.017299544 0.16317359
0002e0 e4 32 a9 3c 95 bc 1e 3d ba 4f d1 3d 95 49 45 3d
       0.02065415 0.038754065 0.10220285 0.048165876
0002f0 e5 21 aa bd 15 13 cd 3d f6 b0 d7 bd be fb ae 3d
       -0.08307246 0.10013405 -0.105317995 0.0854411
000300 95 eb a9 3e 2e e8 19 3e 19 74 93 bd 6e 6b 11 3d
       0.33187547 0.15029976 -0.07199878 0.035502844
000310 7d db 65 3e 18 af a6 3e a9 f4 18 3e 82 51 25 3e
       0.2244701 0.3255546 0.1493708 0.16144374
000320 f2 e3 82 3e e8 d3 59 3e fb 56 1d 3e fb 54 35 3e
       0.25564533 0.21272242 0.15365212 0.17708199
000330 d0 ba 6b 3e f9 cd e3 3d 0a 33 9d bd 40 ca 90 3d
       0.23020482 0.111232705 -0.076757506 0.07069826
000340 31 1a 11 3d 59 26 13 bd a5 eb f4 3d 3b d5 24 3e
       0.03542537 -0.035925243 0.11959008 0.16096966
000350 75 10 62 3e 6b 90 3b 3d a8 3c 6f 3d 3a 07 77 3e
       0.2207659 0.045792025 0.058407456 0.2412385
000360 fe d9 47 3e 22 49 a9 3d ae b6 3d 3e 01 57 83 3d
       0.19516751 0.08265902 0.18526718 0.06413079
000370 7e 28 ab bc 71 5d a8 3e 98 e8 cd 3d 31 44 92 3e
       -0.020893332 0.3288379 0.10054129 0.2856765
000380 1c 21 88 3d 12 17 c6 3d f5 40 fc 3d 19 6c 33 3e
       0.0664694 0.09672369 0.12317077 0.17521705
000390 d6 14 18 3e 0f b9 ba 3d 41 02 47 3e b4 9e a5 bd
       0.14851698 0.091173284 0.19434454 -0.08086911
0003a0 e0 c9 73 3e 57 8a ef 3d ba 27 4c 3e b4 eb e4 3d
       0.23807478 0.11696308 0.1993703 0.11177769
0003b0 20 9b b2 bd 8a d1 27 3e e0 1e 0a 3e 80 5a 2c 3e
       -0.08720994 0.16388527 0.1348834 0.16831398
0003c0 37 b5 18 bd 0b be 65 3e 56 d3 13 3f ad 3b 81 3e
       -0.037282195 0.22435777 0.5774435 0.25240842
0003d0 3d 2b 85 3e 3b bb 28 3e cf 3f e4 ba 88 6b e9 bd
       0.2600955 0.16477673 -0.0017414036 -0.11397463
0003e0 34 6f 21 3e e8 68 bb 3e 1b 55 f7 3d e9 a2 d2 3d
       0.15765077 0.36603475 0.120767795 0.10284979
0003f0 79 5c 55 3e 9f c8 bc bd e5 87 62 3e 01 43 23 3e
       0.20836057 -0.09217953 0.22122152 0.15943529

weight f4 [1, 64]
000000 a3 71 4d be 7c cd 7b be 1c 6e 1c be f4 2b e3 3d
       -0.2006288 -0.24590105 -0.15276378 0.11092368
000010 93 c5 fe 3d ed 30 68 be 00 c4 30 be 77 ff 4e 3e
       0.12440028 -0.22674914 -0.17262268 0.2021464
000020 6f 73 57 3e 74 3e 4e 3e f1 53 18 3e d3 77 0d be
       0.21040128 0.20141011 0.14875771 -0.1381524
000030 00 bd 65 3e 6a 00 23 3e 92 9c 04 bc e8 be 5f 3e
       0.22435379 0.15918127 -0.00809397 0.21850169
000040 42 ce 52 3e da 83 c3 3d d6 6a 80 be c8 db 21 be
       0.20586494 0.09546633 -0.2508151 -0.15806496
000050 83 06 4c be be 09 e3 bb d3 b0 b5 3d 91 dc 80 3e
       -0.19924359 -0.0069286516 0.08871617 0.2516828
000060 a0 24 87 be 11 2f 3a 3e ee f2 01 3e c7 93 08 3e
       -0.2639513 0.18182017 0.12690327 0.13337623
000070 9e ba f5 bd 11 29 99 be 30 32 93 3d 44 7f 7a 3e
       -0.11998485 -0.29914144 0.07187307 0.2446261
000080 8d c0 41 3e 99 31 de 3d d0 5c 25 be 8f a8 42 3e
       0.18921109 0.10849304 -0.16148686 0.19009613
000090 16 a1 8b bd 2a 6c a1 bd f3 e8 5e 3e ee 68 3f 3d
       -0.06817834 -0.07881959 0.2176855 0.046730928
0000a0 19 82 03 be 8d 2b 84 be 73 7c 1a 3e 05 8c bf bd
       -0.12842597 -0.25814477 0.15086536 -0.093528785
0000b0 1e 0c 84 bd 76 08 24 be c6 7b 2f 3e cc 8c 2f be
       -0.06447624 -0.16018853 0.1713706 -0.17143553
0000c0 5c f3 fd 3c 11 81 45 be 95 fc be be fa c6 06 be
       0.030999832 -0.19287516 -0.3730208 -0.13161841
0000d0 e4 86 74 be 9a 77 5c be bb ec cd bd d6 13 04 3e
       -0.23879582 -0.2153 -0.100549184 0.12898192
0000e0 91 79 48 be 2c 15 81 3e f9 1e 1e 3e 03 54 0e 3e
       -0.19577624 0.25211465 0.15441503 0.13899235
0000f0 33 32 7e 3e 07 4e f9 bd 00 51 3d be 20 47 62 3e
       0.24823837 -0.12173086 -0.1848793 0.22097445
