PV_prediction/modelpth/model_30.pth (torch, 75295 bytes, 5 tensors)

weight_ih_l0 f4 [256, 4]
0.24792753 -0.06848754 0.0062789465 0.112637624 0.022226669 -0.10399297 0.011748264 -0.13644917
0.031169811 0.15428995 0.0395005 0.13320343 0.06610164 0.18676269 0.16974297 0.033947114
0.21290348 0.076590665 0.13264765 0.20971902 0.008621573 0.0834903 0.17984247 -0.015716845
0.106139705 0.13575369 0.1356017 0.05700711 0.18184514 0.24764766 0.016926697 0.0021017792
0.10485128 0.1236657 0.107981384 -0.031847864 0.07861785 0.040161323 0.089203075 -0.081187755
0.15458938 -0.20371726 0.12829538 -0.17211258 0.20598873 0.13862461 0.14240491 0.214413
0.04511514 -0.059181616 0.25292808 0.034206662 -0.02675469 0.016077843 -0.15123163 0.081688076
0.11973638 0.2126974 -0.11395901 0.033970322 -0.07925736 -0.12996642 0.042030886 -0.056408208
0.033235993 0.2455259 -0.0051652123 0.0141648725 0.056791384 0.039975096 0.09339832 0.059322342
0.23795606 0.03138471 0.22417429 0.11436422 0.10958418 0.012858805 0.10011299 0.047428213
0.061106037 -0.041785266 -0.061162755 -0.09586656 0.14001796 0.121202186 -0.026426792 -0.030124515
0.0935232 0.11076077 0.014580684 -0.007760087 0.12427115 0.15051317 0.06150196 0.2177144
-0.06834348 0.027902497 0.057199933 -0.12515126 0.12995365 -0.07731182 -0.12527539 -0.0056095542
0.24238539 -0.14974329 -0.012955743 -0.10499348 -0.026854733 0.0060143876 0.2270321 0.12465504
0.13691553 0.034276657 0.08149151 0.018681997 0.24271059 -0.07465885 0.49277928 0.05165994
0.042727828 0.19065058 0.059157535 -0.03538753 0.19877484 0.20554718 0.28009644 0.042284302
0.034319162 -0.03429626 -0.047756065 -0.018611189 0.20352626 0.22358625 0.14174624 0.12275895
-0.02091995 0.115768455 0.08314554 0.22985624 0.13932405 0.09051842 0.19114703 0.028416919
0.11929778 0.0015108294 0.3828224 -0.05237878 0.14837757 -0.16755952 0.12174413 -0.3106316
-0.0071826144 0.06506501 -0.0069316104 0.038688045 -0.06623727 -0.16532698 -0.05486347 0.034087975
0.0016392907 0.17112578 -0.04250399 0.16575186 0.24750139 0.09449702 0.1660243 0.003231654
0.0044352068 -0.10870734 0.16478549 0.039879657 0.07873475 -0.70910513 0.17983536 -0.45501736
-0.015159776 -0.0828649 -0.019731037 -0.0019587374 0.11691717 0.12171263 0.056124553 -0.024815578
0.12104288 0.1496049 -0.02580778 0.08226885 0.009128531 0.22392249 -0.064948864 0.115220495
0.028330792 0.09221312 0.12799741 0.1228948 0.22786103 0.17149979 0.08274067 -0.028852759
-0.026965907 0.103669755 -0.01101162 0.20194833 0.20434204 0.21345347 0.062391702 0.016578225
0.23737483 0.015544167 0.03674356 0.0979398 -0.12649621 0.014704352 0.009807394 0.022484573
0.027216533 0.083991475 0.16281395 -0.09679682 0.014435496 0.19164792 -0.017531144 0.06865679
0.06965222 -0.102078624 0.098810576 0.0017312217 0.09511899 -0.0120942965 -0.053271115 0.09965724
0.07727115 0.24084237 -0.009471473 0.082836516 0.10999974 -0.09576349 0.14473161 0.03725524
-0.130058 -0.022616839 -0.043059167 -0.10311599 0.20942907 0.1414832 0.17547075 0.116182804
0.15832478 -0.0543159 0.081725925 -0.15529107 0.21490663 0.04755892 -0.15655266 0.045462545
00000000: b7e0 7d3e 3243 8cbd 9fbf cd3b 8eae e63d
00000010: b414 b63c 44fa d4bd ca7b 403c 55b9 0bbe
00000020: d557 ff3c 2ffe 1d3e 47cb 213d 7b66 083e
00000030: 4c60 873d b83e 3f3e 1ad1 2d3e 210c 0b3d
00000040: 5f03 5a3e 91db 9c3d c9d4 073e 95c0 563e
00000050: 8041 0d3c f6fc aa3d a028 383e 9dc0 80bc
00000060: c65f d93d 0403 0b3e 2cdb 0a3e 4a80 693d
00000070: 9d35 3a3e 5997 7d3e dba9 8a3c 01be 093b
00000080: 45bc d63d 7144 fd3d 5825 dd3d e872 02bd
00000090: 6502 a13d 3380 243d 1ab0 b63d c445 a6bd
000000a0: ae4c 1e3e 429b 50be dd5f 033e 483e 30be
000000b0: b6ee 523e 9cf3 0d3e 98d2 113e 158f 5b3e
000000c0: a7ca 383d 6c68 72bd ca7f 813e 491c 0c3d
000000d0: a72c dbbc aeb5 833c 77dc 1abe 144c a73d
000000e0: 5938 f53d 59cd 593e 5763 e9bd 7724 0b3d
000000f0: af51 a2bd eb15 05be 9428 2c3d 4b0c 67bd
00000100: 7722 083d 246b 7b3e f140 a9bb c813 683c
00000110: 159e 683d edbc 233d 9e47 bf3d fcfb 723d
00000120: c1aa 733e 418d 003d f28d 653e ca37 ea3d
00000130: ac6d e03d bdad 523c 0a08 cd3d 1644 423d
00000140: 534a 7a3d 0727 2bbd cc85 7abd b055 c4bd
00000150: de60 0f3e da38 f83d 007d d8bc b0c7 f6bc
00000160: 1789 bf3d 8bd6 e23d d2e3 6e3c 5448 febb
00000170: df81 fe3d 2020 1a3e 7be9 7b3d 86f0 5e3e
00000180: abf7 8bbd c793 e43c 7a4a 6a3d a727 00be
00000190: 9212 053e a955 9ebd 3148 00be 5ad0 b7bb
000001a0: e033 783e 4e56 19be 5344 54bc d206 d7bd
000001b0: 75fe dbbc 5714 c53b 1a7b 683e 244b ff3d
000001c0: 9633 0c3e ae65 0c3d 05e5 a63d fd0a 993c
000001d0: 2089 783e bde6 98bd 914d fc3e 6099 533d
000001e0: 6003 2f3d e839 433e 2c4f 723d 84f2 10bd
000001f0: a28b 4b3e f67a 523e cd68 8f3e 4e32 2d3d
00000200: 4092 0c3d 3c7a 0cbd dd9b 43bd 7e76 98bc
00000210: 3069 503e cbf3 643e ed25 113e 0b69 fb3d
00000220: 5160 abbc 0318 ed3d 3548 aa3d 6f5f 6b3e
00000230: f7aa 0e3e b961 b93d 0cbc 433e 99ca e83c
00000240: 6552 f43d 0607 c63a 4c01 c43e 228b 56bd
00000250: 4af0 173e b994 2bbe fd54 f93d 1b0b 9fbe
00000260: 235c ebbb ce40 853d 9022 e3bb 5b77 1e3d
00000270: 68a7 87bd 7a4b 29be 85b8 60bd d59f 0b3d
00000280: 78dd d63a 993b 2f3e aa18 2ebd dbba 293e
00000290: 0171 7d3e a787 c13d 4602 2a3e 28ca 533b
000002a0: 3655 913b f4a1 debd 87bd 283e da58 233d
000002b0: af3f a13d ea87 35bf c326 383e 09f8 e8be
000002c0: b660 78bc 13b5 a9bd fca2 a1bc 295e 00bb
000002d0: 4572 ef3d 7944 f93d dce2 653d 0a4a cbbc
000002e0: 54e5 f73d 0732 193e d66a d3bc 927c a83d
000002f0: d68f 153c f04b 653e e903 85bd b9f8 eb3d
00000300: fa15 e83c 3bda bc3d c111 033e 45b0 fb3d
00000310: 6754 693e a49d 2f3e f173 a93d 9f5c ecbc
00000320: 9be7 dcbc cf50 d43d 156a 34bc 8bcb 4e3e
00000330: 0a3f 513e 8c93 5a3e 718e 7f3d 0fcf 873c
00000340: 6312 733e f6ac 7e3c 6a80 163d a994 c83d
00000350: 3988 01be 86ea 703c 31af 203c 9131 b83c
00000360: 35f5 de3c b903 ac3d b3b8 263e 693d c6bd
00000370: dc82 6c3c 5a3f 443e 799d 8fbc ee9b 8c3d
00000380: d3a5 8e3d 990e d1bd 335d ca3d 29ea e23a
00000390: bfcd c23d 2827 46bc d032 5abd 1819 cc3d
000003a0: 5640 9e3d 629f 763e 3d2e 1bbc 31a6 a93d
000003b0: 8b47 e13d a61f c4bd 8634 143e f398 183d
000003c0: ed2d 05be f346 b9bc cf5e 30bd 7a2e d3bd
000003d0: 9374 563e f9e0 103e 9bae 333e 40f1 ed3d
000003e0: e41f 223e 597a 5ebd ec5f a73d 9f04 1fbe
000003f0: 7c10 5c3e 24cd 423d 574f 20be ef36 3a3d

weight_hh_l0 f4 [256, 64]
-0.061967656 -0.04426147 -0.07982451 0.07212655 -0.10657133 0.10266243 0.077827066 0.015323371
-0.0025748461 -0.032309964 0.0017919838 0.10651484 -0.043142155 -0.08594076 -0.027536988 0.11941016
0.0077423006 0.039760098 0.0927141 -0.018094987 0.10596813 -0.0083343685 0.017642543 -0.0880954
-0.019474074 -0.01648122 0.064099774 -0.10196824 -0.10337581 0.02642423 0.07792956 -0.07495794
-0.05443272 0.10785358 -0.004684463 -0.035608515 0.07571009 -0.056234702 -0.06918207 0.1114092
0.053369507 0.11031082 -0.068124786 0.07657817 0.120063156 0.07946333 -0.12403044 0.066272125
0.09560412 0.095145345 0.03845924 0.043235675 -0.058888793 0.018913493 0.040488884 -0.079647765
0.02928926 0.034921065 -0.12137623 -0.07347725 -0.0069351643 0.052628875 -0.06026919 -0.06771238
-0.109499395 -0.02616255 0.019322246 0.0844464 -0.043868303 0.102728784 -0.06066583 -0.10717854
-0.102969006 0.08568752 0.0077567697 0.10769309 0.059934244 -0.07099038 -0.044071764 0.09182355
0.018558621 -0.043219194 -0.111733735 0.06025204 -0.07266845 0.035035998 -0.12494977 0.084162235
-0.09248507 -0.00029286742 0.12442842 -0.047542065 0.0962657 0.10449749 -0.033155784 0.11476588
0.088789225 -0.04753919 0.07589826 0.10091999 0.0038775653 -0.06082973 0.08567773 -0.05097489
-0.05450204 0.10104135 -0.034224316 0.04053393 -0.0992741 -0.111514956 0.12160446 -0.06607799
-0.09310639 -0.07572116 0.05182354 0.054620236 0.1088223 -0.03525357 -0.023013934 0.087980956
0.060972586 -0.055438116 -0.049726322 -0.10166514 -0.10058148 -0.05980943 0.003943011 0.020664081
-0.03444761 -0.03442508 0.118186325 0.043093115 0.053901315 -0.022989541 -0.05980423 0.015248522
-0.08968228 0.010458559 0.069685936 0.018532112 0.09737831 0.06989269 0.02147238 0.064879015
-0.004365325 -0.098598704 0.05199994 -0.10547757 -0.015276745 0.060042486 -0.11870034 -0.08533004
0.005978167 0.01221621 -0.010973856 -0.039948627 -0.065327644 -0.016733944 -0.071865916 0.008136958
0.10134049 -0.08108941 0.10572837 -0.09240529 0.022309601 -0.012775511 -0.0741286 -0.02596879
0.111341804 0.08055642 -0.028764606 -0.033263624 0.013191268 -0.05647424 0.0640101 -0.0055939406
0.035366297 0.06835109 -0.0736967 -0.08377558 -0.053509623 -0.09875363 0.08183871 0.04606439
-0.10035607 -0.08161558 -0.052988127 0.0631119 0.049563125 -0.07877445 -0.00282982 0.12418364
-0.023275793 0.10215679 0.07891162 0.09124078 0.12293747 -0.019711897 -0.047189146 -0.08629048
-0.03966555 -0.026459008 0.047689125 0.10978077 -0.035403416 0.006871626 -0.0607443 -0.026477933
0.11085746 -0.109343335 0.03891526 0.09901114 0.07103953 0.116408035 0.11335321 0.033587113
-0.007719204 -0.08365165 -0.07053132 0.0046169013 -0.09739643 0.0841444 0.05742085 0.053482115
0.029113978 -0.04976213 -0.003138423 -0.08417772 -0.045381308 0.038121387 -0.09801009 0.07977368
0.0068288743 0.063803986 -0.08701463 0.041684687 -0.0009474158 -0.036177382 -0.089688495 0.0639877
-0.037812933 0.024481565 -0.016300663 -0.046380416 0.08210525 -0.004368067 0.065170184 0.11123507
-0.0108358115 -0.026732951 0.081293315 0.09470816 0.06186427 0.08988197 0.012952149 0.12398639
00000000: ccd1 7dbd 844b 35bd 087b a3bd 16b7 933d
00000010: 1242 dabd ae40 d23d cc63 9f3d e00e 7b3c
00000020: c0be 28bb 7457 04bd 00e1 ea3a 7424 da3d
00000030: d4b5 30bd b601 b0bd 4095 e1bc 508d f43d
00000040: 20b3 fd3b 7cdb 223d e4e0 bd3d f03b 94bc
00000050: d205 d93d e08c 08bc 1887 903c 5c6b b4bd
00000060: 1888 9fbc a003 87bc be46 833d bad4 d0bd
00000070: b2b6 d3bd a077 d83c 8899 9f3d 8c83 99bd
00000080: d8f4 5ebd 56e2 dc3d 2080 99bb 3cda 11bd
00000090: e40d 9b3d 5c56 66bd 54af 8dbd 822a e43d
000000a0: fc99 5a3d a4ea e13d 0285 8bbd 04d5 9c3d
000000b0: ace3 f53d acbd a23d ac03 febd aeb9 873d
000000c0: 18cc c33d 90db c23d 7087 1d3d e417 313d
000000d0: 6035 71bd 78f0 9a3c acd7 253d 5e1e a3bd
000000e0: 08f0 ef3c 6409 0f3d 1a94 f8bd 3e7b 96bd
000000f0: 6040 e3bb 6091 573d d4dc 76bd caac 8abd
00000100: 3841 e0bd d852 d6bc b049 9e3c 3cf2 ac3d
00000110: 40af 33bd 7863 d23d bc7c 78bd 6c80 dbbd
00000120: 6ae1 d2bd f07c af3d 802c fe3b 328e dc3d
00000130: 9c7d 753d 6863 91bd 9884 34bd fc0d bc3d
00000140: 4008 983c 9c06 31bd a8d4 e4bd d8ca 763d
00000150: 32d3 94bd e881 0f3d aae5 ffbd 405d ac3d
00000160: d068 bdbd 008c 99b9 54d4 fe3d 78bb 42bd
00000170: f426 c53d c802 d63d 5cce 07bd 600a eb3d
00000180: 20d7 b53d 74b8 42bd 8c70 9b3d 24af ce3d
00000190: c01e 7e3b 9828 79bd ce77 af3d 0ccb 50bd
000001a0: 883d 5fbd c4ee ce3d cc2e 0cbd e806 263d
000001b0: 3850 cbbd f461 e4bd c20b f93d e653 87bd
000001c0: 90ae bebd b213 9bbd ec44 543d 78b9 5f3d
000001d0: 3ade de3d 0c66 10bd b887 bcbc 5c2f b43d
000001e0: 64be 793d 1413 63bd d4ad 4bbd d035 d0bd
000001f0: aafd cdbd bcfa 74bd 6034 813b b847 a93c
00000200: f018 0dbd 5001 0dbd ac0b f23d 6882 303d
00000210: a0c7 5c3d 9054 bcbc 48f5 74bd f0d4 793c
00000220: 58ab b7bd 605a 2b3c 80b7 8e3d a8d0 973c
00000230: 486e c73d e623 8f3d d8e6 af3c 4adf 843d
00000240: 000b 8fbb 1eee c9bd e4fd 543d a004 d8bd
00000250: 504b 7abc 1cef 753d 2a19 f3bd 84c1 aebd
00000260: 80e4 c33b 8026 483c b0cb 33bc 2ca1 23bd
00000270: 80ca 85bd a015 89bc 702e 93bd e050 053c
00000280: 9a8b cf3d 3412 a6bd 1e88 d83d fc3e bdbd
00000290: a0c2 b63c 6050 51bc bcd0 97bd 80bc d4bc
000002a0: 2c07 e43d c4fa a43d c0a3 ebbc 703f 08bd
000002b0: 3020 583c 8851 67bd ba17 833d 604d b7bb
000002c0: 40dc 103d a8fb 8b3d 4cee 96bd 8892 abbd
000002d0: e82c 5bbd 583f cabd 0e9b a73d 04ae 3c3d
000002e0: 7c87 cdbd 1226 a7bd 140a 59bd d040 813d
000002f0: b402 4b3d 8054 a1bd 8074 39bb fe53 fe3d
00000300: e0ac bebc 9437 d13d 6a9c a13d 72dc ba3d
00000310: a4c6 fb3d d87a a1bc 6849 41bd 10b9 b0bd
00000320: 5878 22bd 90c0 d8bc ac55 433d bed4 e03d
00000330: 2c03 11bd 602b e13b 04cf 78bd 40e8 d8bc
00000340: 3c09 e33d 66ef dfbd 9c65 1f3d 5ac6 ca3d
00000350: 2c7d 913d 5667 ee3d ba25 e83d a492 093d
00000360: 60f1 fcbb 8e51 abbd ba72 90bd 6049 973b
00000370: c877 c7bd e653 ac3d 2032 6b3d 1010 5b3d
00000380: 7080 ee3c 60d3 4bbd 00ae 4dbb 5e65 acbd
00000390: c0e1 39bd 2c25 1c3d 84b9 c8bd 6260 a33d
000003a0: c0c4 df3b aaab 823d ba34 b2bd 90bd 2a3d
000003b0: 005c 78ba bc2e 14bd 9aae b7bd fc0b 833d
000003c0: bce1 1abd 908d c83c f888 85bc 64f9 3dbd
000003d0: cc26 a83d 0022 8fbb f277 853d 36cf e33d
000003e0: b088 31bc 10ff dabc 1c7d a63d 5af6 c13d
000003f0: 6465 7d3d 0a14 b83d 4035 543c 94ec fd3d

bias_ih_l0 f4 [256]
0.07440291 0.18064618 -0.10633943 0.01102239 0.19079946 0.16583572 0.2523014 0.17925799
0.10430699 0.08483026 0.10786934 0.033113584 0.16442697 0.14385277 0.104409076 -0.102902845
0.042418636 0.25736126 0.22301516 0.13213944 0.0052628126 0.09590535 0.22794916 0.115869135
0.013533851 0.06616332 0.11159023 0.1404792 0.20624134 0.17511575 0.07587167 0.25560978
-0.09278281 0.11554065 0.12280114 -0.0057077054 0.17724892 0.12975442 0.1995342 0.053627588
0.21691732 0.22348751 0.13882233 0.31759354 -0.099948145 0.07995603 0.26564658 -0.13488638
0.117123775 0.24568349 -0.0016887046 0.2692613 0.10549946 0.052011583 0.28020883 0.049592003
0.08265819 0.045050878 -0.0102897165 0.011644188 -0.10695428 0.074026294 -0.041516513 0.025753703
0.013495401 -0.039145306 -0.038406298 -0.06344615 -0.0539542 0.05294144 -0.020648286 -0.09289391
-0.06063223 0.048563823 -0.001159966 -0.02316995 0.05600208 0.09701687 0.085006416 -0.08389029
-0.034323156 0.06993288 0.085853055 0.04599014 0.04371871 -0.073487714 -0.04917121 -0.07804017
-0.04930766 -0.09674072 -0.007454619 0.024122939 -0.09519546 -0.0034782887 0.018177256 0.044393927
-0.07891992 -0.040860698 -0.051877454 -0.08240898 0.10779062 0.08359656 -0.10029 -0.124582976
-0.02444452 0.07459207 -0.12490441 0.08646676 0.06915414 0.037160605 -0.058279365 -0.050819844
-0.088018 -0.05564265 0.033691555 0.11166595 0.010344639 -0.113924384 0.001795873 0.04649602
-0.025240242 0.093948945 -0.025319517 -0.06145738 0.077117085 0.049740285 -0.027934432 0.08664033
-0.02416073 -0.113563396 -0.034116875 -0.11276707 0.0618402 0.04787599 -0.011200642 -0.104459085
-0.043577127 0.0859326 -0.0287216 0.03259391 -0.100291714 0.10125152 0.07716644 0.031482313
0.019555666 0.10000921 0.036497522 -0.09004188 0.098657295 0.02171511 0.027604043 -0.0011244973
0.11437344 -0.049467754 0.06390288 -0.07603386 -0.10673928 -0.045237087 -0.11829116 -0.030399837
-0.091223545 -0.09495415 -0.08294177 -0.027757928 0.041886818 0.10756933 0.015580079 0.11343294
0.096763544 -0.04789089 0.011268869 0.105817765 0.048306808 -0.07780971 0.09785814 0.113493815
-0.048028074 0.10452276 0.0045009423 -0.07018543 0.039864685 0.060743283 0.007206781 -0.024317076
0.11052583 0.053588774 0.10766421 0.072463095 0.09937293 0.08452673 0.057377666 -0.024425328
0.20690984 -0.034903523 0.11526926 0.038603302 0.11121779 0.18347704 0.16308232 -0.016927395
0.21490854 0.23670192 0.109703735 0.20610097 0.13714819 -0.027106754 0.118266225 0.0925336
0.16857882 0.25218642 0.077784054 0.09835771 -0.008896975 0.104122445 0.07775596 0.13691996
-0.065830015 -0.105279684 0.2770229 0.17285381 0.12894729 0.13369963 0.105719216 0.11531115
-0.11498819 0.09925103 0.16984025 0.028034395 0.18233569 0.07141585 0.1309603 0.07181841
0.21597488 0.19631657 0.10878774 0.22007129 -0.053728003 0.1691312 0.14820647 -0.084397666
0.277283 0.16482419 -0.021946358 0.24555452 0.2226699 0.09245212 0.22135423 0.20106065
0.11638095 0.13230394 0.056921005 0.05392299 0.056544572 0.22491014 -0.012738319 0.14896575
00000000: 8e60 983d 50fb 383e 7dc8 d9bd 4197 343c
00000010: ef60 433e d7d0 293e a62d 813e 688f 373e
00000020: e79e d53d 7dbb ad3d 9aea dc3d 1ca2 073d
00000030: 8b5f 283e 244e 133e 6dd4 d53d babe d2bd
00000040: 2abf 2d3d dbc4 833e 165e 643e 904f 073e
00000050: ac73 ac3b 066a c43d 816b 693e cc4c ed3d
00000060: 16bd 5d3c a280 873d 6b89 e43d c8d9 0f3e
00000070: ee30 533e 8b51 333e 9b62 9b3d 49df 823e
00000080: ea04 bebd 94a0 ec3d 2a7f fb3d b407 bbbb
00000090: be80 353e 58de 043e b152 4c3e 9aa8 5b3d
000000a0: 931f 5e3e e9d9 643e 7127 0e3e 9f9b a23e
000000b0: 9db1 ccbd fdbf a33d d402 883e a81f 0abe
000000c0: 97de ef3d 7494 7b3e 8657 ddba 9edc 893e
000000d0: 1a10 d83d 190a 553d 8877 8f3e fc20 4b3d
000000e0: b248 a93d 4587 383d 3396 28bc 44c7 3e3c
000000f0: d80a dbbd 199b 973d 380d 2abd 6ef9 d23c
00000100: d01b 5d3c d456 20bd ec4f 1dbd 0ef0 81bd
00000110: 14ff 5cbd 20d9 583d 9826 a9bc 2a3f bebd
00000120: 8059 78bd dcea 463d 000a 98ba e8ce bdbc
00000130: 7062 653d c8b0 c63d d817 ae3d acce abbd
00000140: 7096 0cbd f838 8f3d bad3 af3d 2860 3c3d
00000150: 6412 333d ba80 96bd c067 49bd 86d3 9fbd
00000160: d4f6 49bd 0020 c6bd e045 f4bb 789d c53c
00000170: d6f5 c2bd 00f4 63bb 78e8 943c 68d6 353d
00000180: c4a0 a1bd 8c5d 27bd 747d 54bd 0ac6 a8bd
00000190: 54c1 dc3d ac34 ab3d d864 cdbd 5c25 ffbd
000001a0: e03f c8bc bac3 983d e2cd ffbd 7c15 b13d
000001b0: b0a0 8d3d b835 183d 58b6 6ebd 7828 50bd
000001c0: c842 b4bd 8ce9 63bd 2800 0a3d 1eb1 e43d
000001d0: 907c 293c 3051 e9bd 8063 eb3a 9c72 3e3d
000001e0: a0c4 cebc 4e68 c03d e06a cfbc bcba 7bbd
000001f0: 90ef 9d3d 78bc 4b3d c0d6 e4bc 7c70 b13d
00000200: b9ec c5bc ed93 e8bd 23be 0bbd 6cf2 e6bd
00000210: 264c 7d3d 9d19 443d e682 37bc a5ee d5bd
00000220: ee7d 32bd 6efd af3d 9049 ebbc 3181 053d
00000230: be65 cdbd f55c cf3d 7009 9e3d 99f3 003d
00000240: 3433 a03c a1d1 cc3d 6d7e 153d e167 b8bd
00000250: d60c ca3d e3e3 b13c e021 e23c de63 93ba
00000260: 9f3c ea3d b39e 4abd 83df 823d a4b7 9bbd
00000270: 209a dabd 864a 39bd a342 f2bd 1409 f9bc
00000280: 69d3 babd 5277 c2bd 60dd a9bd 9864 e3bc
00000290: 8391 2b3d 4f4d dc3d 9643 7f3c 874f e83d
000002a0: f72b c63d 3d29 44bd 10a1 383c fcb6 d83d
000002b0: 5cdd 453d b25a 9fbd d969 c83d 726f e83d
000002c0: 16b9 44bd 0710 d63d a47c 933b 61bd 8fbd
000002d0: 2749 233d f3cd 783d dc26 ec3b 9b34 c7bc
000002e0: 5e5b e23d e77f 5b3d 0e7f dc3d 8867 943d
000002f0: 0984 cb3d 5a1c ad3d d804 6b3d a017 c8bc
00000300: 2ce0 533e fff6 0ebd 4a12 ec3d 7f1e 1e3d
00000310: 27c6 e33d 68e1 3b3e 0dff 263e 52ab 8abc
00000320: fc10 5c3e fd61 723e 5aac e03d 220c 533e
00000330: 9370 0c3e fc0e debc 9035 f23d 4282 bd3d
00000340: ed9f 2c3e 941e 813e 3f4d 9f3d c46f c93d
00000350: 9ec4 11bc 263e d53d 843e 9f3d bf34 0c3e
00000360: e3d1 86bd e09c d7bd f2d5 8d3e 9700 313e
00000370: c20a 043e 8ee8 083e 5183 d83d 4128 ec3d
00000380: ee7e ebbd 2044 cb3d 9aea 2d3e 63a8 e53c
00000390: 35b6 3a3e 7942 923d 751a 063e 8815 933d
000003a0: 8528 5d3e 3607 493e 1bcc de3d 5e5a 613e
000003b0: e511 5cbd bb30 2d3e 70c3 173e afd8 acbd
000003c0: 0af8 8d3e acc7 283e d9c8 b3bc a572 7b3e
000003d0: 9403 643e 8957 bd3d afaa 623e d8e2 4d3e
000003e0: 2359 ee3d af7a 073e 0026 693d 5ade 5c3d
000003f0: 489b 673d d84e 663e 62b4 50bc 7a8a 183e

bias_hh_l0 f4 [256]
0.024925943 0.17479002 -0.06275969 0.08842701 0.2544814 0.26977116 0.13801341 0.012797279
0.035373427 0.26428023 0.07154152 0.14654431 0.23899125 0.013921059 0.08664053 0.06916212
0.034774676 0.2699675 0.16852163 0.26878715 0.12861368 0.023551406 0.0982236 0.15059346
-0.017204532 0.105507545 0.042254545 0.0517778 0.18529557 0.17958996 0.08095933 0.18294032
-0.119871795 0.017285358 0.2412778 0.011382728 0.041144483 0.17958976 0.042474553 0.079541884
0.07798577 0.13794671 0.074179076 0.09636829 0.03795814 0.008708006 0.21627395 0.015492397
0.18164125 0.16949461 -0.030922705 0.08913706 0.24725845 -0.082317516 0.29049197 -0.0073887515
0.14761943 0.10325439 0.20273033 0.058018163 -0.043329652 0.22230597 0.053429946 -0.009070781
0.12196316 0.04783219 0.10351285 -0.0061823577 0.04860325 0.035780877 0.016165927 -0.03024447
-0.0746766 -0.05507624 0.049100667 -0.042694673 0.070994794 -0.06153512 0.045738593 -0.08889954
-0.036671102 -0.024698168 -0.051640928 0.11543162 0.0034973323 0.03450349 0.11856267 -0.09193985
-0.11215223 -0.0032564104 0.07960208 0.09576465 0.013290867 -0.042843297 -0.024493352 0.11086561
0.11503118 0.004027799 0.050788507 -0.12129302 -0.08551292 -0.102501824 0.013428643 -0.04734771
0.019201964 -0.103444606 -0.043433562 -0.096605584 0.08136156 -0.120196834 0.006666571 0.08459045
-0.05428961 -0.008813709 0.09072214 0.0062764883 0.0989137 0.045775533 -0.061304554 0.056433767
0.11908886 0.0035484135 -0.051209375 0.10279678 0.026481852 -0.0061562806 -0.08765413 0.078228146
-0.088034116 0.031812515 -0.11709509 -0.027541386 0.032663044 -0.107203916 0.08871366 0.00044130604
0.06959328 -0.14409968 0.13155349 0.05153158 0.038763616 -0.091458805 0.11065787 0.08841336
-0.13101144 -0.06458802 0.014250568 0.0039524673 0.10676445 -0.011708423 0.020052725 0.033519235
0.11798916 -0.15870814 0.105486184 0.011105669 0.013703021 0.115107775 0.0826306 0.0716344
0.027935844 0.04703341 -0.026999004 0.05619594 0.016888652 0.13231331 0.07899044 -0.06936354
-0.045953542 -0.03606202 -0.089942716 0.15354884 -0.09833806 0.029935053 -0.1294909 0.04827856
0.022624684 -0.09107951 0.08752793 0.05357174 0.064400464 0.10352571 -0.04968616 -0.11817097
0.1283173 -0.054065753 -0.04956538 0.054812398 0.044670198 -0.049827475 0.09443448 -0.1303857
0.26220614 0.13564847 -0.020706 0.23833346 0.19523981 0.18823412 0.1677189 0.17070794
0.15152813 0.067674085 0.18219216 0.16955325 0.14579532 0.1621741 0.0018867872 -0.095357925
0.20782906 0.21262643 0.090605445 0.20779061 0.0065149884 0.18069576 0.20689778 0.26170635
-0.106134854 -0.04466065 0.1723062 0.22487386 0.21481685 0.2125318 0.13237025 0.118906476
-0.06273157 0.2266625 0.047700852 0.11711807 0.23629773 0.14227755 0.018546987 0.06253794
0.16549422 0.18628429 0.20480308 0.30865005 -0.080848806 0.046953328 0.086415745 0.10740923
0.19570287 0.12118325 0.047853637 0.2725438 0.22259644 -0.13681002 0.14369431 0.020939982
-0.069051914 0.12693764 0.15707654 0.1497552 -0.07253051 0.17800978 0.1264261 0.049525615
00000000: 7e31 cc3c 28fc 323e 2788 80bd 3819 b53d
00000010: 634b 823e 721f 8a3e 6353 0d3e aeab 513c
00000020: bae3 103d bd4f 873e 5c84 923d b60f 163e
00000030: 1fba 743e 2715 643c 9770 b13d dfa4 8d3d
00000040: e46f 0e3d 2e39 8a3e ef90 2c3e 789e 893e
00000050: 4eb3 033e e1ee c03c 7429 c93d 2c35 1a3e
00000060: 85f0 8cbc 5714 d83d 1a13 2d3d f514 543d
00000070: 1fbe 3d3e 6ee6 373e 01ce a53d b554 3b3e
00000080: 587f f5bd 069a 8d3c 8711 773e 9f7e 3a3c
00000090: 1e87 283d 61e6 373e ccf9 2d3d dbe6 a23d
000000a0: 01b7 9f3d e741 0d3e 33eb 973d bd5c c53d
000000b0: ff79 1b3d 06ac 0e3c eb76 5d3e d3d3 7d3c
000000c0: 2a00 3a3e ff8f 2d3e 9d51 fdbc 7e8d b63d
000000d0: 5231 7d3e 1696 a8bd 5dbb 943e 571d f2bb
000000e0: 8c29 173e 0a77 d33d 8a98 4f3e 74a4 6d3d
000000f0: 6f7a 31bd 2da4 633e 5cd9 5a3d 9d9d 14bc
00000100: d2c7 f93d b0eb 433d 8cfe d33d 6095 cabb
00000110: 3414 473d f88e 123d 686e 843c 40c3 f7bc
00000120: 0cf0 98bd a097 61bd c81d 493d 9ce0 2ebd
00000130: b865 913d 400c 7cbd 6458 3b3d f610 b6bd
00000140: 7034 16bd d053 cabc 7085 53bd 6a67 ec3d
00000150: 8033 653b 8853 0d3d fcd0 f23d f64a bcbd
00000160: 12b0 e5bd 8069 55bb 6a06 a33d 4220 c43d
00000170: f0c1 593c 747c 2fbd 48a6 c8bc 820d e33d
00000180: 7895 eb3d a0fb 833b 9c07 503d 7a68 f8bd
00000190: 6621 afbd 7aec d1bd d003 5c3c acef 41bd
000001a0: 704d 9d3c c4da d3bd 64e7 31bd 26d9 c5bd
000001b0: e4a0 a63d c229 f6bd 4073 da3b c23d ad3d
000001c0: c85e 5ebd 6067 10bc 88cc b93d 00ab cd3b
000001d0: 4493 ca3d 207f 3b3d 7c1a 7bbd 1827 673d
000001e0: dce4 f33d 808c 683b ecc0 51bd 1e87 d23d
000001f0: 78f0 d83c a0ba c9bb 0284 b3bd 1436 a03d
00000200: 3b4b b4bd d74d 023d 8dcf efbd 799e e1bc
00000210: afc9 053d ba8d dbbd 82af b53d 185f e739
00000220: ec86 8e3d de8e 13be f5b5 063e c712 533d
00000230: 99c6 1e3d c14e bbbd 98a0 e23d 1012 b53d
00000240: dd27 06be b946 84bd 377b 693c b383 813b
00000250: 52a7 da3d afd4 3fbc 9d45 a43c 774b 093d
00000260: 4da4 f13d 6384 22be 2409 d83d 8df4 353c
00000270: a382 603c a0bd eb3d 3b3a a93d 0eb5 923d
00000280: b6d9 e43c 1ba6 403d 042d ddbc b72d 663d
00000290: 125a 8a3c 247d 073e bdc5 a13d 790e 8ebd
000002a0: c839 3cbd c5b5 13bd e333 b8bd e83b 1d3e
000002b0: 7765 c9bd 5b3a f53c 4399 04be bdbf 453d
000002c0: 6757 b93c e587 babd d841 b33d 0a6e 5b3d
000002d0: 64e4 833d 4a05 d43d b783 4bbd 9f03 f2bd
000002e0: 9c65 033e 0d74 5dbd 1105 4bbd f782 603d
000002f0: 19f8 363d e517 4cbd dd66 c13d d483 05be
00000300: e23f 863e 6fe7 0a3e a19f a9bc b00d 743e
00000310: f2ec 473e 72c0 403e 81be 2b3e 10ce 2e3e
00000320: 312a 1b3e b698 8a3d 9590 3a3e 5e9f 2d3e
00000330: 5e4b 153e f810 263e 134e f73a 044b c3bd
00000340: 24d1 543e beba 593e 598f b93d 10c7 543e
00000350: af7b d53b 4f08 393e 03dd 533e 60fe 853e
00000360: 3b5d d9bd 16ee 36bd 0971 303e 5545 663e
00000370: f3f8 5b3e f0a1 593e 118c 073e 3d85 f33d
00000380: 6979 80bd 371a 683e f861 433d 99db ef3d
00000390: 08f8 713e 35b1 113e daef 973c e413 803d
000003a0: 5177 293e 4fc1 3e3e e6b7 513e 6107 9e3e
000003b0: 0f94 a5bd 2252 403d bdfa b03d 5ff9 db3d
000003c0: 5566 483e ec2e f83d 2d02 443d dc8a 8b3e
000003d0: 52f0 633e ed17 0cbe 9a24 133e 538a ab3c
000003e0: 176b 8dbd f1fb 013e acd8 203e 6d59 193e
000003f0: e08a 94bd 3248 363e d875 013e 5fdb 4a3d

weight f4 [1, 64]
0.22907113 0.12740622 -0.09565589 -0.2160195 0.1153537 0.16162565 -0.19638552 -0.108380996
0.11690046 0.14982255 -0.09320732 0.12953565 0.10364255 0.15085311 0.11883618 -0.039752837
-0.111299396 -0.121838346 0.20779774 0.22207908 -0.17245667 -0.20979759 0.1455466 0.25878358
-0.11996377 0.05610214 -0.16560988 -0.119827285 0.20074162 -0.10413003 -0.17222285 0.17213015
-0.011470265 -0.20274247 -0.08950693 0.13910405 -0.09581219 -0.1705079 0.21694873 -0.03780905
0.21961342 0.17408739 0.17276834 -0.1875458 0.018470611 0.1888955 -0.2334186 0.07549157
-0.12335566 0.20239702 0.083047055 0.19173253 -0.15227412 -0.05968762 0.13349865 -0.17715438
-0.05463744 0.19144185 0.08581963 -0.19074513 -0.06511425 0.18493909 -0.07339621 0.065144256
00000000: 9f91 6a3e c776 023e 3ce7 c3bd 3734 5dbe
00000010: 903e ec3d 3281 253e 4919 49be dbf6 ddbd
00000020: 8269 ef3d 156b 193e 7be3 bebd fea4 043e
00000030: 8c42 d43d 3d79 1a3e 6260 f33d dfd3 22bd
00000040: f0f0 e3bd 6286 f9bd eec8 543e b368 633e
00000050: 7b98 30be 2ed5 56be 2b0a 153e 487f 843e
00000060: 91af f5bd 5ccb 653d a395 29be 0268 f5bd
00000070: 368f 4d3e 2042 d5bd 305b 30be e342 303e
00000080: c7ed 3bbc b99b 4fbe 694f b7bd 4b71 0e3e
00000090: 2e39 c4bd 9f99 2ebe cf27 5e3e aadd 1abd
000000a0: 57e2 603e f743 323e 2fea 303e 020c 40be
000000b0: ae4f 973c d26d 413e 4905 6fbe 539b 9a3d
000000c0: e4a1 fcbd 2a41 4f3e 9314 aa3d 8855 443e
000000d0: bfed 1bbe 017b 74bd dfb3 083e f567 35be
000000e0: 82cb 5fbd 5509 443e 34c2 af3d b152 43be
000000f0: 9f5a 85bd ac60 3d3e c150 96bd 5a6a 853d
