PV_prediction/modelpth/model_35.pth (torch, 75295 bytes, 5 tensors)

weight_ih_l0 f4 [256, 4]
00000000: 0c5e 193e 20ef 663e b21e 413e 4c57 fd3d
00000010: 6bd2 893d 9188 9e3d 5e8a c33d 6fb6 563e
00000020: 1d22 55bc b6f4 923c 1bba 29bd 24ac d8bd
00000030: ba1a 1c3c 4264 003e f3fc 07bc 95c5 553e
00000040: 727a bf3c f2f9 523d b9d1 a6bd 6a2d a93d
00000050: 0927 043e 49e5 0d3e 2b19 713c eec7 443d
00000060: 7daa d03d d7db 2c3b 066b acbd 252c 783d
00000070: de52 243e f35d 9dbc 5eb9 ef3d 595e 393e
00000080: b4b2 443e bd07 1d3d 9f79 563c 1aae 513d
00000090: 23d1 9b3d 8012 253e 38ac c13b d3d9 533e
000000a0: 2748 863c e466 36be 7d42 e03d b28e 09be
000000b0: 044d a53d 59f1 4a3e 2bbb c23d ae87 073e
000000c0: ce6f 15be 115e 33bd 9c9b 85bd 3866 5fbd
000000d0: 2aee 853e 82e4 29bf 8b2e 2cbe b993 9cbe
000000e0: 4532 d83c badb c13c c24d b43d 98ee ebbc
000000f0: 2a34 1b3e 166c a93d 2b31 243e 5fb5 273c
00000100: 3689 5f3e 37c8 303e aea8 0d3e cde0 be3c
00000110: dfee 9cbd a8a8 363e 610c 00be a96c c83c
00000120: d975 dabd ecc1 eabd c2ad 9bbd 6399 d3bc
00000130: 7c3f 573d d077 003e 81c5 9b3c 0b49 5a3c
00000140: 21b6 a93c c5e5 213e da39 133e 26f0 2b3e
00000150: 632b bb3d 447b cb3d 48d9 c73d 6ab3 153e
00000160: 595f 0a3e 5ff1 c33d 6a16 df3d 1bb5 f93c
00000170: c9a1 8abc 0e2d 793d 4368 41be e628 353d
00000180: a0af 183e 1a0c 5bbd cc9f 253e 13fb 9e3c
00000190: a70f 7fb9 c8d1 743c 1de1 c0bd d00a 303e
000001a0: a7aa 1e3e ad1f 303d 2dec f5bd 9f33 88bc
000001b0: a975 a6ba f7cb 7bbd e046 88bc 4c00 7a3d
000001c0: a308 703d 8a0c 0b3d a1be e2bd 0227 013e
000001d0: 517a aa3d 2deb 9ebe 720a 37bd 40d0 87be
000001e0: 000c 593e fc03 2f3e e2d8 b73d 41f1 c3bb
000001f0: d97a d4bd 5bc5 adbd 78b0 27be 9459 22be
00000200: 9ac9 7f3d 61b7 c7bb e09a 5f3e d20f 86bd
00000210: 9eb1 303e 9829 053d cb23 e73d 1e53 153d
00000220: 03a6 273e 3d7d 9e3d c630 713e a83a 343b
00000230: 5c6c 9d3d 9b69 a33d 9dde 2c3e bf7e 093e
00000240: 065a a93d d18c 42be 0102 bdbd 7c63 21be
00000250: 538c 0b3e 6b2f 513e f2af fe3d 9e34 a53d
00000260: 2be6 c53d 2689 ef3d 5bb3 383e 1ee9 33bc
00000270: 6471 603e b7a6 513e c18a 6a3d 1aae f13d
00000280: cb1c 6c3e 7ea4 f6bc 6466 933d d81e 333e
00000290: 9f4f cb3d b4c1 c5bc 98f9 083d 4036 2e3e
000002a0: aa05 ab3d cfac 393e 2b9e 4d3e 470f 68bc
000002b0: 3623 c4bd 834f 02be 1646 a4bc 729c 393c
000002c0: 84f1 343e 8a47 693e 6c6e 953d ecf8 e03c
000002d0: 3ac7 f13d 80d7 0e3e f6f4 ab3d bd33 4bbd
000002e0: a2c6 6c3c 2607 f5bc 852c 3d3d b2e5 3e3e
000002f0: e61f c6bd f7eb 963d ee59 223d e3b6 6a3d
00000300: f917 443e 622d cc3d 94be 2fbc 84e0 563e
00000310: c409 8d3d 6cae 2f3d 87b2 d03d 5355 ca3d
00000320: 89fb 063e 038c 893c fa0a 4d3e 41e7 053e
00000330: 0dce 28bb 4a24 103d 774a be3d cfaa 0b3c
00000340: b6b4 dc3c dcea 853c a88a a53d 785b a23d
00000350: 82dd 113e be03 553e 9c31 8e3d 314c 4c3e
00000360: db28 433e 8c0a ef3c b9fa c2bc 30b9 283e
00000370: 0a9d ff3d 6888 633e 4bf4 0f3e 12ed 013c
00000380: 75da 34bd 398f fd3c 6915 39bd 42b6 393d
00000390: 4686 0b3d a852 9f3d 48d2 9f3d 522d ff3d
000003a0: 5e07 503e f26f 3e3e c4c3 9a3e f2a5 15bc
000003b0: 1c23 133d 1cbc 1dbd 252b 20be 555a fabd
000003c0: c41d f43d ca51 283e be02 4a3e 0288 15bd
000003d0: baed c23d 11f7 353e 6f9a a4bc 724e 4b3d
000003e0: 4b85 2f3e 885e b13d 7d15 603d 0b4e 843d
000003f0: b74d bf3d f4e6 b8bd 908b fb3c 7950 3abe
0.14977282 0.22552156 0.18859366 0.12370166 0.06729587 0.07740892 0.09547876 0.2096803
-0.0130086215 0.017938953 -0.04143725 -0.10579708 0.0095278565 0.12538245 -0.008300054 0.20876153
0.023373816 0.051507898 -0.0814547 0.08260615 0.12905516 0.13856997 0.014715473 0.04804223
0.10188768 0.0026376152 -0.084188506 0.060588975 0.16047236 -0.019209838 0.11705278 0.18102397
0.19208795 0.038337458 0.01309052 0.051191427 0.07608249 0.16120338 0.0059104227 0.20688562
0.016391827 -0.17812687 0.10950182 -0.1343334 0.0807133 0.1981863 0.09508356 0.13235351
-0.14593431 -0.04379088 -0.06523821 -0.054540843 0.26158267 -0.663643 -0.1681463 -0.30581453
0.026391158 0.023664344 0.088038936 -0.028800294 0.15156618 0.08272569 0.16034381 0.010236113
0.21829686 0.17263876 0.13833877 0.023300553 -0.076627485 0.17837775 -0.12504722 0.024465876
-0.10667009 -0.11462769 -0.07601501 -0.025829976 0.052550778 0.12545705 0.019015076 0.013323079
0.020716729 0.15810306 0.14377537 0.16790828 0.09139135 0.099356204 0.0975824 0.14619222
0.13512935 0.09567522 0.10892947 0.030481866 -0.016922848 0.060833983 -0.18887429 0.044228457
0.14910746 -0.053478338 0.16174239 0.01940683 -0.00024324526 0.014942594 -0.09417937 0.17191625
0.15494786 0.04299896 -0.120079376 -0.016626177 -0.001269986 -0.061473813 -0.016635358 0.06103544
0.058601987 0.033947505 -0.11071516 0.12612537 0.08324111 -0.310388 -0.044687696 -0.2652607
0.21195984 0.17091364 0.08976914 -0.0059796874 -0.10374994 -0.08484908 -0.16375911 -0.15854484
0.06244812 -0.0060948585 0.21836424 -0.06545986 0.17255256 0.03251037 0.11286124 0.03645622
0.16371922 0.07738731 0.23553762 0.0027500782 0.076866835 0.07979127 0.16881795 0.13427256
0.08269124 -0.1899903 -0.09228898 -0.15760607 0.13627748 0.20428245 0.12435903 0.080666766
0.09663042 0.11696081 0.18037169 -0.010980872 0.21918255 0.20473753 0.057261232 0.11800785
0.23057859 -0.030107733 0.07197264 0.17492235 0.09927296 -0.024140216 0.033441156 0.17012882
0.0835069 0.18132327 0.20079868 -0.014163799 -0.095770285 -0.12725644 -0.02005295 0.011328803
0.17670256 0.22781196 0.07296452 0.027462445 0.118055776 0.13949394 0.08396332 -0.04960989
0.014451655 -0.029910635 0.046185035 0.1864231 -0.09674053 0.073692255 0.039636545 0.05730332
0.1914977 0.099695936 -0.01072659 0.20984083 0.06886628 0.04289095 0.101903014 0.098795556
0.1318189 0.016790396 0.20023718 0.13076498 -0.0025757581 0.035190858 0.09291547 0.008524611
0.026941638 0.016347341 0.08083087 0.079276025 0.14244655 0.20802209 0.06943056 0.1995094
0.19058554 0.029179834 -0.023801195 0.16476893 0.12481125 0.22220004 0.14058034 0.007930057
-0.04415365 0.030952083 -0.045186434 0.04533983 0.0340636 0.07779437 0.0780378 0.12459816
0.2031531 0.18597391 0.30227482 -0.009133803 0.035922155 -0.038509473 -0.15641458 -0.12224261
0.1191974 0.1643745 0.19727609 -0.03650666 0.09517999 0.1777003 -0.02009317 0.04963536
0.17140691 0.086606085 0.054707993 0.06460198 0.09340995 -0.09028426 0.030706197 -0.1819476

weight_hh_l0 f4 [256, 64]
00000000: 80ed b43d 0058 793a 9a40 b9bd 3c15 393d
00000010: 0e55 fc3d 4057 ab3d 2eca c23d 0055 7a3a
00000020: 224b fcbd 36de 963d b006 97bc 6ab0 84bd
00000030: d29a b03d b081 81bd f89e e73d 0eec d53d
00000040: b0c2 85bc a483 1e3d 304b 923d ca1b bdbd
00000050: f02d 1b3c 5c7c 44bd 5008 113c 7003 b9bd
00000060: e0ed 833d f4c1 c73d c0ae 22bb 8caa 28bd
00000070: 22f7 8ebd e0fe 3b3d f011 c0bc 5a9a a03d
00000080: 702b 59bd 0c5b ac3d 947f cdbd 5088 553c
00000090: 7c0f 493d b2d2 d6bd aa26 c13d a0e7 eabb
000000a0: f0c9 77bc 9057 223d 7458 f0bd f024 a8bd
000000b0: c84a dd3c 00c4 efb9 60c4 eebb 7628 bf3d
000000c0: a68f 943d 28f6 b13d 48e5 fc3c d4c5 e73d
000000d0: d4b2 c3bd 00c6 1aba f089 ab3c e020 7b3c
000000e0: 6000 a8bb f0ad 403d 74dc d2bd 402e e23c
000000f0: 306e 3bbd cc52 53bd c032 b03d 9052 61bc
00000100: 00b6 ed3c 7c86 0d3d 7884 1dbd 52ae 98bd
00000110: 2aa7 98bd 840d 36bd 44b3 4fbd ea7c c2bd
00000120: f8eb a8bc f652 fe3d 702d 7b3d 00d8 65bb
00000130: 100a 9ebd 2aed 9e3d 00b7 34bb 8024 08bd
00000140: 328a debd 24e9 18bd 881a e73c 24bb 503d
00000150: 88fa 6e3d 7230 fdbd 0080 c637 d449 acbd
00000160: 88d8 f5bd 88b1 483d 843b 443d 6a15 b73d
00000170: 5aa8 e3bd 7eee d33d 4ac8 ce3d 84c2 68bd
00000180: dc40 343d a8ef d1bc 008e d23b f482 1e3d
00000190: 306a 11bc d813 803d c8fb 993c e071 bb3c
000001a0: d0e8 59bd a6f5 fabd 189b 933c 9a41 b0bd
000001b0: f69a f23d 40e4 ad3b ce5d d53d a09b 6fbd
000001c0: a040 e2bb 08c9 15bd f695 943d 1a6e 8d3d
000001d0: b0ee 1abc f229 e53d 6619 e7bd 8cad 5cbd
000001e0: f860 d63d 28e9 54bd 76b2 89bd 2c45 d7bd
000001f0: 28d4 933c 5049 d83c 04cf 87bd ca3e b8bd
00000200: ee64 d93d 4c20 413d 0023 bfbc 1cf9 793d
00000210: ee6e f33d 4861 bfbc 52cb ca3d 4e0f aa3d
00000220: a43b 553d f0c3 5cbc 82a3 b8bd 6491 603d
00000230: 068e 803d 0ce6 723d 9088 84bc 405b b9bd
00000240: f04c 25bc ea4d c93d 90c6 2bbc 74af 123d
00000250: eebb 853d 4ad2 ac3d 78d0 573d 306a 883d
00000260: 2a40 9dbd 3644 803d 0c7d 6dbd a034 ce3d
00000270: ae8a f63d de45 debd b0fb c7bd 4eac af3d
00000280: 58d7 ee3d 5071 eebd e430 2cbd 9057 573d
00000290: a013 ddbd 9442 e53d 82ef f53d ac41 8c3d
000002a0: 4004 6bbc 4806 ce3d 0040 3c37 70bf 4dbd
000002b0: 00cd b8bd 466d f0bd d00a d03d c88b 88bd
000002c0: 3055 cebc d09b ee3d 40a1 5c3c e031 ee3b
000002d0: fa50 e0bd c0fe d53d 6427 7d3d 80c7 c6bc
000002e0: f62e 873d e429 fc3d ca9f ae3d f0f6 753d
000002f0: 6a73 bdbd 9acd b73d 4416 dc3d b25b be3d
00000300: d0ba 3c3d 12c5 b23d 5aab ab3d fa21 afbd
00000310: be6c c4bd c8f2 e43c 0aa3 efbd 848a 48bd
00000320: 00e2 be3b e88e 3c3d 0cee 72bd 10ed e03c
00000330: 188a cdbd 1c22 873d 2013 13bc 4c09 5f3d
00000340: 5804 c6bc feb5 ad3d 04e0 2fbd 0075 0f3d
00000350: 8c73 1ebd d4fe ed3d b827 96bd 3e78 bebd
00000360: e41d 2dbd 28be bbbc 2807 bfbd 6262 c03d
00000370: 98b9 03bd 3494 68bd 6864 983d 1845 91bd
00000380: c074 633c 746c 60bd c824 a0bd 4c4e 613d
00000390: 2cff 2c3d 40d5 d03c 003e 033d 78c6 a3bc
000003a0: 84ad 13bd e433 ecbd c088 603d e0cc 833d
000003b0: 8cc5 a4bd 4891 9a3d b4c0 893d 4c7d 06bd
000003c0: 282c d53d 541d 943d 1ca8 9abd 0837 7e3d
000003d0: 3612 ac3d 4831 d03c 7414 96bd 9c3f a4bd
000003e0: c4a5 58bd fc82 cbbd 3c0e 87bd 80a3 e4bd
000003f0: f044 b93d 18bb 47bd 784b c33c 54cb 29bd
0.08834362 0.0009511709 -0.09045525 0.045186266 0.123209104 0.08366251 0.09511219 0.0009549409
-0.12319018 0.07366602 -0.018435806 -0.06478961 0.0862328 -0.06323564 0.11309618 0.104454145
-0.016328186 0.03869976 0.07143247 -0.09233816 0.009471402 -0.04797016 0.0088520795 -0.09033859
0.064418554 0.097537905 -0.0024823397 -0.04117827 -0.069807306 0.045897365 -0.023446053 0.0784194
-0.05301994 0.08415803 -0.10034099 0.013032988 0.049087033 -0.10489406 0.09431203 -0.007168725
-0.015123829 0.039634287 -0.11735621 -0.0821017 0.027013198 -0.00045731664 -0.0072865933 0.09333889
0.07253961 0.08689529 0.030871049 0.113170296 -0.09555593 -0.0005904138 0.020939797 0.015327662
-0.005126998 0.04704088 -0.10295954 0.027609944 -0.04575938 -0.051592633 0.0860343 -0.013752595
0.029017448 0.034552082 -0.03845641 -0.07455124 -0.07453759 -0.044446483 -0.05070807 -0.09496482
-0.020620331 0.12418167 0.06132263 -0.0035071373 -0.07716763 0.07760079 -0.0027574897 -0.033237934
-0.108662024 -0.037331715 0.028210893 0.05095972 0.058344394 -0.12362756 2.3663044e-05 -0.08412519
-0.12004191 0.048997432 0.04790832 0.08939631 -0.11116095 0.10348223 0.10096796 -0.05682613
0.044007167 -0.025626972 0.006425619 0.038699105 -0.008875415 0.06253785 0.018796816 0.022881448
-0.053200543 -0.12253885 0.01801829 -0.086062625 0.11845963 0.0053067505 0.104182824 -0.058498025
-0.0069046766 -0.03656867 0.07255165 0.06905766 -0.009456322 0.11189641 -0.11284141 -0.053876445
0.10467714 -0.051980168 -0.06723492 -0.1051124 0.0180455 0.026402146 -0.06631282 -0.08996351
0.10614954 0.04714994 -0.023332119 0.061028585 0.118863925 -0.023361817 0.099020615 0.083037004
0.05205883 -0.0134744495 -0.09015562 0.054826155 0.06277089 0.05930142 -0.0161784 -0.09050608
-0.010089144 0.09829314 -0.010484353 0.035811856 0.06529985 0.08438547 0.052689046 0.06660879
-0.07678254 0.0626301 -0.057980582 0.10068631 0.1203817 -0.1085317 -0.097648025 0.085777864
0.11662167 -0.116427064 -0.042038813 0.05257374 -0.10794759 0.111943394 0.12008573 0.068484634
-0.014344275 0.10059792 1.1220574e-05 -0.050231397 -0.09023476 -0.11739592 0.10158312 -0.06667286
-0.025187105 0.116508126 0.013466179 0.007269129 -0.10952945 0.1044898 0.061805144 -0.02426505
0.06600754 0.123126775 0.08526571 0.06004995 -0.09250529 0.08974762 0.10746434 0.09294833
0.046076596 0.087289944 0.08382292 -0.085514024 -0.095910534 0.027947798 -0.11701019 -0.048960224
0.005825281 0.046034724 -0.05930905 0.02745679 -0.10036105 0.06598303 -0.008976728 0.054452226
-0.024171993 0.08481978 -0.042938247 0.03502369 -0.038684413 0.1162087 -0.073317945 -0.09300278
-0.042264834 -0.022917822 -0.09327537 0.09393765 -0.032159418 -0.056781963 0.07441026 -0.07093257
0.013882816 -0.05479093 -0.078195155 0.05500631 0.04223554 0.02549231 0.03204155 -0.019992098
-0.03605415 -0.11533335 0.054817915 0.06435561 -0.080454916 0.075472414 0.06726208 -0.032834336
0.10408813 0.072321564 -0.075515956 0.0620642 0.08401911 0.025414124 -0.0732812 -0.08019945
-0.05289246 -0.09937093 -0.06594512 -0.11163998 0.09046352 -0.04876241 0.023839697 -0.041453674

bias_ih_l0 f4 [256]
00000000: 29e4 9c3e 9ff7 0d3e 60d2 903d 498b 2f3e
00000010: 8005 8e3e a9a4 1cbe dbbf 053e 9ca0 6b3e
00000020: 7afa d73d b3e3 8fbd e1b0 313e 7e41 5c3e
00000030: 3284 cbbd d7f5 d63d f521 103e cdc3 553e
00000040: 0a88 573e 9689 0cbd 6f4a 40bd be88 523d
00000050: 4c10 a43d 6644 c63d 6d16 563e c99b 31be
00000060: 16b5 1c3d a524 523d f356 713d 4811 833e
00000070: d673 26bd ecdd 3c3e 456c 8a3e 28f5 f8bd
00000080: 548c 453e 4f4e 513e 0b19 433e e166 2c3e
00000090: 31be 90bc 0d2d 433e fbc7 c43d cc6b 3d3e
000000a0: 67ce 803e c56b 483e a1e7 213e bdb7 a8bb
000000b0: 4f57 f43c 1b1d 883e fd73 bcbd fc25 df3d
000000c0: 39ff 643d fd2f 8c3e 0100 383e 572c 023e
000000d0: 0467 853d e2e2 903e ab6a b53e 9d75 413e
000000e0: 4291 073e 8493 033e f36b 6b3e ff05 df3d
000000f0: 2a93 173e fec2 cb3d 5d56 603e 266c 823d
00000100: c025 9f3b 38a8 b73d 6e39 94bd d2f2 9f3d
00000110: 9092 fcbd 80c0 59bd 607d c63c bcff 19bd
00000120: 7222 8abd 48c1 81bc 5051 1d3c 787a dabd
00000130: 0841 d2bc 18fd cfbc f2e7 cd3d 88e4 803d
00000140: a4f8 2e3d 00e9 a73d dafa a13d 1c9e b0bd
00000150: 9809 71bd 0a63 e1bd 2ec0 d6bd 0055 29bb
00000160: 8844 2b3d d8aa be3c 1266 d33d c0d4 e9bb
00000170: 5e41 92bd 20f1 03bc 48f7 c93d 5c8a d9bd
00000180: a0b9 55bd 98e7 acbc 22ff abbd 8820 043d
00000190: dc74 17bd 4e31 e73d a06c b93d 525a 9b3d
000001a0: fa02 ec3d 1042 d33c 640f 513d c8b3 dbbc
000001b0: 9c60 22bd 08d8 923c d0e8 cc3c a038 a7bd
000001c0: ece1 72bd 148c f0bd c0af 7b3d a44a 393d
000001d0: e630 ccbd 8013 10bd 14bc 963d 9e4d 873d
000001e0: 3874 ebbd 58dc f4bc 288a 973c e8dd 04bd
000001f0: 36b2 f13d c4ea 6dbd 965b c73d b81f d33d
00000200: cffa b43d 70d8 ccbd 26d3 8a3d fbec 133d
00000210: cc7d 3a3b 1105 1439 3a10 a7bc bb1d d03c
00000220: 434d 183e 4864 b1bc 69fc 0cbe a7e2 c43d
00000230: 91fb 35bd b94f 90be 6a5a 5b3d eea4 b5bc
00000240: 61d0 3cbc bdef 713d 02d7 3f3b fbba 9bbd
00000250: 9f25 6fbd 6d6b 9f3c e2e5 043d fa32 093c
00000260: 521f 58bd 6761 473d c57e 9ebc 5fcf fbbc
00000270: 8444 f63c cb57 81bd 5e00 f6bd b09e f63d
00000280: 1407 38bd 630d 8ebd 630a b73d 6c33 ce3d
00000290: 23d9 023e e73a e0bd 801b c6bd c88e 88bd
000002a0: 1a9c 813d 6893 463d 2114 be3d 9bba d2bd
000002b0: 7315 b9bd a4dc 44bd bbeb 983d a115 2cbd
000002c0: cf09 38bc ceb8 5c3d 2ed1 be3d f825 6f3d
000002d0: e956 2c3d 00e7 5c3d 6087 35bd 8b64 3e3d
000002e0: a4cc b83c 3fb2 7d3d e352 6f3d 33d9 94bd
000002f0: 4693 193b 01ec f73d 02cc ca3c 1f46 18be
00000300: b456 9d3d 2996 2a3e e628 91bd fe22 723e
00000310: 6e64 603d da95 07be 2219 663e f46c 0c3e
00000320: 7152 693e 7ae1 87bd 1698 5b3a 477c 123e
00000330: e07c 01be 4a85 873e 8d75 043e eead 993e
00000340: f170 163e 11da 1bbe 80db c1bb 8f31 233e
00000350: 9b0d b23d c1ed 233e 286a 2a3d f4da bbbd
00000360: a5f4 b43d 0dfd 42bd 2449 a1bc afaa 1d3e
00000370: 9b6c a93d 489f abbc 1dec d23d 04b4 b6bd
00000380: a83c 803e 1f79 533e 8551 7f3e 5fa3 903e
00000390: 655f de3d 1352 583e 73af 433e a402 463e
000003a0: 03e7 2b3e 00a4 733e b89c a63d 28b9 9b3d
000003b0: f5ee bd3d 1271 da3d c64e 8dbd 387b 853d
000003c0: 2e88 9a3c b45d 813e 9470 853e 0a66 3abc
000003d0: ddb7 f93d ed35 8d3e 6bb2 903e 5a54 513e
000003e0: 03ca 84bc a8f6 623e 5410 a83d 3934 123e
000003f0: 4439 9d3e 0b7d c73c 4abf ca3d b87b 963c
0.30642822 0.13863991 0.07071376 0.17142977 0.2773857 -0.15297188 0.13061468 0.23010486
0.105458215 -0.07025852 0.1735263 0.21509358 -0.09937324 0.10496109 0.14075454 0.20875473
0.21047989 -0.0343109 -0.046945985 0.05139994 0.08010921 0.09681015 0.20906992 -0.17344584
0.038258635 0.05130448 0.05892081 0.25599122 -0.040637814 0.18444031 0.27035728 -0.12156135
0.19291812 0.20440029 0.19052522 0.1683612 -0.017668815 0.19060154 0.09608456 0.18498152
0.25157472 0.19572361 0.15811016 -0.0051488564 0.029826788 0.26584706 -0.092018105 0.10895917
0.05590746 0.27380362 0.17968751 0.12712227 0.06513789 0.28298098 0.35432944 0.18892522
0.13239005 0.12849241 0.22990398 0.108898155 0.14802232 0.09949301 0.21907945 0.06368284
0.004856795 0.08967632 -0.07237516 0.07809986 -0.12332642 -0.053162098 0.024229705 -0.037597403
-0.06744851 -0.015839234 0.009601906 -0.1066789 -0.025665775 -0.02538924 0.10054006 0.06293589
0.04271759 0.08198738 0.07909174 -0.08623907 -0.05884704 -0.11005218 -0.10485874 -0.0025838017
0.041813403 0.023274824 0.10322203 -0.0071359575 -0.07141374 -0.008053094 0.09861618 -0.10622093
-0.05217898 -0.021106526 -0.08398272 0.032257587 -0.03697668 0.11288701 0.09053922 0.075855866
0.11524005 0.025788337 0.05104007 -0.026819125 -0.039642915 0.017925277 0.025013357 -0.08165097
-0.059297487 -0.11745468 0.061446905 0.0452372 -0.09970264 -0.035174847 0.07360092 0.06606601
-0.11496776 -0.029890224 0.018498495 -0.03243819 0.11801569 -0.058085218 0.097342655 0.10308784
0.088369004 -0.1000222 0.067785546 0.036114674 0.0028456328 0.00014116267 -0.02039348 0.025404802
0.14873223 -0.021654263 -0.13768162 0.09613543 -0.044429366 -0.28185824 0.053553022 -0.022173371
-0.011524291 0.059066523 0.0029272442 -0.07604023 -0.058385488 0.019460404 0.032445796 0.00837397
-0.052764244 0.048676874 -0.019347558 -0.03073853 0.030061968 -0.06315573 -0.12011789 0.12041986
-0.044928625 -0.06936147 0.08937528 0.10068402 0.12778144 -0.10948735 -0.09673214 -0.06667858
0.06328602 0.04848042 0.09281183 -0.102894984 -0.09037294 -0.04806198 0.07466837 -0.042012814
-0.011232807 0.05388718 0.093172416 0.05838582 0.04207507 0.053931236 -0.044318557 0.046482604
0.022558518 0.061937567 0.058428656 -0.0726799 0.002343373 0.12105561 0.024755482 -0.14870499
0.07682553 0.16658844 -0.07087879 0.23646161 0.054783277 -0.13240758 0.22470525 0.13713437
0.22785355 -0.06634803 0.00083768496 0.1430522 -0.12645292 0.2646888 0.12935467 0.3001551
0.14691521 -0.15219904 -0.005916059 0.15936874 0.08694001 0.16008665 0.041605145 -0.09172621
0.08835725 -0.04760461 -0.019688196 0.15397142 0.08272668 -0.020949975 0.10298941 -0.08921054
0.25046277 0.20651673 0.24933441 0.28249642 0.10858039 0.21125059 0.19109897 0.19336945
0.16787343 0.2379303 0.081353605 0.07603675 0.09274093 0.10666098 -0.068997905 0.06517643
0.018863764 0.25266802 0.26062453 -0.011376867 0.12193272 0.27580205 0.28261122 0.20442334
-0.016209608 0.22164404 0.08206239 0.14277734 0.30707753 0.024351617 0.09899767 0.01836954

bias_hh_l0 f4 [256]
00000000: 5cb6 303e f6de 343d a1f4 d3bd c579 be3d
00000010: aeed 853e ebb3 96bd d534 09bc c1d6 1e3e
00000020: f223 0a3c 16ad 60bd 618b b2bb 98d7 553e
00000030: c4af 68bd c58b a43d 0d0a d93d e98c 893d
00000040: ea96 9b3d d1e0 09be 74dc 13be 5b6c 513e
00000050: 3e55 613e c70c ec3d c751 c83b cc18 413d
00000060: e373 2e3e 54c0 ffbc 88ce bc3d c48c e23d
00000070: 6e67 423d cc4b 1cbc 3a55 143e 1a93 0c3d
00000080: 5c52 7b3e ca5d af3c ce96 e43d 765a 633e
00000090: aacd 843d 0482 0b3e 6e50 7a3c 1815 0d3e
000000a0: 9e32 4c3d 3f63 323e 7e88 6d3e 28b3 fe3d
000000b0: d34c 233e 9712 9a3d 9beb 9a3d 3a0e 36bb
000000c0: c856 113e 142e d53d b9d0 023e 2e15 623d
000000d0: 43a4 5e3e e7c2 2e3e 2def 503e 1e19 3a3e
000000e0: 9a7a 213d 25d4 5f3e 7cd2 373e f983 dd3d
000000f0: 603c 8b3e 6464 993d 035b 3e3e a441 513e
00000100: 3090 d2bd ba5b b23d 0677 fbbd 345d f93d
00000110: 28c0 01bd 60a3 373d a23c 863d 1093 61bc
00000120: b463 9f3d 784e 53bd 5afe fb3d 3887 413d
00000130: fc4b cf3d 7042 79bc 1ee7 bdbd 74f3 f83d
00000140: ce23 b93d b479 893d 9621 873d 8055 ae3c
00000150: 887d ddbd 2223 cebd 04f8 aa3d 4038 f23b
00000160: 80a6 a63a b6f5 d53d aef7 b83d 68cf 8dbd
00000170: c0d5 f3bc 66e1 d03d 6427 ba3d 4414 4bbd
00000180: ccd4 003d c489 a33d 3839 6e3d 1edb f33d
00000190: 800c dd3d 383c 4c3d 208c b9bb 98bb e0bc
000001a0: 2059 f0bc f8e7 e53c 4622 d73d 20f8 d8bc
000001b0: ca62 a7bd c02a c9bc 2ade 97bd 80ad a63c
000001c0: 7c82 433d 9488 27bd a869 e53d ca48 f0bd
000001d0: d2e8 bfbd c082 c13c 7041 893c 5adc a23d
000001e0: 4407 5bbd c29b 8a3d 485b 6d3d 204d c9bd
000001f0: 009f 553d 4240 94bd 92c1 88bd 1c44 cc3d
00000200: 979b 9fbd afbc 0a3e 8b25 d73c b66c c63d
00000210: 1376 a6bb 5492 103e ca89 13bd b691 cabb
00000220: 98f3 bbbc b44c 0b3e 9714 dbbb e2b2 7dbd
00000230: 70f6 0d3d da27 aebd 7be8 d1bd aa4e fe3d
00000240: 8289 a33c a282 08be 30e3 dabd 12ed 2b3d
00000250: 015b 1b3d 8cd5 ffbc 970e b2bd 0599 293d
00000260: ca31 e0bd 65bc 3fba 4d9e 8abd ee81 12be
00000270: 55a8 ba3d c149 aebd 716e e93d 6aca 96bc
00000280: f12f 71bd 3a8f 033d 3654 1ebb 8405 d3bd
00000290: ab4b 613d a6ad e039 83bc 86bc e5ac 9a3c
000002a0: 0175 4a3d c870 f2bc 5160 143d d3d2 c2bd
000002b0: 1df7 dd3d 9b3e e63d 9d6d b93d 4768 d53d
000002c0: 4957 4a3d 5ff8 953c fa52 ea3c 5487 823d
000002d0: eb9e 573d b059 d0bd c7a1 043d 1f35 573c
000002e0: 5d4d 6b3d f13c 91bd b5f9 c6bd 90ac 23bd
000002f0: 09ec 1f3d 2266 c53c 0ea7 66bd 9189 613c
00000300: d19b 163e 07e2 2a3e 8f8f e0bd 7f75 673e
00000310: fa0c 7b3e 5772 abbd 5e53 e73d 19b0 aa3d
00000320: 6f38 6f3e b04e 97bc 2101 3a3d df9c ae3d
00000330: 882a 38be 3e97 f63d 40e0 c03d f012 003e
00000340: 7262 243e e3c2 2dbe e264 a9bd 907f b53d
00000350: e30f 793e d8ac f83d dd40 e03a e858 abbc
00000360: a9d0 163e b889 b03d 2d01 193d bd78 4c3e
00000370: 5621 993d b1e0 dd3c ca6b 933e 7a6d 23be
00000380: e7b1 203e b69e 453d 24ad 933e c5a7 903d
00000390: e0bf 6ebd 345d 523d 53f4 683d 77b8 163e
000003a0: ab5f 523e 0022 963e 152d 053d 064b 35bd
000003b0: 5598 0d3e 929d 7f3e b29b 24be 80d7 f13d
000003c0: b73f b23d 5738 e03d 9e8f f73d b188 463d
000003d0: 287b 853d 57d9 b03e ea11 f53d f21f a43e
000003e0: 44cc 0d3e 491c 323e def4 993d 80df 3c3c
000003f0: 4daa 973e 64ed 0d3e 2bc9 533e 1bf5 a03c
0.17257065 0.044157945 -0.10349394 0.093005694 0.26157898 -0.073585354 -0.008374413 0.1551161
0.008431422 -0.054852568 -0.005448744 0.20883024 -0.05680825 0.080344714 0.1059762 0.067163296
0.07597144 -0.13464667 -0.14439565 0.2045149 0.22005174 0.115258746 0.0061132642 0.04714279
0.17036395 -0.031219639 0.0921908 0.11062005 0.04746192 -0.009539556 0.14485636 0.034319974
0.24543136 0.021407027 0.11161576 0.22202477 0.0648454 0.13623816 0.015277965 0.13777578
0.04985296 0.17420672 0.23196599 0.12436515 0.15947275 0.07523077 0.075644694 -0.0027779476
0.1419326 0.10409179 0.12774934 0.05519598 0.21742348 0.17066537 0.20403738 0.18173644
0.039423563 0.2185827 0.17951387 0.108161874 0.271945 0.07489851 0.18589406 0.20435196
-0.10281408 0.08708902 -0.12278561 0.1217598 -0.031677395 0.04483354 0.065545335 -0.013767973
0.07782689 -0.051588506 0.12304373 0.047248095 0.10121915 -0.015213594 -0.09272598 0.1215581
0.09040032 0.06712666 0.06598203 0.021281004 -0.10814959 -0.10065295 0.083480865 0.0073919594
0.0012714416 0.10447256 0.09031616 -0.06924325 -0.02976501 0.10199241 0.090895444 -0.049579874
0.03145294 0.07985261 0.058160037 0.11907028 0.107934 0.049862117 -0.005662456 -0.027433202
-0.029339373 0.028064713 0.10504584 -0.026485503 -0.081731394 -0.024556518 -0.07415421 0.020346403
0.04773186 -0.040901735 0.11201793 -0.117326334 -0.09370579 0.023621917 0.016754836 0.07952185
-0.053473726 0.0676799 0.05794838 -0.098291636 0.052153587 -0.07238819 -0.066775456 0.09973928
-0.07793348 0.1354854 0.02626302 0.09688704 -0.0050799935 0.1411832 -0.036020078 -0.006181921
-0.022943303 0.13603479 -0.006685804 -0.061938174 0.03465885 -0.08503695 -0.1024942 0.12417348
0.01996303 -0.13331082 -0.10687864 0.041974135 0.037928585 -0.031229757 -0.08694189 0.041405696
-0.109469965 -0.0007314145 -0.06768475 -0.14307377 0.09114138 -0.08510161 0.11398018 -0.018407065
-0.05888361 0.032119013 -0.002415908 -0.103037864 0.055003803 0.00042853988 -0.016447311 0.01888127
0.04942799 -0.029594794 0.036224667 -0.09512868 0.10838149 0.1124241 0.0905411 0.1042028
0.049399648 0.01830691 0.02860402 0.06373468 0.05264179 -0.101733565 0.032380845 0.013135224
0.057446826 -0.07091702 -0.097155966 -0.03995949 0.03904346 0.024096552 -0.05631166 0.013765709
0.14707877 0.16687785 -0.10964882 0.22603415 0.24516669 -0.08371418 0.11295198 0.08334369
0.23361371 -0.018470138 0.045411233 0.085260145 -0.17984974 0.12040566 0.09417772 0.12507224
0.16053179 -0.16968875 -0.08271195 0.08862221 0.24322467 0.12142342 0.0017109175 -0.020916417
0.14728035 0.08620018 0.037354637 0.19967933 0.074770615 0.02708468 0.28793174 -0.1595973
0.15692864 0.04824706 0.28843033 0.070632495 -0.058288455 0.051358417 0.05687363 0.14718805
0.20544307 0.29322815 0.032513697 -0.044261 0.13827641 0.24962452 -0.16075018 0.118086815
0.08703559 0.10948246 0.1208794 0.048470203 0.06517631 0.34540817 0.119663075 0.32055622
0.13847452 0.17393602 0.07517408 0.011527896 0.29622117 0.13860089 0.20682208 0.019648125

weight f4 [1, 64]
00000000: 4aa5 1a3e 0dae 4e3e 4a4c 62bd 4800 2c3e
00000010: d6b6 01be 1ac5 713b 7dd2 3e3e b0e8 493e
00000020: 9e60 ebbd be0f b33d c9e9 e33d 813b 13be
00000030: 641d 14bd 673f 3f3e 9df8 5d3e ea84 1bbe
00000040: 523c 343e cca1 2fbd bc76 0d3d d36d 6ebe
00000050: 06cd f63d d421 54be 2680 2dbe 8204 15bd
00000060: 3653 613e 0b97 243e bcb2 40be 3862 0a3e
00000070: ab06 1a3e d1e4 0d3e 1f3f 42be 4d9d 40bc
00000080: 345e 7b3e cd03 d93d fa12 16be d662 4e3e
00000090: 870d 7cbd 7b9b e7bd 7fbc 16be 4ab2 18be
000000a0: f75f 7dbe 4917 0fbe 4df6 1b3e 4182 323e
000000b0: 3e43 493e 23a8 1ebe 65fa 76bc 3663 943d
000000c0: d8ce b93d 066e 40be 451e b5bd 594b db3d
000000d0: ee45 1f3e 08a4 1ebe 0dfe c6bd f2e2 013e
000000e0: a646 26be e1e0 173e a812 3e3e efd5 c13d
000000f0: f7f6 5a3e cd0b 2a3e 1389 443e 63e6 ab3d
0.15102115 0.20183583 -0.055248536 0.16796982 -0.12667403 0.0036891163 0.18634982 0.1971767
-0.11493038 0.08743237 0.11128575 -0.14378168 -0.03616084 0.1867653 0.2167687 -0.15187421
0.17601135 -0.04287891 0.034537062 -0.23284082 0.12050824 -0.2071603 -0.16943416 -0.036381252
0.22004399 0.16073243 -0.18818182 0.1351403 0.15041606 0.13856818 -0.18969391 -0.011756253
0.24547654 0.10596428 -0.14655676 0.2015489 -0.06153634 -0.113089524 -0.14720343 -0.14911762
-0.24743639 -0.13973726 0.15230675 0.174325 0.19654557 -0.15493827 -0.015074347 0.072454855
0.090726554 -0.1879197 -0.08843664 0.10707731 0.1555402 -0.1549226 -0.09716425 0.12684229
-0.16237888 0.14831878 0.18561804 0.09464633 0.21383272 0.16606064 0.19192915 0.08393552
