PV_prediction/modelpth/model_8.pth (torch, 75295 bytes, 5 tensors)

weight_ih_l0 f4 [256, 4]
00000000: 8dc1 ab3d ffb0 8e3e 82f3 4f37 5491 033e
00000010: a7b5 2c3e c6fc d43d 18c1 c13d 500d debc
00000020: 1600 f4bd 691d fdbd 2254 d2bc f653 31bd
00000030: 2c3f d1bc 589e 683d cf45 47be 1f3e e83c
00000040: 05c8 46bd 2bb8 b13c 4ddf 3abe 26a7 eebd
00000050: 7d91 66bd 49f1 ebbd d318 433d eed4 f23c
00000060: e09c 853b 7ab3 983d 7808 17bd 0bf1 a13d
00000070: baba 1abd 7a7b 5b3e 93b2 86bd e29d 1b3e
00000080: fe20 8fbd 4e8e 8e3e 53c3 38bd 9431 9fbc
00000090: d34a 05bd 4d22 1c3e 6882 f83c 9080 5c3d
000000a0: 7641 223e c966 273e 81b0 09bd cfee 453e
000000b0: 9786 ac3d f7ca 733d b8c3 953d bbb9 5ebe
000000c0: 2dfe 493d dc45 b0bc e5ab 34be 533c 9c3c
000000d0: e7b7 c83d 6f1c 1b3e 6d50 0ebd 36b0 3e3e
000000e0: 30e0 f83e 79d7 61be 1a0d b83a f4a4 e63e
000000f0: c357 513e 26f6 463e e4b3 763d 694b 00bd
00000100: 6d3f 75ba b793 173e dcbb 4c3c 07a6 bdbc
00000110: 8acc 02be 0ca2 9dbc f568 463d 8b3e 7a3a
00000120: 6d72 c03d 2e67 173e 8deb 17be b3fd 473e
00000130: ac20 c4bd 6c01 ff3d 37c5 853c 0549 323e
00000140: 321f 84bc 6f8d 1e3e 7c48 4abd dfe9 e03d
00000150: 2cf7 79bd f538 5bbc d4d8 943d cd68 52be
00000160: bcaa ebbd 834c b0bd 0cb5 08be ef97 d6bd
00000170: 61f9 4a3e 9f9f 35be eca3 273d 9f88 7fbe
00000180: af12 a8bc 7f8c 233e ba73 8f3d 0663 4e3e
00000190: 7442 2ebd 0d21 f0bd 069b 2a3e f656 4bbe
000001a0: 6b26 b2bd 10ff 7a3e 923c a8bd fa4b 373e
000001b0: 0c63 8b3d 2ec3 ee3d 2fb3 6bbc 8bbf b13d
000001c0: c681 b6bd c354 49bc d667 b63d ecf0 7bbd
000001d0: 0f42 083d 2333 b83d 47d4 8ebd edd7 0cbd
000001e0: 3318 273f 9466 e73c 6e0c f1bb 3902 af3e
000001f0: d999 f7bc 33ae 71bd e830 11bd 2409 b5bd
00000200: 1e2b 6c3c ff66 b739 15c5 32bd 2bf9 36be
00000210: 4e87 573d afd7 743e 3e27 c7bc 586a 0c3e
00000220: 8e40 0cbe 2dbe 53be 74d5 0c3e ce7d afbe
00000230: 659b 053e 7dc5 1ebe beca ccbd d691 f83c
00000240: 59eb 013f da2c 1c3f 6136 5b3f d3a8 1ebe
00000250: 6a7a 13be 08c6 9fbe 54d5 a2bd 88e8 8dbe
00000260: b078 173e cc7f 413e 4bcd 9a3c c5f6 813d
00000270: 854d cabd d816 1cbe f5b9 9abd 44b2 1dbe
00000280: 1959 a9bd 687c 633e 7962 1f3d 4078 2e3e
00000290: 4ecc 343d 14e0 403e 20d1 ab3d a89c 943d
000002a0: de3d 203e 4a2f 5abc b639 4f3e ef7e fabc
000002b0: b7b3 ab3d d094 343e 90e1 81bd 34df d13c
000002c0: 8800 f63d e2e0 063e 3052 e2bd db98 6f3d
000002d0: 1d8d 29bd c02a a0bd 6534 813e 8cb6 b9bd
000002e0: 866c 92bd 4b1f 613e 75f4 1b3d f0ee 5a3e
000002f0: 0e3a 043e 6aae cc3c b9a0 15bb 2663 8c3d
00000300: f456 d33d 85f9 1b3e 3a2b 143e 59ee e83d
00000310: a63e bb3c ded0 77bd dc02 81bd c9b0 21be
00000320: 0a31 35be bfbf 3bbe 4209 45be f443 13be
00000330: 6218 c33b 7ba0 6b3e ad7a 2cbd 998d cf3d
00000340: ecb8 3f3d 0c21 123e 5522 01be de43 4b3e
00000350: fa03 313d 58b0 7d3e 4b24 b3bd f812 103e
00000360: 62f7 4b3e 1eca 3c3d e339 f63d 55a1 4b3d
00000370: ed37 93bd 0d1e 053e d83a d03c 30ef 80bd
00000380: fa67 3abe 8365 debd db37 67bd b967 28be
00000390: b9cc ee3d 235b db3d c89b 9c3d 6026 e73c
000003a0: cd1a 703d ade7 103d 6d86 9a3d 3a65 d73c
000003b0: 92a3 b43d 34d0 143e aefa 83bb 3c2b 24bd
000003c0: dc3a a93e aabf b2bc a4d2 9c3d f9d1 9c3e
000003d0: 8ab7 6fbd 7c97 8c3d 916a 88bc d4ab 183d
000003e0: 2c57 093d 8e9e d9bc b954 51be 51be 833d
000003f0: 616c 60bd 4a9b 9e3c 239e 0fbe b39d d33d
0.08386526 0.27869412 1.2394858e-05 0.12848407 0.1686617 0.10399775 0.09460658 -0.027105957
-0.11914079 -0.12359125 -0.025674883 -0.043292962 -0.025542818 0.056791633 -0.19460224 0.028349934
-0.048530597 0.021694263 -0.18249245 -0.11652975 -0.056291092 -0.11520631 0.047631096 0.029642548
0.004077539 0.074561074 -0.03687331 0.079073034 -0.037775733 0.21433821 -0.06577029 0.15196946
-0.06988715 0.27842945 -0.04510815 -0.01943282 -0.03254206 0.1524746 0.03033562 0.053833544
0.15845284 0.16347803 -0.033615593 0.1932938 0.084241085 0.059519734 0.07312721 -0.21750538
0.049314667 -0.021517687 -0.17643698 0.019071734 0.098007016 0.15147565 -0.03474467 0.18621907
0.4860854 -0.22054853 0.001404199 0.45047724 0.20443635 0.19429836 0.06023015 -0.031321917
-0.00093554595 0.14802442 0.012495961 -0.023150457 -0.12773338 -0.019242309 0.04843994 0.0009546063
0.09396825 0.14785454 -0.14835949 0.19530372 -0.09576544 0.12451443 0.01632939 0.17410667
-0.016128156 0.1548364 -0.049385533 0.10982107 -0.061026737 -0.013380279 0.07267919 -0.20547791
-0.115071744 -0.086083435 -0.13350314 -0.10478198 0.19821693 -0.17736672 0.040927812 -0.2495446
-0.020516722 0.15971564 0.07004495 0.20154962 -0.042543843 -0.11725054 0.16660699 -0.19857392
-0.08698734 0.24511361 -0.08214678 0.17900077 0.06806001 0.11658321 -0.014385982 0.08679112
-0.08911471 -0.012288275 0.08906524 -0.061509058 0.033266123 0.089941286 -0.069740824 -0.03438561
0.652713 0.028247155 -0.007356218 0.34181383 -0.030224727 -0.05900402 -0.03544703 -0.08839634
0.014414577 0.00034981218 -0.043644983 -0.17868488 0.05261927 0.23910402 -0.024310704 0.13712442
-0.136965 -0.20678015 0.13753301 -0.3427567 0.1304756 -0.15505023 -0.099996075 0.030342977
0.5074974 0.6100594 0.8562985 -0.15494089 -0.14402166 -0.31205773 -0.07950845 -0.2771647
0.14792132 0.18896407 0.01889672 0.06345896 -0.09878067 -0.15243089 -0.07555 -0.15400034
-0.08268947 0.22215426 0.03891227 0.17038059 0.044140153 0.18835479 0.08389497 0.07256442
0.156486 -0.013316939 0.20236859 -0.030578105 0.08383887 0.17634892 -0.06341851 0.025619127
0.1201182 0.13171723 -0.11050832 0.058495384 -0.04139434 -0.07820654 0.25235286 -0.09068021
-0.071496055 0.21984594 0.03807493 0.2138021 0.12912771 0.02498551 -0.0022831394 0.068548486
0.10319319 0.15231903 0.14469615 0.11373586 0.022857022 -0.060501926 -0.062993735 -0.15790094
-0.17694488 -0.18334864 -0.19241813 -0.14381391 0.0059538344 0.23010437 -0.04210918 0.101344295
0.046807215 0.14270419 -0.12610753 0.19850108 0.043216683 0.24774301 -0.08747157 0.14069736
0.19918588 0.04609119 0.1202276 0.049714405 -0.07188401 0.12999745 0.025418684 -0.062956214
-0.18203726 -0.108592056 -0.056449752 -0.16445817 0.116601415 0.10710742 0.076469004 0.02821654
0.05861931 0.035377193 0.07545171 0.026293386 0.08820261 0.14532548 -0.004027686 -0.040080294
0.3305272 -0.021819908 0.07657364 0.30628946 -0.058524646 0.06864831 -0.016652377 0.037273243
0.0335304 -0.026564863 -0.20442475 0.06432784 -0.05479086 0.019361157 -0.14025168 0.10332813

weight_hh_l0 f4 [256, 64]
00000000: 004c 013b 7007 bf3d 40c9 343d d235 fa3d
00000010: 50e0 883c 8cc6 12bd 8c3c 00bd 402a f5bc
00000020: 7022 1a3c 0016 dfbc b039 5f3d 4027 ffbd
00000030: c0f6 323b 80c7 e2bd b4b1 793d c457 0d3d
00000040: c21f fe3d 9edf 96bd 90c9 7b3c 24f2 73bd
00000050: 3ca0 7dbd 3e59 dd3d 10e0 e33d 5eee efbd
00000060: ec93 92bd c864 7b3d 0a26 c03d d058 573d
00000070: 2424 003d 48a8 f5bc 78c7 ac3d 12b1 a33d
00000080: 804e fd3a e8a4 a4bd e47a 403d 44e3 203d
00000090: 0413 23bd 0c89 d6bd f0b7 3abc 4826 6a3d
000000a0: c870 6dbd 8064 37bc f811 cabc 90de f3bd
000000b0: b000 f13d 982d ba3d 8412 c03d 00e3 c5bb
000000c0: 805a cd3d aa93 813d c6c2 e8bd 30c8 69bd
000000d0: f897 d63d 04ae de3d e0a4 c0bd 5841 4b3d
000000e0: 60e4 6f3c 6616 913d 280c c83c 0671 fdbd
000000f0: 0229 fa3d 4e32 c9bd 6e6a cfbd 3098 283d
00000100: 50c9 513d a4d0 5dbd 0663 ebbd 18af 61bd
00000110: 00df a03c 861a e1bd ea21 e8bd f058 413d
00000120: e07d febc 1072 88bc 40b2 f43c b000 263c
00000130: 00c1 b13d 5c19 093d 74ae 29bd 385b 31bd
00000140: b6b6 d5bd 5602 dd3d 70a9 8abd 8419 6bbd
00000150: 44fc 26bd da37 f73d 08bf ab3c 943a ec3d
00000160: a088 f93d b61a de3d 72ed 923d 0e8d a03d
00000170: 2889 78bd da44 d83d 86c4 9d3d 4014 70bc
00000180: f6b6 a9bd f48f 1fbd e413 e1bd 2a9f f23d
00000190: 2cac e93d aa64 dc3d ce89 f93d 6837 af3d
000001a0: 78d9 023d 18df ec3d 0e4a a43d 72f3 9dbd
000001b0: 3c24 3ebd d805 5d3d 5854 f8bd 2087 6f3c
000001c0: f4f1 d3bd 0ec2 e53d 3825 fdbd 6867 94bd
000001d0: 50eb 4cbd d83f d2bd 7c87 213d b42c 3d3d
000001e0: a86d 473d 8423 223d 7aff f83d be62 a43d
000001f0: d685 81bd 302d c03d 7a72 e93d 7abd c0bd
00000200: 8892 07bd 6084 803c b295 b3bd 7027 bfbd
00000210: 3ad8 f03d 40b7 0abc 04da 2d3d c09b cbbd
00000220: 980e 373d b0e0 273c 509b 3abd 106a c73c
00000230: ba2c c43d 30e4 78bc 6adb 90bd 00f6 5f3c
00000240: 2e02 9a3d e043 ac3d d439 803d a0f8 5c3c
00000250: 8c22 8d3d f825 9cbc c6ce e8bd fad6 c73d
00000260: b07b c1bc a462 203d f02a 0a3d 8cef 363d
00000270: 2cfc babd f021 0abd f4e6 87bd 3888 c83d
00000280: a42c 7ebd ce3c ce3d 6075 113c b06f 043d
00000290: c037 80bc 5481 e03d ccbb 983d d05b c2bd
000002a0: 501f 7d3c c012 86bb bc27 6f3d 460c 94bd
000002b0: 8466 5abd 1a44 c33d f819 9cbc e8e1 acbd
000002c0: c059 b13d eecf c0bd caf9 d53d c894 80bd
000002d0: 2854 f33d 0088 70ba 12d7 f53d e28b e5bd
000002e0: 2ec6 ae3d 14f9 0abd 98c0 913d d41c 623d
000002f0: dc99 d1bd c42d 973d 0cba 533d a0cc dc3c
00000300: 8059 cbba 6448 d63d ac81 28bd 127e a33d
00000310: 8891 38bd 64cf d1bd ecef 80bd 1234 a23d
00000320: 2c89 8e3d acde 3a3d d289 ac3d c005 5cbd
00000330: 403f fd3b a8bb b23d 42c6 e2bd 608c 783c
00000340: 08b5 873c e08e fa3d e812 9ebd fad1 a3bd
00000350: 281b 1ebd 4e9d b33d 48db b9bd 2871 8b3d
00000360: 606c 4e3d e029 5cbc 8842 f83c 3201 b5bd
00000370: b845 5e3d 2017 d33c c074 123b 643b 343d
00000380: 0066 ee3c 20f6 3fbc c475 043d e0d2 c2bd
00000390: 7258 82bd d8ca ab3c 0c5e 193d 0c33 dd3d
000003a0: fc3f c7bd e260 a13d e875 bc3d 4867 f73d
000003b0: 60af f13d 5af4 debd 10fc 093c 883c a93c
000003c0: 407d 9fbc 0063 08bd ca99 bebd 88d9 813c
000003d0: d0c7 a0bc dcc2 c6bd 6a9d bebd 9489 5bbd
000003e0: 9ce7 0ebd 108c 9dbd a077 7a3c 8055 37bc
000003f0: 64ec f93d 2ae4 abbd 80bd cf3b 8048 b2bd
0.0019729137 0.093275905 0.04413724 0.12217297 0.016708523 -0.03583388 -0.031307742 -0.029927373
0.009407625 -0.02723217 0.054498374 -0.12458658 0.002730772 -0.11073208 0.060960487 0.034507528
0.12408401 -0.0736687 0.01536788 -0.059557095 -0.06192039 0.10808037 0.11126721 -0.11715387
-0.0715712 0.06137541 0.093822554 0.052574933 0.031284466 -0.02998747 0.08436483 0.07992758
0.0019325763 -0.08039266 0.046992198 0.039279237 -0.039813057 -0.10475358 -0.011396393 0.057165414
-0.057968885 -0.011193395 -0.024666771 -0.11907685 0.11767709 0.090907276 0.093785316 -0.0060390234
0.10027027 0.06326993 -0.11365275 -0.05707568 0.104782045 0.108730346 -0.094064474 0.049622864
0.014641851 0.0708435 0.024419859 -0.12375073 0.12214853 -0.09824048 -0.10127722 0.041160762
0.051217377 -0.054154053 -0.114934966 -0.055098623 0.019637585 -0.10991387 -0.113345936 0.047203958
-0.031065881 -0.016655952 0.029870152 0.010132 0.0867939 0.03347145 -0.041426137 -0.043299884
-0.1043524 0.10791461 -0.06770599 -0.05739738 -0.040767923 0.120712 0.020965114 0.115346104
0.12184262 0.108449385 0.07174195 0.07839404 -0.060677677 0.105600074 0.077034995 -0.0146532655
-0.0828685 -0.038955644 -0.10990122 0.118467644 0.11409792 0.10761388 0.12184487 0.0855549
0.031945676 0.11565989 0.08021937 -0.07712449 -0.046421275 0.05396065 -0.12125462 0.014619619
-0.10348883 0.112186536 -0.123606145 -0.07246286 -0.0500291 -0.102660835 0.03943585 0.04618521
0.04868856 0.03958465 0.12158103 0.08026646 -0.06324355 0.09383619 0.11398788 -0.0941114
-0.033098727 0.015688121 -0.087687865 -0.09333694 0.11759992 -0.008466542 0.042444244 -0.09941816
0.044691652 0.010246441 -0.045558274 0.024342567 0.095788434 -0.015191123 -0.070731 0.013669491
0.07519947 0.08411384 0.0626103 0.013487011 0.06891355 -0.019061074 -0.11367564 0.097578004
-0.02361855 0.03915657 0.033732355 0.044662043 -0.09130129 -0.03372377 -0.06635848 0.09791607
-0.06205429 0.10070191 0.008878082 0.032333076 -0.015651584 0.109621674 0.074576944 -0.09490168
0.01544936 -0.0040915906 0.058387503 -0.072289035 -0.053320423 0.09534474 -0.019055352 -0.08441526
0.086596966 -0.094146594 0.10448034 -0.06278378 0.11881286 -0.0009175539 0.12003912 -0.11208321
0.085338935 -0.033928946 0.071168125 0.055203274 -0.102344245 0.07381776 0.0516911 0.026953042
-0.0015514344 0.10463026 -0.04113929 0.079830304 -0.045060664 -0.10244635 -0.062957615 0.07920088
0.06959757 0.045622513 0.08424725 -0.05371642 0.0077284873 0.08727199 -0.11072971 0.015170187
0.016565815 0.122342825 -0.0771845 -0.07999034 -0.038600117 0.08770238 -0.09075028 0.06808692
0.050396323 -0.013437718 0.030305162 -0.088381186 0.054265708 0.025767863 0.002234742 0.04400195
0.029101372 -0.011716396 0.032338873 -0.095128775 -0.06364526 0.020970747 0.037443206 0.10800752
-0.09729001 0.07879807 0.09202176 0.12080246 0.11801028 -0.1088645 0.008421913 0.020658746
-0.019468904 -0.03329754 -0.09306677 0.015850797 -0.019626528 -0.09705135 -0.09307368 -0.053598
-0.03488885 -0.076927304 0.01528731 -0.011189818 0.12203291 -0.08393128 0.006339729 -0.087052345

bias_ih_l0 f4 [256]
00000000: ba36 393e 842d 5a3e 9f75 3fba 4f4a 253c
00000010: 9558 c4bd 54e9 eabd b851 893e ee0b a6bd
00000020: ec7e 7ebc 791a 2c3e b8e4 af3d 9896 733e
00000030: 0239 1d3d d640 b53d 79d0 4c3e 5e34 883e
00000040: 5c53 4a3e df1a d6bc 9234 863d fef6 48bd
00000050: e700 b6bb 686c 1a3d ddbb 88bd db40 163e
00000060: 764a 1f3e 68cf 0ebd 40c9 56bd 1840 3abd
00000070: 7cc4 36be 9a22 4abe 8219 953d c788 69bd
00000080: 97fe 833d 780f e03c d978 303e 4fa7 b7bb
00000090: dc02 7f3f 70c6 1b3e 4d4a 42bb e2f1 673c
000000a0: 6959 37bd 2a79 1a3e 1e51 693e 99f0 5d3e
000000b0: 8205 5d3e a563 023d 9030 aabc 902b 9e3e
000000c0: 6743 8f3d 4bae a33c 7c9c 62b9 d02c 383c
000000d0: bcd8 443e 1086 983b 9149 673e 681f 6a3e
000000e0: 7fcb 80bd afc5 983e 7b85 c33d 12f8 593d
000000f0: 46b1 5c3e 850e 883d 31c7 c1bd 861e 0f3e
00000100: a03d a53b 4074 afbd 0a97 903d b068 653d
00000110: 601c a3bb 10d9 1abd a00b 5bbc 2611 b7bd
00000120: 30b3 563d b069 7f3c e85c 313d 2063 03bc
00000130: 0cc4 4b3d 3807 93bd 3e37 bb3d 1ec3 9dbd
00000140: be82 aabd 42cf d2bd a8a8 c93c 7cea 61bd
00000150: f061 113d c813 8dbd 42a7 debd 0c6f ed3d
00000160: 70d2 ff3d 7831 edbd 4810 bc3d 74ae b33d
00000170: 4473 003d fc50 7dbd 80f1 103b a0b9 d13b
00000180: c084 873d e0d5 383d fa09 953d b0aa d7bc
00000190: f050 eabc 806c f03d 7ef1 853d f014 243c
000001a0: 6875 ce3d 4aaf 913d e098 e83c 003b ae3b
000001b0: 3231 d53d 44c1 7cbd aae9 b1bd 18b5 a1bc
000001c0: c000 7e3d e058 a2bc ccb2 213d c0af 81bb
000001d0: f6c0 c3bd e0bc 5fbd 8822 e5bd 1809 e03d
000001e0: 9200 e33d e8a2 5c3d d092 65bc 0c32 a13d
000001f0: d2bb bc3d 5e5a f3bd 4e02 f43d 209d e8bd
00000200: 5263 7e3d 67df ee3b ae7e 9b3b f9cc 0dbd
00000210: e2dc 73bd 75ae a4bd 98e7 843d ac22 803d
00000220: d9c3 5f3d 4ee4 8fbd 0586 cdbc 9060 94bb
00000230: 85c3 37bd 5f84 babc 787f e5bd 5169 543d
00000240: 88fb 783d 7801 dcbb ac4a 233d 0942 4cbd
00000250: 68dc 75bc 6fd4 1e3d 2e5f 83bd 2a19 ba3d
00000260: 9976 2cbc b87c 91bd 4614 c1bc e077 b03c
00000270: 67b3 66bd 310a 5eb9 f282 2c3d 4eda 9abc
00000280: f28b 043e df04 bc3c b103 bcbd 8623 ba3c
00000290: 531e 583d 776d 923d 7a52 d53c c517 cebd
000002a0: 9be2 113e 9e96 88bd 5a1c fbba d2e5 2bbc
000002b0: 3ef3 1c3b 25e6 cd3d 7e38 1d3d f015 ee3d
000002c0: 7da0 eb3d 0049 69bc f16d 893d 0ffd e6bc
000002d0: ac17 bfbd 933d 823d b5ad 093e 1e09 863c
000002e0: 511f aa3d 396a 9c3d dcc4 c6bd 620f 553d
000002f0: 74d0 7d3d 3ef5 f73c 733e 953d 0d7a 25bd
00000300: 4bd1 563e da29 773e 89fd 7f3b 9db4 0cbe
00000310: 7a13 37be a892 d93c 7f04 463e 4f43 3cbe
00000320: 0233 c3bd 7ea9 133e b602 213e 9635 be3d
00000330: a951 08bd 8210 8c3c 7c88 c23e 0d38 c43d
00000340: 0eb8 763e 936d 12be 353d 343e 853f dabb
00000350: d49c b73c 11a6 af3d 3461 a2bd f25a 8c3e
00000360: 9203 783d d32d 403d 46bb 453c 87b6 99bc
00000370: 6db7 0ebd 7ea3 31be a56a 763d 0535 4fbc
00000380: d39f 943e 2a5f 163e b227 2e3d feca 8dbd
00000390: 9ffd 8f3f 8bf5 1e3d 05df 343e 1a03 91bd
000003a0: 85a7 763d aa18 1a3c f149 703e 67c3 d33d
000003b0: 46f2 103e 8904 333d 72f7 023d 6c01 973e
000003c0: 9cf0 393e ac5d 0f3e 24b7 91bd 2583 243e
000003d0: 4070 0f3e 1d6c 253e 36be 8c3e 8e35 2f3e
000003e0: 1854 0abd 072a 793e 03ba 863d 38d3 e23d
000003f0: 5ab3 7e3e 1fdc 873d 872f 673d 8f45 173c
0.18087283 0.21306425 -0.00073035987 0.010088517 -0.09587208 -0.11470285 0.2682016 -0.08107744
-0.01553319 0.16806974 0.085885465 0.23787916 0.038384445 0.08850257 0.20001401 0.26602453
0.19758362 -0.02613586 0.06552996 -0.049063675 -0.005554307 0.03770104 -0.06676457 0.14673178
0.15555748 -0.034865767 -0.05243802 -0.04547128 -0.1784839 -0.19739762 0.07280256 -0.057015207
0.064450435 0.027351126 0.172336 -0.0056046615 0.9961374 0.15212417 -0.0029646337 0.01415679
-0.044763003 0.15085283 0.2278485 0.21673812 0.21584132 0.03183331 -0.02077511 0.3089261
0.06995278 0.01998057 -0.00021611335 0.011241153 0.19223303 0.0046546534 0.22586657 0.22863543
-0.06288814 0.2983832 0.09546944 0.053215094 0.21552 0.066433944 -0.09461821 0.13976488
0.0050427467 -0.08567095 0.070600584 0.05600804 -0.004977748 -0.037804663 -0.013369471 -0.08938818
0.05241698 0.015589163 0.043301493 -0.008019239 0.04974751 -0.07179111 0.09141396 -0.07703231
-0.08325718 -0.102934375 0.024616554 -0.055155262 0.03549379 -0.068885386 -0.10871746 0.11593446
0.1249131 -0.11581701 0.09182793 0.08773509 0.031359926 -0.06184481 0.0022116601 0.006400302
0.06617117 0.045125842 0.072772935 -0.026326507 -0.028603047 0.11739445 0.065402016 0.0100147575
0.10080987 0.07113512 0.028393209 0.005317092 0.10409774 -0.06170775 -0.08687146 -0.019739673
0.062012434 -0.01981777 0.039477155 -0.0039577186 -0.09558289 -0.054623485 -0.11188227 0.109392345
0.11084093 0.053866297 -0.014012054 0.07870874 0.092155114 -0.118824705 0.11914502 -0.11358094
0.062106438 0.007289815 0.004745326 -0.034619305 -0.059536822 -0.080410875 0.064894855 0.06256613
0.054630134 -0.070259675 -0.02508832 -0.0045281127 -0.044864196 -0.022768198 -0.11205953 0.05185825
0.060786754 -0.0067140423 0.039866135 -0.049867664 -0.015006162 0.03877681 -0.064146385 0.09086831
-0.010526323 -0.07103866 -0.023569237 0.021541536 -0.056323435 -0.00021175366 0.042117067 -0.018902924
0.1294401 0.022951541 -0.091803916 0.022722017 0.052763294 0.07149785 0.026040304 -0.100631274
0.142466 -0.06669353 -0.001915823 -0.010491805 0.0023948695 0.10053662 0.038383953 0.11625278
0.1150522 -0.014238596 0.06710423 -0.02819684 -0.09330687 0.063594006 0.1344517 0.01636177
0.083067544 0.07637448 -0.09705517 0.052016623 0.061966375 0.030268308 0.07287302 -0.0403996
0.20978276 0.24137059 0.003906103 -0.13740773 -0.17878523 0.026559189 0.19337653 -0.18385051
-0.09531213 0.14420125 0.1572369 0.092875645 -0.033281002 0.017097715 0.37994754 0.09581003
0.24093649 -0.14299612 0.17601474 -0.006660404 0.022413649 0.085765965 -0.07928696 0.27413136
0.06055028 0.0469187 0.012068575 -0.018763794 -0.034842897 -0.17347524 0.060160298 -0.012646918
0.29028186 0.1468474 0.042518325 -0.06923483 1.1249274 0.038808387 0.176632 -0.0708067
0.060218353 0.009405294 0.23465706 0.103400044 0.1415492 0.043705497 0.031974263 0.29493272
0.18158191 0.14000577 -0.071150094 0.16065653 0.14007664 0.16154523 0.2748887 0.17110273
-0.033771604 0.24332438 0.06578448 0.11075443 0.24873105 0.06633782 0.05644181 0.009232893

bias_hh_l0 f4 [256]
00000000: 6847 dc3d 4ccc 723e 5c94 50bc bf49 2cbe
00000010: d878 81be ff63 35be 21de db3d 7af0 ce3b
00000020: df64 733d 8118 d73d 5a14 cb3d 8475 9dbb
00000030: 216b 18bd cf76 473d 40b8 ae3e 6fc0 9d3d
00000040: 7a63 4f3e 88c9 b6bc 8982 5e3c 4b22 953d
00000050: b5ea 543e 2e66 b23d 1484 ffbd d8d3 f33d
00000060: 1fee b63d 32a1 76bd 1376 19bd fdab 183e
00000070: 35f0 7b3d 69d4 ae3a fa69 4c3e dce2 cb3d
00000080: 1c14 af3d a32d d43d afc2 ee3d bb8b 27bd
00000090: 35f2 923f 1c9f 273e 5a22 e23d 4027 193d
000000a0: 7e5b 203e f1a2 5b3e d85e 203e ea57 d53c
000000b0: b7b9 2f3e 86ce a93d aebb acb9 a379 4b3e
000000c0: 9e87 953e 8403 a43d b518 d4bd 389c 293e
000000d0: 336b 31bd d8d8 583e cdee ba3d ba15 5a3e
000000e0: cd48 42bd b02d eb3d f37a 8b3e 5d34 043e
000000f0: 3ad0 693e 09c1 853d 3a75 dcbd cf05 4e3d
00000100: 860d d63d 00a4 cab9 9032 8cbd 5457 debd
00000110: 52c1 893d 20ad cf3b d835 9d3d a07e bf3c
00000120: fc71 d43d fe04 a2bd 88e0 fbbc d8fc 87bd
00000130: 6a50 fe3d 32d2 853d d6e4 efbd 9809 ea3d
00000140: 58c2 dc3d bc03 083d 60b9 fe3b 3a5f ecbd
00000150: 7e4f 993d 0400 5e3d c4be 203d 50c0 653c
00000160: 04c0 4a3d 5690 d7bd 98e6 103d 5491 6ebd
00000170: 8055 823c fcb1 09bd 508d 963d f0e1 ee3d
00000180: 1829 ff3c 9c98 6b3d f6ff e3bd 4674 c93d
00000190: 523c b83d 1045 903d f044 843d d045 c3bd
000001a0: b624 87bd 5ab1 e73d 7c32 e43d 4000 313b
000001b0: 90fc a73d c662 efbd 1613 8d3d 804f 99ba
000001c0: 502d a13c aef3 dbbd 7840 8f3d 001a 583a
000001d0: 2064 0abd f051 c43c 909e 073d 66cb e3bd
000001e0: aab5 edbd be9c eabd bc31 a1bd b44e a6bd
000001f0: c8de d3bd 565e a6bd be15 96bd f4c8 113d
00000200: 7ccc f6bd 54e4 5f3b 75e8 8ebd f78e f9bd
00000210: 7758 283e 1dd5 babc 8b4d 4cbd 4b15 18bd
00000220: 0c8d 9abc b6da 9e3d deee febc def1 b53d
00000230: f0d0 90bc 6e1a afbd 6b43 1cbc 043f e7bd
00000240: 6e6a dbbd 6687 6bbd 08cc 303d 97b3 9d3d
00000250: 57be e2bc 1c03 c23c 3681 ff3c 4431 933d
00000260: 1df6 fa3d 4bb7 25bd 0a76 823d dc10 7f3c
00000270: 4b28 60bc df5b ccbd 4a05 b1bd 0849 58bd
00000280: 7563 ddbc c2be c33c db1c 3cbd 9ea9 ffbd
00000290: 0a44 58bd e5c4 d53d a5f5 34bd a94f af3d
000002a0: ec57 ccbd f7cd 71bd 922a 4bbd 04b7 d4b9
000002b0: 0ebb 403d 6789 70bd f368 df3d 27eb 4cbd
000002c0: bba2 c1bd 43ea 48bd b549 6dbd f352 16bd
000002d0: 122a 8cbc d4bf 83bc eaa2 2dbd 4d8b 023d
000002e0: 045e 4dbd 08dc 0ebe cc89 653d 685b 29bd
000002f0: 9cd8 2cbc bcbb 863d 0fb8 b83d 25a2 00bc
00000300: 855a 1a3e cfa0 f73d 131e 12be fe02 b0bd
00000310: 1465 94bd 738d d5bd 343e 993e 04c2 16be
00000320: 8598 863c d970 fe3d 514e bd3d ee0c 3c3e
00000330: 92c1 903b 1eff 7e3d f67b 773e a646 663e
00000340: 7e0d 6c3e dd88 6abc 6d89 a03d 0649 d03b
00000350: 17b4 05bc 8f7c 073e a11f 51be 7095 903d
00000360: 205c 393d 3032 41bc 9847 5dbd 3e59 223e
00000370: d4a1 343d 19b4 f2bd ceeb a23d 6b23 15bc
00000380: 6e2d 333e 481e e03d 7424 2bbc 948b 913c
00000390: b711 7f3f 4a7e e43d 60e8 c83d cb7f 0fbd
000003a0: 3d87 363e 2fa9 4b3e 3959 3a3e 5271 c339
000003b0: f082 273e ce34 063e 0efe 87bd d81e 3f3e
000003c0: aec5 153e 176f 2c3e 5c42 113d 666a 883d
000003d0: d176 cdbb 51ef 183e b8ba 543e 2b7f 0b3e
000003e0: f2ed 22be d965 833e fb92 053e d7a9 3b3e
000003f0: 6bde 9c3e ce83 9fbc 7fea b2bd 21e4 0c3e
0.10755807 0.23710746 -0.012730684 -0.16825007 -0.2528751 -0.17713927 0.10735727 0.006315288
0.05942237 0.105027206 0.09915991 -0.0048052687 -0.03721154 0.04869729 0.34124947 0.077027194
0.20252791 -0.022312894 0.013580927 0.072819315 0.20792659 0.087108955 -0.12476364 0.1190564
0.08932137 -0.06021232 -0.03746612 0.14909358 0.061508376 0.001333845 0.19962302 0.09955379
0.085487574 0.10360267 0.11658227 -0.04090474 1.1480166 0.16369289 0.11041708 0.037390947
0.15659901 0.21448876 0.1566118 0.026042897 0.17160688 0.08291344 -0.0003294623 0.1987062
0.2920503 0.08008483 -0.10356275 0.16563499 -0.043315124 0.2117647 0.09127579 0.2129735
-0.04743271 0.114833236 0.2724224 0.129106 0.22833338 0.06530959 -0.10764547 0.05029851
0.10451798 -0.00038650632 -0.068455815 -0.108565 0.06726326 0.006337777 0.076762855 0.02337581
0.10373303 -0.079111084 -0.030746713 -0.06640023 0.124176815 0.06534232 -0.11713569 0.11427611
0.10779256 0.033206686 0.0077735633 -0.115416005 0.07485865 0.054199234 0.03924443 0.014022902
0.049499527 -0.10525577 0.03537616 -0.058244064 0.01590991 -0.033617005 0.07351172 0.11664188
0.031147525 0.057518587 -0.11132805 0.098366305 0.0899588 0.070444226 0.06458461 -0.095348
-0.06598799 0.11313124 0.11142442 0.0027008206 0.08202469 -0.116887614 0.06888406 -0.0011696666
0.019674927 -0.107398376 0.06994718 0.00082436204 -0.033786893 0.023964852 0.0331102 -0.111227795
-0.11606915 -0.114556774 -0.07870814 -0.0812048 -0.103452265 -0.08123462 -0.07328366 0.035592034
-0.12050721 0.0034163194 -0.069779314 -0.121854715 0.16439997 -0.022806698 -0.04987864 -0.03712968
-0.018866085 0.077565596 -0.03111976 0.08884023 -0.017677754 -0.08549963 -0.009537558 -0.11291316
-0.10713659 -0.057502173 0.04316333 0.0770027 -0.027678652 0.023683123 0.031189542 0.07187131
0.12253974 -0.040458005 0.063701704 0.015567984 -0.013681482 -0.099784605 -0.08643587 -0.052804023
-0.027024964 0.023894671 -0.045925956 -0.12483524 -0.052799262 0.10437945 -0.044179577 0.08560116
-0.09977707 -0.059034314 -0.049601145 -0.00040572148 0.04705339 -0.058724787 0.10908689 -0.050028946
-0.094548665 -0.049051534 -0.05793162 -0.0367002 -0.017109904 -0.016082682 -0.042391695 0.03187113
-0.05013849 -0.13951123 0.056039616 -0.041346937 -0.010549691 0.06578776 0.090194814 -0.007851158
0.15073593 0.12091219 -0.14269285 -0.08594321 -0.072458416 -0.1042737 0.2993027 -0.14722449
0.016430149 0.12423868 0.09243453 0.18364307 0.0044176066 0.062255017 0.24168381 0.22487888
0.23052022 -0.014314857 0.07838712 0.0063563613 -0.008160613 0.13231109 -0.20422222 0.07059753
0.045253873 -0.011791751 -0.054023355 0.15854356 0.044099644 -0.11850757 0.079551324 -0.009102683
0.17497799 0.10943276 -0.010445703 0.017766751 0.99636406 0.111569 0.09809947 -0.035033982
0.17825027 0.19888757 0.18198098 0.0003727773 0.16358542 0.13106081 -0.06640254 0.1866411
0.1462619 0.16839252 0.035463676 0.06660919 -0.0062702675 0.14935042 0.20774353 0.1362273
-0.15911081 0.2566364 0.1304435 0.18326508 0.3063844 -0.019472029 -0.08736133 0.137589

weight f4 [1, 64]
00000000: 287b 26be 3a50 69be 4840 983c 5a50 96bb
00000010: 6584 1abd cf37 be3b 5f9e 85be 6900 053c
00000020: 8af9 a33d 410e 2f3e 7425 28be 52e7 63be
00000030: b301 f73a 1c58 12be 8389 8d3e b5a7 5e3e
00000040: 350f 22be 2f1d fc3b 36a6 213e 8e0c 893d
00000050: 8a7c edbd aa75 3dbe d681 863a a9ab 49be
00000060: 5cfa 573e 71e3 b13d 7afd cf3c 9ac4 0abe
00000070: f1f0 173d 168e 75bb 261c 0d3e 3568 073e
00000080: a082 22be d884 303e a4d0 383e 5561 b13d
00000090: ef9b e83e 854d f3bd d9f7 5abe 93bc 563d
000000a0: 4bd4 afbd 81f0 ebbd 37dc 213e 36ce 1e3e
000000b0: 9413 32be 52c9 b83d e783 bb3d 5512 5cbe
000000c0: 6ef9 21be c282 183e 0922 8abc 6952 f2bd
000000d0: d1b5 03be 46a9 3c3e f476 77be da56 3dbe
000000e0: 8d7c d6bb 4f85 463e d74f 303e 3934 f9bd
000000f0: 81cb 2ebe 6ebf d63c d4dc 62bd 2d27 45be
-0.16257918 -0.2278451 0.01858534 -0.0045872154 -0.037723918 0.0058049927 -0.2609739 0.008117774
0.0800658 0.17095281 -0.16420537 -0.2225621 0.0018845111 -0.14291424 0.27643976 0.21743663
-0.15826114 0.0076939086 0.1578606 0.06691848 -0.115960196 -0.18501917 0.0010262083 -0.1969439
0.21091598 0.08685959 0.025389422 -0.1355156 0.037095014 -0.0037468723 0.13780269 0.13223346
-0.15870142 0.17238176 0.1804834 0.08661143 0.45431468 -0.1188002 -0.21383609 0.052425932
-0.085854135 -0.11520482 0.15806662 0.1550835 -0.17390281 0.09022774 0.09156018 -0.21491368
-0.15817806 0.1489363 -0.016861932 -0.11832125 -0.12862326 0.18423948 -0.24166471 -0.18490162
-0.0065456093 0.1938679 0.17217956 -0.12168164 -0.17069818 0.026214328 -0.05538638 -0.19253226
