PV_prediction/modelpth/model_14.pth (torch, 75295 bytes, 5 tensors)

weight_ih_l0 f4 [256, 4]
00000000: 356f 84be 4e0f c9be c7e7 05bf 05e5 9ebd
00000010: ed24 7b3d bfa3 c63e 5dd4 d9bc 940f 573d
00000020: 11fb 8dbd 0fe5 92be d7b7 cdbe e682 ae3d
00000030: 4e4e b33d 8038 9a3e 958f 8bbe b4c9 833e
00000040: e2ea 8dbe f039 02bf 8199 eebe 49fc bebe
00000050: 447f 9abe b813 c8be d215 ddbe 9500 a23d
00000060: d67c 75be 1d6c 0dbe 116f 3bbe 1c84 a9bd
00000070: 3cd4 1bbe c64b 083f 41be 21be 3f44 883e
00000080: 7485 313e 0278 983e 199b c6bd 1b48 9f3d
00000090: 6071 36bd 9a45 883e 58db a0be e8bb 2f3c
000000a0: 04a5 fb3c b1ff 8e3e 7da7 82be f29a 8c3e
000000b0: 23da 93bd 9387 c7be 1079 4ebe 7fc6 8b3e
000000c0: 09e6 0cbd d1ef efbe a2f3 893d 28f9 0dbe
000000d0: b1c9 893c 7e74 c73e e127 123e 6e98 1dbe
000000e0: e6b1 2fbe d10e f9be 6231 e6be 0111 73be
000000f0: d989 3cbe 2e22 2abf cd38 bfbe c602 b8be
00000100: 82ee 4bbe f342 b1be 5df5 0dbf 7f74 2ebe
00000110: 410e 663d de59 023f c268 d03d 2c2d 1bbe
00000120: a02f b5bb 077e c63e 570a d13e ee87 0dbe
00000130: eaf3 a23d 6fda e03e 75ea aa3d f8ce 6bbb
00000140: b4d5 f3bd 4c15 613e d3ba 3dbc 017e 04be
00000150: 567e 25bf 8e86 abbd d5c5 cabe de1e 04bf
00000160: 0cb4 49be aa0a 3fbf 9ca8 6cbe 7e4f 76be
00000170: a945 0c3e 5473 083f c02d 353e e6a4 073d
00000180: 9baf 4dbe 26e3 bdbd 0774 043c a417 bbbe
00000190: e144 cabd acef 1bbf 5569 87bd 1564 023f
000001a0: 05b5 0c3d 822d 6f3e d0a9 2ebe 37f0 4b3e
000001b0: c052 acbe b989 7bbd b73c cbbc bc9e a3be
000001c0: 3d5f 1e3e e35e 893e 0ba5 213e a60a 223e
000001d0: b8a1 10be 90ac 763e bf29 383e 90e4 0cbf
000001e0: d34f eebe cee0 173d 40ef fabe 269d 16be
000001f0: 5ad5 ecbd 4ec5 07bf 367b 92be 3d01 323d
00000200: 2a14 b6be dea7 d8bd f56d a43e 8c3c 14bf
00000210: be0c a73a 6a05 d23e 3610 5dbe e0a7 233e
00000220: 587e 4dbe 2f24 9a3e b682 86be 34d6 8d3e
00000230: b024 65bd 6666 df3e 3a61 05be a115 113e
00000240: caa1 37be d195 a2be 3f83 cfbe ae74 ecbd
00000250: e907 51be 2205 eebe 4f83 c6be 76eb e63b
00000260: e322 e0bd afe0 ad3e 59cf b1bd 74ec 1c3e
00000270: 5b86 a4bd a36a d1be 7e7f d9bd d789 f83d
00000280: 0317 d4bc 2dd2 933e 7f8e 4abe 53ab 153e
00000290: 86d6 3f3e b422 063f 7eed 943d ec72 943a
000002a0: eb98 f5bd 554c de3d 78e3 12bd 0fd9 463d
000002b0: f85c 1cbc 09bb fc3e aa3b 38be 52c6 3f3e
000002c0: 1de4 9ebc d5bb 063e d973 dabe 7a4b fc3c
000002d0: 68b0 91bd 8ca0 883e b389 0bbe 6d58 4d3e
000002e0: 550d 1bbe 5e91 ab3e 4ae4 92be 0dfd 913e
000002f0: bf52 d9bd 68c3 ecbe aa48 8abe 4355 5c3d
00000300: d3b3 36be 705d a13e e8fa 07be 9c81 f73c
00000310: b30c 9bbd 8930 acbe 0b63 c0be d5a7 c1bd
00000320: 8cdc ecbd 6ba2 15bf c108 49bd e196 82bd
00000330: e32a 94be ed3d 40bf c38d b4be f1f0 b7be
00000340: 4257 98be c387 c5be 0b5b dcbe b1a8 7abe
00000350: f3ee e0bd 0b32 f93e 925d 8bbe 83ea 2e3e
00000360: c006 64be 9b9a bcbe 1262 08bf eac7 58bd
00000370: 9ae0 e1bc 917e 953e 8220 113f b282 9ebf
00000380: 39ca 823c 5f9d d23e bce5 d13e 96bd 9fbe
00000390: deb4 a63d 693d 083f a186 4cbe 2f3b 993d
000003a0: 322f b2be cae8 13bf 3788 d7be 7122 23bf
000003b0: ed91 063e b6fe a03e 7df9 683c 785d 113e
000003c0: d1ad 83bd b8df 903e 639d 44be d037 423e
000003d0: 5217 0abd f6d5 c4be b2b0 01bd 41e1 f23d
000003e0: ad20 333d 8174 643e 670e a4be 1808 9d3d
000003f0: 0342 c0bd 603f f43e 87d6 84bd a6f7 3d3e
-0.25866094 -0.3926949 -0.5230679 -0.07758526 0.061314512 0.38796803 -0.02659052 0.05250509
-0.06932653 -0.28690383 -0.4017932 0.08521061 0.0875517 0.3012123 -0.27257982 0.25739825
-0.27718264 -0.50869656 -0.4660149 -0.37301853 -0.3017522 -0.39077544 -0.4318071 0.07910267
-0.23973402 -0.13810773 -0.18304087 -0.08277151 -0.1521768 0.5324062 -0.15795232 0.26614568
0.17336065 0.2977906 -0.09697551 0.07777425 -0.044541717 0.26615602 -0.31417346 0.010725953
0.030718334 0.27929452 -0.25518408 0.27461964 -0.07219341 -0.38970622 -0.20163369 0.27299878
-0.034399066 -0.46862653 0.067359224 -0.13864577 0.016819807 0.38956064 0.14273025 -0.15390179
-0.17157707 -0.48644117 -0.4495955 -0.23736955 -0.1841196 -0.66458404 -0.37348023 -0.35939616
-0.19915202 -0.3462139 -0.5545252 -0.17036627 0.056165937 0.50918376 0.10176231 -0.1515395
-0.005529359 0.38768026 0.408282 -0.13821384 0.07956679 0.43916652 0.083455004 -0.0035981517
-0.11905995 0.2198078 -0.011580187 -0.12938692 -0.646459 -0.08375274 -0.3960406 -0.516096
-0.19697589 -0.7462565 -0.23111194 -0.24053761 0.13698448 0.53300977 0.17693233 0.033116244
-0.2008652 -0.09271841 0.008084304 -0.36541474 -0.09876419 -0.60912585 -0.06611887 0.50933963
0.03435232 0.23357204 -0.17056966 0.19915853 -0.33656883 -0.06141064 -0.024809225 -0.31957042
0.15466018 0.26830205 0.15785615 0.15824375 -0.14124191 0.24089265 0.17984675 -0.5503626
-0.46545276 0.037079625 -0.49010658 -0.14708385 -0.11564131 -0.5303544 -0.28609627 0.043458212
-0.3556226 -0.10578893 0.3211514 -0.5790489 0.0012744886 0.41019756 -0.21588215 0.15982008
-0.20067728 0.3010573 -0.262716 0.27702487 -0.05594319 0.4363281 -0.1302537 0.14168407
-0.17932811 -0.31754926 -0.4052982 -0.115456924 -0.20413174 -0.4648829 -0.38772056 0.007047112
-0.10944154 0.33960482 -0.086821266 0.15324575 -0.08033439 -0.4090167 -0.1062002 0.12135666
-0.02588988 0.2887129 -0.1978092 0.14616136 0.18734178 0.523967 0.072718605 0.0011325753
-0.119920574 0.10854403 -0.035861462 0.048546847 -0.00954365 0.49361446 -0.1799151 0.18727997
-0.019395882 0.1315759 -0.4266651 0.030797709 -0.07113725 0.26684988 -0.13626747 0.20053263
-0.15141805 0.33509344 -0.28689796 0.28513375 -0.10611486 -0.46242833 -0.27008563 0.05379225
-0.17842035 0.315166 -0.13279307 0.03021317 -0.075707816 -0.3363078 -0.37575564 -0.094558395
-0.115655035 -0.58450955 -0.049080614 -0.06376434 -0.2893897 -0.7509449 -0.35264406 -0.3592601
-0.29754072 -0.3858014 -0.4303821 -0.24478413 -0.10983076 0.48670992 -0.27219826 0.17081647
-0.222682 -0.36836705 -0.53274643 -0.052925028 -0.027572919 0.29198125 0.5669023 -1.2383635
0.015965568 0.4113569 0.40995586 -0.3119933 0.081399664 0.53218704 -0.19973232 0.074819915
-0.34801632 -0.5777708 -0.4209611 -0.6372443 0.13141604 0.3144433 0.014219639 0.14195812
-0.06429637 0.28295684 -0.19200663 0.18966603 -0.033713646 -0.3844449 -0.03166265 0.1185937
0.043732334 0.22310068 -0.32042238 0.076675594 -0.09387591 0.477046 -0.0648623 0.18551502

weight_hh_l0 f4 [256, 64]
00000000: f81b 863c 0063 cdba 001a 9cbb 181e 53bd
00000010: 6053 ca3b e8c9 ee3d 2037 cfbd 30bd ae3d
00000020: 5813 dbbd 4443 08bd 6092 14bc e038 f53c
00000030: 16cb febd 5a97 debd 2cad c0bd 16ce e7bd
00000040: 88cc c33c c040 c43c 0a14 b53d 8447 07bd
00000050: 8263 ca3d 0681 c53d 9c7f 66bd 8cd4 37bd
00000060: 505d 453d aa62 bb3d 68a4 553d 64db 893d
00000070: c0d9 c53c 3aa3 e53d 207d c9bb 6c94 563d
00000080: 28a5 823c 640f f2bd fa7d f2bd 5829 ca3c
00000090: 689f 363d 70a4 ff3c c099 62bc f813 293d
000000a0: 10a5 57bd 0000 fb3c 6edc f43d d0a4 88bc
000000b0: fc77 823d 4c20 1b3d f409 fcbd 8853 af3d
000000c0: c808 55bd a8f6 a7bd e40f 173d a067 6dbc
000000d0: 247a 1a3d 2474 0cbd de00 a4bd 9ac9 99bd
000000e0: 3ebc a4bd fc85 24bd 687b e8bd c203 b23d
000000f0: b63a efbd c0c3 1bbb 088a 503d 0e15 cebd
00000100: eebc e83d 9c75 5abd d205 eabd a0d3 2abd
00000110: 3038 c93c 208c b93b 40c0 e23d 9081 84bd
00000120: f01d 3ebc 7486 1cbd 645e 193d b20c a03d
00000130: 0047 1a3a 0637 c63d 682e 9d3c a0d4 883d
00000140: a074 8e3d a2d5 8b3d ac7a babd 4c1b cbbd
00000150: c06c 7f3b 1e9d a53d 9c9c 95bd a890 8c3c
00000160: b29c 953d 980d e83c c488 6e3d dcac b83d
00000170: 921e aabd fe23 b13d 806d 9f3a 28f2 9f3d
00000180: 5edc cebd 4226 b33d fca4 e5bd 8c31 cc3d
00000190: d88c 0b3d 0c3e c53d b8a0 53bd 8e9d a8bd
000001a0: 6c13 5ebd c877 7fbd 3646 9fbd 082c 703d
000001b0: 5852 b23c d038 1cbc b0d1 62bd 1009 263c
000001c0: 348a 0a3d 62c8 98bd e840 a9bc ac2f 1bbd
000001d0: 54e5 c4bd 66e4 c6bd 601e 073c d00a abbc
000001e0: 601c e8bd f0ea 96bc 4087 7e3d a03e 9bbc
000001f0: 1c47 64bd e444 9fbd 28a1 963c 284a 423d
00000200: bcdf b43d 0279 c5bd e0ca f6bd c24b eb3d
00000210: f243 e43d c0bc 38bb d609 95bd 341d 34bd
00000220: 10f8 f1bc 8a46 84bd cef5 c13d c4ae 6d3d
00000230: 30ed da3d c82d dfbd 980d dbbc 486c e3bd
00000240: 789c a33d 582e 9ebd 3c84 f3bd ced0 cabd
00000250: 4c31 d63d e0f4 87bd c000 993b 6cdd afbd
00000260: 9e5e d83d 80cc 94ba 8882 e9bc 9cb4 db3d
00000270: a4bc 47bd 001f 83ba a05a e53c 86f5 e6bd
00000280: b40f c0bd ec6b 28bd 50e8 d63c f8f6 8b3d
00000290: 6e58 8dbd 90cd 19bd 9280 b83d 4871 e5bd
000002a0: 6ec8 85bd 7240 d7bd 20b7 503c 2c62 ffbd
000002b0: 96fd 90bd 6e4d 9bbd 1099 ebbd 3edd d63d
000002c0: a46a 113d 0681 86bd f868 29bd 806a 9a3c
000002d0: 5038 153d 08e9 c03d c0c4 debd e05c ecbc
000002e0: e864 983c 6893 e33c 585a 0abd 6406 313d
000002f0: f82a b4bd 88bc a3bd 4c63 08bd f003 1bbc
00000300: f003 e03c fee5 d43d b059 71bc e0c1 39bd
00000310: 709e 9a3c e03f 6abd 1824 76bd 74a1 ee3d
00000320: e88f cbbd e86a 3bbd 285b 95bd 2a99 f6bd
00000330: 283c a03c b0da b83d f26c c43d 0a62 92bd
00000340: c8bc c63c a645 f93d 5666 823d 3ced 9e3d
00000350: 00bd 803d 7c18 b4bd 74a5 cdbd f8c4 44bd
00000360: 3e4d b3bd 06c6 983d 1438 40bd 5e3a bf3d
00000370: d47d ec3d 76d8 bcbd b812 4c3d 20ca bc3c
00000380: aa99 a13d cc8e 56bd 0c83 f8bd 00ea 69bb
00000390: 0019 50bd d4af 5e3d 6090 57bc 60a6 7a3c
000003a0: 307c cabc 4003 dfbc a067 d1bc 48ad 07bd
000003b0: 40fa 21bc 3c72 d73d 1471 a5bd f83d afbc
000003c0: 30a7 1cbd 58bb 983d 0094 7e3d 8823 b03d
000003d0: bc56 323d b018 31bd 204b d23b 0048 133b
000003e0: 6e48 fdbd 207c 483c c8b7 05bd e276 8e3d
000003f0: c2f6 c1bd a0a4 4c3c 00b9 76bd e4e1 63bd
0.016370758 -0.0015669763 -0.0047638416 -0.05154237 0.00617449 0.11659604 -0.10117936 0.085321784
-0.10697049 -0.033267274 -0.009068102 0.029934347 -0.12441079 -0.10868712 -0.0940803 -0.11318605
0.023901239 0.023956656 0.08841713 -0.033027187 0.09882261 0.0964375 -0.05627404 -0.044880435
0.048184693 0.09149678 0.052158743 0.067312986 0.024151683 0.112127736 -0.0061489493 0.05238764
0.015947893 -0.11819342 -0.11840434 0.024677917 0.044585615 0.03120634 -0.013830602 0.04127881
-0.05264765 0.030639648 0.11956106 -0.016680151 0.063705415 0.037872598 -0.12306586 0.08560854
-0.052010328 -0.08201343 0.03688039 -0.014490038 0.03771414 -0.034290448 -0.08007978 -0.075091556
-0.08043717 -0.04016684 -0.11351663 0.08692123 -0.1168112 -0.00237678 0.050912887 -0.100626096
0.113641605 -0.053334817 -0.114268914 -0.041705728 0.024562925 0.005662456 0.11071825 -0.064700246
-0.011603817 -0.038214162 0.037443534 0.078149214 0.00058852136 0.09678464 0.019187167 0.0668118
0.06955838 0.068278566 -0.09105429 -0.09917316 0.0038974732 0.08086608 -0.073052615 0.017158821
0.07305278 0.028326795 0.0582359 0.09017345 -0.08306612 0.08649443 0.0012163371 0.078098595
-0.101006255 0.087475315 -0.11213109 0.09970388 0.034069866 0.09630975 -0.051666945 -0.08233176
-0.05421774 -0.06237009 -0.077770635 0.05863574 0.02176778 -0.0095350295 -0.055375755 0.010133997
0.033823207 -0.07460095 -0.020660833 -0.03788726 -0.09614053 -0.09711532 0.008246988 -0.02087918
-0.11333537 -0.018422574 0.062140703 -0.01895076 -0.055731878 -0.07776812 0.018387392 0.047434002
0.088317364 -0.09642221 -0.12050414 0.11489059 0.11145772 -0.0028188676 -0.07277267 -0.043973163
-0.02953723 -0.06458767 0.09470712 0.058027998 0.10689771 -0.10897404 -0.02673988 -0.111046374
0.079888284 -0.07723683 -0.11890456 -0.099031076 0.104586214 -0.06638503 0.004669279 -0.08587155
0.10564922 -0.001135245 -0.028504625 0.10727808 -0.048763886 -0.0010003746 0.027997315 -0.11277299
-0.09377995 -0.041118547 0.026233822 0.06834215 -0.06901632 -0.037549555 0.09008898 -0.11203247
-0.065323696 -0.10510339 0.012738973 -0.12469897 -0.07079618 -0.07583128 -0.11503804 0.10491417
0.03550209 -0.06567578 -0.04135987 0.018849611 0.036430657 0.09419447 -0.10877371 -0.02885288
0.018602803 0.02778025 -0.033777565 0.043218985 -0.08797258 -0.07994944 -0.033297822 -0.009461388
0.027345628 0.1039543 -0.014730856 -0.04535091 0.018874377 -0.057189822 -0.060093015 0.116518885
-0.09939557 -0.04575625 -0.07292777 -0.120409325 0.019559935 0.09026086 0.09591092 -0.07147606
0.02425994 0.121714875 0.06367175 0.077600926 0.06286049 -0.087937325 -0.10041323 -0.048039407
-0.08754967 0.07459645 -0.04692848 0.093373045 0.11547437 -0.09220974 0.04982254 0.0230456
0.07890637 -0.052382275 -0.1213437 -0.0035692453 -0.05080509 0.0543669 -0.01315698 0.015298456
-0.02471742 -0.02722323 -0.025562108 -0.03312424 -0.009886324 0.10519835 -0.080782086 -0.021391854
-0.03824538 0.07457608 0.062152863 0.08600527 0.043539748 -0.043236434 0.006417647 0.0022473335
-0.123673305 0.012236625 -0.03264597 0.06956269 -0.094708934 0.0124904215 -0.060235023 -0.055635348

bias_ih_l0 f4 [256]
00000000: 8610 9dbe 42da d73d 16d2 9ebe 7e26 afbd
00000010: 2a6d 50be e4e3 babe fe2f 99be f8b7 35bd
00000020: c3ba ce3d 2eb1 2abe e340 32be e345 a7be
00000030: 3378 a43d a4a8 f23d 727d 8ebe e3d9 b5be
00000040: 4b5a 1ebe 1258 ec3d e77e 163e a7e4 883d
00000050: f636 543d 80a9 fabe acb0 3cbe f725 573e
00000060: b6af 8bba df54 94bd 58c7 6cbe 21db 03be
00000070: e77b bb3d dc42 633c e69a d9be b360 7ebe
00000080: a9eb 16be 64b6 57bd e7fc 25be 2c64 febc
00000090: c25b a1be 2467 8ebe c523 da3b 5a3f 59be
000000a0: 4aeb dcbd 306c 703e c081 3cbe 3b5d 553d
000000b0: 2fe1 4dbe bdd0 143e 1bfd dabd 4c5c a8be
000000c0: e98d 56be a831 66be e00d 203c d0d9 87be
000000d0: ee71 97be cabc 0dbe bf03 9cbe a736 233e
000000e0: c6df 033e 9178 a73c 0bbf d1be d00d 6bbd
000000f0: a8d0 b93c 18f8 4dbe b1b1 7bbb b469 e33d
00000100: fc17 5ebd 20dd f9bd 4446 873d 502c 273c
00000110: 4a72 d23d ca62 94bd 52fa 90bd 2c2e a4bd
00000120: 2829 7d3d 48aa a3bc a0cb ba3b 90be 7abc
00000130: 5817 1c3d 281f a9bd 9879 823d a6e3 b4bd
00000140: fc0c 5dbd 7602 903d eccb d3bd 700d cebc
00000150: 081e dd3c 00dc d239 34ec 663d 603b 8a3d
00000160: 4824 ffbc f0f7 563d e0b4 523c 5881 eebd
00000170: 8c8f ebbd b0db 84bc 32e8 f73d 8ccf 04bd
00000180: 70ce 973c fe42 debd ba9b b03d 341f 8cbd
00000190: dc45 3c3d c464 203d 6ce0 efbd cc8a 313d
000001a0: ce57 91bd fc4a 933d c0b8 8f3c 00f2 1c3a
000001b0: 00a3 c63a 86dc edbd a0a3 f63c c4e5 043d
000001c0: ba2e c43d dea0 c3bd 043f 923d 10e9 14bd
000001d0: e657 aa3d 503b e23d a04a fc3c fc99 edbd
000001e0: 7043 03bd bcd4 77bd ac81 133d 6026 36bc
000001f0: 38ee 75bd 10c0 b2bd 946a 80bd f0b1 42bd
00000200: 666c dbbd 7e6f 66bd 4ae2 833d 8b2b 2dbc
00000210: 24f2 35be c073 27be d87f 8dbd 35af 82bd
00000220: 4d01 bfbd a4cd a2bd 7465 c3bc 1166 e53d
00000230: 6c5d bb3a 6c77 69bd eb11 943d 18a2 d6bd
00000240: a336 5fbd 039b 943d 2a58 83bd 3736 223d
00000250: 99ec 143d e6b2 46bd 1b10 4b3e 8f42 d83c
00000260: 4865 0ebe 6883 93bc 8835 b6bc 6cf7 43bd
00000270: f956 be3d 41ef a43c d3e4 eebd 5fa2 a53c
00000280: dd25 053c 722c ad3d 1ec2 3c3d defc a1bc
00000290: 8347 533e ff45 37be 93d2 103b 4a24 80b9
000002a0: 181a 0c3d 5fc1 e23d aa6f 343d d7b7 aabd
000002b0: bef3 61bd c856 cfbd 5a47 28bd 2e80 543d
000002c0: a2bb e9bd fef7 3cbe 01e6 2f3e f43c 993d
000002d0: ca78 25be f95c acbb 8d64 523e e383 14be
000002e0: 6029 10bd 3577 15bc 4cef 67bd 11c1 97bc
000002f0: d1bd d93d 2237 353c 67a1 9abd d32e 1a3d
00000300: 8d12 80be 625b 9a3d f0c3 9dbe d70b 9ebd
00000310: 9830 d8be da57 6bbe 19cf 95be 96ba 51be
00000320: e616 fa3d 10cc 3dbe 93b0 0abe a154 7cbe
00000330: 169d 053e c548 42bc 8aeb b4be 6029 babe
00000340: 4594 78be 62ca f93d f14a 683d 5f3a 713d
00000350: 41b7 133e e879 dcbe 05b4 5abd 571b 073e
00000360: 841f 2cbb 0eaa 39be 3d1c 68be 5335 0ebe
00000370: 040c 4d3e 80c9 04bd 0f46 adbe d204 47be
00000380: a29c ecbc d04d 96bd 96d0 1dbd 0440 5dbe
00000390: f58c d6be bea8 53be dd17 65be 1a25 22be
000003a0: 1e7e 4bbd f9a6 633e fa0c 23be 72cf 81bd
000003b0: df8d 67be cebe c93d ca6f b23c ce76 07be
000003c0: c87f 1fb9 fb4d 4bbe 0a5d c13c b51b 7bbe
000003d0: 5e5a b0be 89ea 0e3c 8638 c8be 05ba a13b
000003e0: 92ac 9cbc ae40 93bd 00c9 debe cdbd 95bc
000003f0: 57ce 9cbd f482 2abe fc3a 04bd d9eb b33d
-0.3067667 0.10539676 -0.31019658 -0.08552264 -0.20354143 -0.36501992 -0.29919428 -0.0443649
0.10094216 -0.16669151 -0.17407565 -0.32670507 0.08030739 0.11848572 -0.27830082 -0.35517797
-0.15464132 0.115402356 0.14696847 0.06684237 0.051810227 -0.48957443 -0.1842677 0.21010576
-0.0010657224 -0.072427504 -0.23122919 -0.1287656 0.09154492 0.013870921 -0.4250099 -0.24841575
-0.14738335 -0.052664176 -0.16209756 -0.031053625 -0.31515318 -0.27813065 0.006657096 -0.21215573
-0.10787065 0.2347877 -0.1840887 0.052090865 -0.20105432 0.14532752 -0.10692807 -0.32882917
-0.20952572 -0.2247988 0.009768933 -0.26533365 -0.2957911 -0.13841549 -0.30471608 0.15938817
0.12878332 0.020443233 -0.40966067 -0.05738622 0.022682503 -0.20114172 -0.0038405473 0.11104146
-0.054222092 -0.12200379 0.06605199 0.010203436 0.10275705 -0.07245405 -0.07078995 -0.08016619
0.061806828 -0.019978657 0.0057005435 -0.015304223 0.0381082 -0.08257896 0.063708484 -0.08832483
-0.05396746 0.070317194 -0.103416294 -0.025152892 0.02699186 0.00040218234 0.056377605 0.06749606
-0.03114523 0.052482545 0.012860507 -0.11645764 -0.11501989 -0.016218036 0.121048346 -0.032424495
0.018531054 -0.108526215 0.086234525 -0.06841889 0.04596506 0.039158598 -0.11712727 0.043345258
-0.070968255 0.071920365 0.01754415 0.00059869885 0.0015154779 -0.11614327 0.03010732 0.032445684
0.09579225 -0.09552167 0.071409255 -0.03635508 0.083175465 0.11046469 0.030797303 -0.11601636
-0.032046735 -0.060505614 0.036012337 -0.011117548 -0.060041636 -0.08728039 -0.06270328 -0.047532976
-0.10714035 -0.05625867 0.064396456 -0.0105694635 -0.1776815 -0.16352749 -0.0690915 -0.06381074
-0.0932642 -0.07949379 -0.023852088 0.11201108 0.001429481 -0.056998655 0.0722998 -0.10480136
-0.054495465 0.07256129 -0.064133 0.039602485 0.03635845 -0.048510455 0.19830362 0.026398925
-0.13905823 -0.018006995 -0.022242323 -0.04784338 0.092939325 0.020133616 -0.116647385 0.020219026
0.008126703 0.08455743 0.046083562 -0.019773897 0.20632748 -0.17897795 0.0022098168 -0.000244411
0.034204572 0.11072039 0.044051804 -0.08335846 -0.05516409 -0.10123974 -0.04108367 0.051880054
-0.11412741 -0.18453977 0.17177583 0.07482329 -0.16159359 -0.0052601066 0.2054617 -0.14503436
-0.03519571 -0.009122659 -0.056624696 -0.018524678 0.10631908 0.011060508 -0.07550316 0.03764231
-0.25014153 0.07536961 -0.3081355 -0.07717102 -0.42224574 -0.22982731 -0.29259565 -0.20481333
0.12211399 -0.18534875 -0.1354392 -0.24641658 0.13048205 -0.01185817 -0.35335952 -0.36359692
-0.2427531 0.121968046 0.056712095 0.058893558 0.14425375 -0.43061757 -0.053394336 0.13194023
-0.0026263902 -0.18131277 -0.22667022 -0.13887529 0.20024115 -0.032418728 -0.33842513 -0.19435433
-0.028883282 -0.0733906 -0.038529 -0.21606451 -0.41904417 -0.20669839 -0.22372384 -0.15834466
-0.04968082 0.22231664 -0.15922919 -0.06338395 -0.22612713 0.09850846 0.02178182 -0.13228914
-0.00015211024 -0.19853966 0.023603935 -0.24522288 -0.34443945 0.00872291 -0.39105624 0.0049355053
-0.019125257 -0.07190071 -0.43512726 -0.01827898 -0.07656544 -0.16651517 -0.032282814 0.08785219

bias_hh_l0 f4 [256]
00000000: 246d aabe 5294 ef3d 9eef 81be 539a 55be
00000010: 8643 95be bb64 4ebe f008 33be 7096 c1bd
00000020: 9f36 e5bc 6aa4 26be 9730 c4bd 57e6 84be
00000030: 3ed2 02bd d2d6 3d3e bc59 3dbe 5b0f cabe
00000040: adfc 28be 3b53 103c 4846 563c 39c1 c43d
00000050: 3618 16bd a225 c0be c5e8 d6bc 02ef 843e
00000060: aca1 23be 1313 95bd be78 69be c88d 83be
00000070: 073f 533e b107 afbc e815 fdbe 9d75 04be
00000080: 2127 21be f4f8 40bd 57a3 5abe 41b4 0cbd
00000090: 32c9 debe 9c14 acbe e9b0 4fbe da33 82be
000000a0: fc88 35be b9c5 b83d 41d5 13bd 747f f1bd
000000b0: 7c29 97be bdd5 f33d ed70 22be 14b3 25be
000000c0: 436f 5ebd 5742 afbe d39f 2cbd ebf0 7fbe
000000d0: bdf5 46be 38fd 0fbe f312 82be 6c2e 983d
000000e0: c611 853d 49b2 aebd 56f9 bcbe 4366 403e
000000f0: 8642 e93c ee07 09be ab69 17be 5834 423d
00000100: f408 6abd 803b b63b 905a 67bd 3c82 dbbd
00000110: f0ab db3c 64de fcbd e8b7 89bd feb1 bdbd
00000120: 60fd 33bd f649 b73d 6ee1 cbbd 5822 eb3d
00000130: 2c65 afbd ec43 b73d 2021 213d d82c abbc
00000140: e0df cc3b 6c4c 593d 3009 9c3c 8025 16bc
00000150: 384e 073d d009 f13c 94cf 033d 0cfa 533d
00000160: 3cf3 c93d fedf c7bd b805 ecbd d0e0 2ebc
00000170: 8cfd a8bd b0da c3bd ac96 763d 90e5 b5bd
00000180: 4024 c6bd 5400 e93d 1095 f53c c019 2d3d
00000190: 9683 c4bd 643f 583d 8070 5e3b cc44 a7bd
000001a0: aa61 f4bd e464 5e3d a075 ef3c 7462 3fbd
000001b0: 267d 90bd 32b2 f73d c49a 39bd f825 673d
000001c0: 5c58 0ebd d0df 8bbd c812 373d 60f5 013c
000001d0: 4ae4 933d 9a0f fdbd a80d 3ebd 98a2 e93d
000001e0: ee4c 9fbd 86d9 d3bd 4a9a 843d fcbe e8bd
000001f0: f0d9 dbbd 30f1 473d 7066 29bc 70cd 40bd
00000200: 9516 a1bd 9ab8 79bd 3738 023d 3459 15be
00000210: c829 81bd 1a1a 31be cbcc 383d 7126 cb3c
00000220: 6ad2 80bd ec3f 2ebd c63d 703d c479 313e
00000230: 0304 3f3e 2c5e 9b3d e00b 6d3e 1b3c 43be
00000240: 97e4 aebd e1ad 9cbd bf1f ebbc 4b71 a63c
00000250: c06f 39bd 1200 94ba 8341 533e 0f40 b3bd
00000260: 90c3 ff3c c5c0 fc3d 52b9 813c 7c18 b4bd
00000270: 53e5 3cbd 55ba 0e3e cf62 edbd 377b 743e
00000280: 42ca 363d 2149 b5bb e159 38be 8865 b4bc
00000290: 948a 323d 40b2 aebd 9dc2 18bd f603 0dbe
000002a0: 3e00 52bd 8f22 da3d 8187 c43d 0d89 993d
000002b0: 8a31 26be 42f8 4c3d adde ba3c 43b6 233e
000002c0: 3628 9fbc 8ea1 67bd 54e6 043e eb2b 813e
000002d0: 12d9 a3bd 074f 993c 9de9 9b3d b16e b6bd
000002e0: 2081 f9bd 93b5 ab3d 9e65 e8bd 171a f5bc
000002f0: 4aa3 63bd 1234 433c 3ff6 31bd a568 9f3c
00000300: b665 cdbe 7231 893d 6530 08be 554a cebc
00000310: bb60 3dbe 00d6 bdbe e796 20be 1a84 7abe
00000320: eebe f23d b1b8 05bd 494c ddbc dfb7 9dbe
00000330: da11 783b 3b3a c03c 2aa0 c3be 20ce 8ebe
00000340: aecf 44be 50ea 30bc b215 e9bc 3366 413d
00000350: 33fb ef3d 706c f6be 106e f0bd 0feb 753e
00000360: d6c3 64bc ba14 37bd 3138 42be 6115 82be
00000370: 8672 b93c 3f0f 2cbe a4cf 94be a49e 37be
00000380: 1932 b2bd fa7b 88bd 27dd 53be 719f e3bd
00000390: edf8 e8be f26c 02be 230f a9bc 6c0f 53be
000003a0: 8fe9 82bd 0f5e 713d 8e13 51be 6910 4cbd
000003b0: ba8f 29be 2a98 983d f840 46be d196 58be
000003c0: 664b 10bd d2fa 41be 4ae7 fdbc 2d45 8dbd
000003d0: dbec c5be 5971 2ebe 161f 8abe 7c0d 943d
000003e0: de24 123d 59f1 c23d ec98 b5be 7c57 013d
000003f0: 0ba2 bfbd dca6 1abe a930 24be 4e84 0e3d
-0.33286393 0.11698212 -0.25378126 -0.20859651 -0.2915308 -0.20155613 -0.17483878 -0.09452522
-0.027980147 -0.16273656 -0.0957958 -0.25956985 -0.031938784 0.18538979 -0.18491262 -0.3946484
-0.16502638 0.008808906 0.01307828 0.09607167 -0.036644183 -0.37528712 -0.02623404 0.25963598
-0.15979642 -0.07279029 -0.22799966 -0.25694108 0.20629512 -0.021365972 -0.49430776 -0.12935491
-0.15737583 -0.04711242 -0.21351372 -0.03435159 -0.43512875 -0.33609474 -0.2028233 -0.25430185
-0.17728037 0.090220876 -0.036092047 -0.11791888 -0.29523838 0.11906002 -0.1586339 -0.16181594
-0.054305326 -0.342303 -0.042144608 -0.24994247 -0.19429679 -0.14061439 -0.25405082 0.07430729
0.06497531 -0.08530099 -0.36908978 0.1878901 0.028474104 -0.13381931 -0.14786403 0.0474132
-0.057137445 0.005561292 -0.05648285 -0.107181996 0.026815385 -0.12347105 -0.067245305 -0.09262465
-0.04394281 0.08949654 -0.09955107 0.1148116 -0.08564219 0.08948502 0.03933823 -0.020895407
0.006252274 0.053051397 0.01904735 -0.009164214 0.03303358 0.029423624 0.032180384 0.051752135
0.098608464 -0.0975952 -0.11524528 -0.010673717 -0.08251485 -0.09563196 0.060202286 -0.08881676
-0.09674883 0.11377016 0.029978305 0.042260885 -0.095954105 0.05279483 0.0033941567 -0.08167419
-0.119326904 0.054295436 0.029230893 -0.04672475 -0.0705512 0.12094535 -0.04531361 0.056432694
-0.034752235 -0.06829798 0.044695646 0.007932037 0.07221277 -0.123564914 -0.046399742 0.114079654
-0.07778345 -0.10344224 0.06474741 -0.113645524 -0.10734928 0.048814 -0.010339364 -0.04707092
-0.07865635 -0.060967065 0.031791892 -0.1458481 -0.06306797 -0.17295113 0.04511718 0.024798604
-0.06290133 -0.04254143 0.05865266 0.17331606 0.18653874 0.07586321 0.23149061 -0.19065897
-0.08539694 -0.07650352 -0.028701661 0.020317694 -0.04527259 -0.0011291525 0.2063046 -0.087524526
0.031221181 0.12341455 0.015835438 -0.087937325 -0.046117138 0.13938268 -0.11591112 0.23875128
0.04462648 -0.0055323993 -0.18003036 -0.02202107 0.04358919 -0.08530092 -0.037294973 -0.13771042
-0.051269762 0.10651123 0.09596158 0.074968435 -0.16229835 0.050041445 0.022811258 0.15987496
-0.019428354 -0.056550555 0.12978488 0.2522882 -0.08000387 0.018714441 0.076129176 -0.089078315
-0.12182832 0.08384242 -0.11347507 -0.029919667 -0.055575646 0.01191427 -0.04344773 0.019459078
-0.40116662 0.06698884 -0.13299711 -0.025181929 -0.18493931 -0.37077332 -0.15682565 -0.24464455
0.11852823 -0.03264684 -0.027013915 -0.30804345 0.0037852437 0.023465266 -0.38208133 -0.27891636
-0.19219849 -0.010798052 -0.028452728 0.047216605 0.11717834 -0.48129606 -0.11739743 0.24015449
-0.013962707 -0.0446975 -0.18966748 -0.25406936 0.022637617 -0.16802691 -0.29064667 -0.1793161
-0.087009616 -0.06664272 -0.20689832 -0.111143954 -0.45502415 -0.12736872 -0.0206371 -0.20611352
-0.06392204 0.058927592 -0.20417616 -0.049820337 -0.16558734 0.07450898 -0.19360721 -0.21151282
-0.035228156 -0.18943337 -0.030994076 -0.0689796 -0.3865727 -0.17035426 -0.26976842 0.072291344
0.03567969 0.0951869 -0.35468233 0.031577572 -0.09357079 -0.15102714 -0.16034187 0.034794144

weight f4 [1, 64]
00000000: 1473 963d 705a 223e 0d2f d1bd d265 ac3d
00000010: 6db7 c63c 2a1f ca3d 3e86 053d 10a2 893d
00000020: 76e8 5f3e 7dc5 b13b 09df cf3c 6d80 02be
00000030: d0ce 78be 8ac7 553e c3d5 0cbe 6e67 de3d
00000040: de3b e83d 1014 74be 4dab 4ebe 13fe 783e
00000050: 14ec 373e a094 46bd a365 22be 7860 8dbe
00000060: 66ab f6bd 9d97 45be 4aef 53bc c055 20bd
00000070: 5510 65be c03d 0d3e 41ee a4bc 9cb1 3fbe
00000080: 3d04 133e d98f 173e a36c dabb 8af7 863c
00000090: ab99 84bd c01f 4c3e 9ca5 3ebd de41 163e
000000a0: 4f3e 17bd 26d1 8f3e 0c0e 9d3d de48 173e
000000b0: 3bfb 353d b727 293e cc0f e3bc a46e c4bd
000000c0: 2723 f93c 9151 ba3d b1fd 3fbe 9917 04be
000000d0: 32e8 2a3c 43f6 8b3d 59a4 a5bd 4ad4 81be
000000e0: 922e 80be b2e9 343e 126e 1a3d c03f 463e
000000f0: 8dcc 1fbe 4f9e 0cbe 6451 e13d a7dc 1ebe
0.07346168 0.15854812 -0.10214052 0.08417858 0.024257386 0.09869225 0.032598726 0.06720364
0.2186602 0.0054251538 0.025374906 -0.12744303 -0.24297643 0.208769 -0.13753419 0.108595714
0.11339544 -0.23835778 -0.20182534 0.24315672 0.1796115 -0.048481584 -0.15859084 -0.27612662
-0.120444104 -0.19296117 -0.012935469 -0.039144278 -0.22369511 0.13793087 -0.02013314 -0.18720096
0.14357086 0.14800967 -0.0066657825 0.016475458 -0.06474622 0.19933987 -0.046544656 0.14673564
-0.036924656 0.28089255 0.07668695 0.1477389 0.044429045 0.16519056 -0.027717493 -0.095914155
0.03041227 0.09097589 -0.1874912 -0.12899627 0.010431336 0.0683408 -0.080879875 -0.25357276
-0.2503553 0.17667273 0.037702627 0.19360256 -0.15605374 -0.13732265 0.11001852 -0.1551386
