PV_prediction/modelpth/model_11.pth (torch, 75295 bytes, 5 tensors)

weight_ih_l0 f4 [256, 4]
00000000: 2a03 f1bd 2223 e3bd 0e9b 4a3d 10a8 2bbd
00000010: 2f61 0c3e a5c3 173e ac55 103e d2fa 3a3e
00000020: e86a 963d cc1a 8e3e 5206 3c3e 0d50 313e
00000030: 3530 7d3e 4ee0 513e 4c64 aa3d fc1e 803e
00000040: 5885 4a3c 14d2 893e da3e 843d d2ca 3e3e
00000050: cf71 123d 8de3 15bd 635a 8e3d ebe9 0ebd
00000060: 09b9 533e 9a1a cf3d 9ae8 013e ea98 2e3e
00000070: 34f5 ee3d 3deb bb3c 5426 f73d 985f 683e
00000080: 38fd 723c beac 803d 6c0e 1fba 2123 7abd
00000090: 3fe6 753d 2e30 813e 5e08 383e b325 163e
000000a0: d7e7 063d 3166 ffbc ec26 493e f628 343d
000000b0: 67ec 6a3e a2f6 323e 5584 613d 7f81 b63d
000000c0: 027c 1e3d 34ba 21be abf4 ccbc 7312 0ebc
000000d0: 97f6 3b3e 4853 743e 2fe9 aa3d 2433 343e
000000e0: 5b66 b63d 5a09 463d 738a 803e d05a 173e
000000f0: ff45 c63c af3d 3d3c 80f8 4bbb 14a8 28be
00000100: 0974 f5bc e24a ac3d a4a6 f0bd 19c3 733e
00000110: d267 2e3e 2af0 663e bda9 ff3b 189c 713e
00000120: 5de8 903d 8429 5e3e 5cce ae3d e96a 0d3e
00000130: 47cd 373d 9ffb fc3c 1462 a8bc f729 a9bd
00000140: 960c b33d 0931 bb3d d9d2 0bbe 6de5 223d
00000150: f629 823e b550 053e c9c5 993d eec9 553d
00000160: 7992 7abc 34b4 1fbe 7586 083d 25cf 64bd
00000170: 2e1d 903e 2949 5c3d a35d ff3d 5248 583d
00000180: c234 dbbc 8f9f c3bd fcbb 3b3d c5cd 2fbe
00000190: 7b49 e2bb f6cb 5e3e 2c68 913e a09a 2b3e
000001a0: 39c6 2d3d 4a76 a23d a1a8 5e3e c9ec d9bb
000001b0: a882 ebbc 622e fbbd 4a13 b13d e521 c5bd
000001c0: 4dc0 f03b 0593 7e3b 8dc0 ef3d 2ba0 c43c
000001d0: 68af 633e 9e95 0a3d 0ed0 bc3d f9a8 3c3d
000001e0: b450 c23d 3268 ca3a c0a7 973e d341 693e
000001f0: 92ae 973d 3267 bfbd 60b0 ac3d 1ae0 05bd
00000200: 51a7 e53d 9b19 883d 2b52 463e ae62 253d
00000210: 4eb1 f93c 07ef d43d b007 1a3e 8c19 853d
00000220: 0c02 0c3e 78ce 4c3e 755b 073c f6e2 1c3d
00000230: e0d6 fabd 3621 2dbe 1309 283c 89d2 9abd
00000240: 03b1 b43d 1413 16be 5db1 4c3d 451c 823d
00000250: 839a be3c 5748 373e eeb5 133e 4d27 263d
00000260: f80f 90bd 0e1f 4c3c 7ed8 263c 0a66 20be
00000270: 0546 303e bdeb 733e 6bbf 8b3d ee52 093e
00000280: 32cb 633e 2f70 483e 79d7 203e c493 253e
00000290: 3f78 fa3d e8d5 f13d fdaa 16be df88 67ba
000002a0: 62d9 df3d d7aa df3d fe21 1dbe 9a85 18bc
000002b0: 7c5d 093c d0bc 6c3e d054 5c3e 4a7a 5dba
000002c0: 5544 023e 15d3 4b3e af54 823e 4dbb 3d3d
000002d0: 53d0 933e 39ee 9dbe f371 91bd 7620 a3be
000002e0: 23a6 533c d1f4 6c3e 3bd9 cabd ea99 493e
000002f0: 0807 363e 368a d53d 0335 f63d 8d32 843e
00000300: 36d7 033d 675b 753e 038a 1bbd 0797 9f3d
00000310: 2f8c 683e 4305 323d 78a9 c03d 7a22 d63d
00000320: c527 9e3d 4987 6d3e 8a4b 0c3d 8cda 4e3e
00000330: 8d9f a4bd 1935 6a3d 7c54 813c 47bc d2bd
00000340: 9cac 553e cb26 393e 9009 213e dccd 3c3e
00000350: 11af eb3d a5e3 203e 233a fcbc fa18 803d
00000360: 8c3f 8c3c d48a 7ebc 9e33 d53c 4a80 1a3c
00000370: 56f6 853e 2ab8 b53d 22b3 2a3e ef49 733e
00000380: a039 5c3e a56c f33d 55ef ea3c 1198 c23d
00000390: 684a 7d3e eccb 5abe e80f 3b3e c4d7 dbbd
000003a0: 0e42 593e 9746 b13d 496d f3bc cf62 b93c
000003b0: 5f26 9d3d 4f31 583e e7f8 103e beec 3c3e
000003c0: 6a2c 033e d1c0 25be fbd1 16bd 3e63 38be
000003d0: f652 163e 0e98 853d b553 3b3e cf48 703e
000003e0: 0e33 393e ad03 dd3d 9164 fe3d 4ae7 2d3e
000003f0: a27c 8d3d b996 843d 0715 3e3e 84a8 063e
-0.117681816 -0.110906854 0.049464278 -0.041908324 0.13708948 0.14820726 0.14095181 0.18259743
0.073446095 0.2775482 0.18361786 0.17315693 0.24725421 0.20495722 0.08319911 0.2502364
0.012360893 0.2691809 0.064573005 0.18632057 0.035753068 -0.036593962 0.06950834 -0.03489105
0.20676054 0.10112496 0.12686387 0.1705052 0.116678625 0.022939319 0.120678574 0.22692716
0.01483088 0.06282948 -0.00060675177 -0.061068658 0.060034033 0.2523207 0.17971942 0.14662819
0.032935943 -0.031176658 0.19643754 0.043984376 0.22941743 0.17476895 0.055057842 0.08911418
0.03869248 -0.15793687 -0.02501901 -0.008671391 0.18355785 0.23859894 0.083452575 0.17597634
0.089062415 0.048348762 0.25105628 0.14780736 0.024203299 0.011550351 -0.003112346 -0.16470367
-0.029962556 0.0841272 -0.11750534 0.23804893 0.17031792 0.22552553 0.007802217 0.23594701
0.0707557 0.21695524 0.08535454 0.13810314 0.044873502 0.030881701 -0.02055458 -0.08259957
0.08742635 0.09140212 -0.13654651 0.03976958 0.2542264 0.13019069 0.07508428 0.05219453
-0.015293711 -0.15596086 0.033331353 -0.05586161 0.28147262 0.05378071 0.12469032 0.052803345
-0.026758555 -0.09551918 0.045833573 -0.17168339 -0.006905732 0.21757492 0.2839979 0.16758204
0.042425368 0.07932718 0.21744014 -0.0066505414 -0.028748825 -0.12264706 0.08646257 -0.096256055
0.007347143 0.0038844955 0.11706648 0.024002155 0.22234881 0.033834092 0.09219371 0.046059582
0.09488049 0.001544243 0.2962017 0.22779016 0.074063435 -0.09345855 0.08432078 -0.032684423
0.11213554 0.06645509 0.19367282 0.04037731 0.030480053 0.10397153 0.15041995 0.06499013
0.13672656 0.20000637 0.008261551 0.038302384 -0.122480154 -0.169072 0.01025607 -0.07559688
0.08822825 -0.14655715 0.049973834 0.06353048 0.023267036 0.17898689 0.1442487 0.040564824
-0.07034296 0.012458576 0.010183452 -0.15663925 0.1721421 0.23820396 0.068236195 0.13410541
0.22245482 0.19574045 0.15707196 0.1616965 0.12229966 0.118083775 -0.14713664 -0.0008832346
0.10930134 0.10921257 -0.15344998 -0.009309197 0.008384105 0.23118901 0.21516728 -0.00084487034
0.12721379 0.1990474 0.25455233 0.046321202 0.28869876 -0.30845812 -0.07101812 -0.31860703
0.012918028 0.23140265 -0.09904715 0.1968762 0.1777612 0.10426752 0.1202183 0.25819817
0.032187663 0.23960648 -0.037973415 0.07792478 0.22709726 0.04346205 0.094073236 0.10455795
0.07722429 0.23196138 0.034251727 0.20200557 -0.080382444 0.057179544 0.015787356 -0.10289817
0.20866627 0.18081205 0.15726304 0.18437904 0.11508001 0.1571184 -0.03078944 0.06254764
0.017120145 -0.015536029 0.02602559 0.009430001 0.26164502 0.08873017 0.16669896 0.23758672
0.21506357 0.11885957 0.028678576 0.095016606 0.24735415 -0.21366853 0.18267787 -0.107345134
0.21216604 0.08656042 -0.029715197 0.022630123 0.07673334 0.2111256 0.14157449 0.18449685
0.12809911 -0.16186835 -0.036821347 -0.18006608 0.14680085 0.06523143 0.1829365 0.23465274
0.18085882 0.10791717 0.12421525 0.16982761 0.069085374 0.064740606 0.18562709 0.13150221

weight_hh_l0 f4 [256, 64]
00000000: a419 49bd e0c6 bf3c 701e b93d f04a b53c
00000010: c0ce 603c 0017 dabc b0a7 b8bc e877 be3d
00000020: c2fa c03d 00c1 a5ba a818 da3c aab8 93bd
00000030: b020 40bd d45e d83d 608f 77bc 0c49 703d
00000040: a0da bdbc c844 e03c f06a 20bc 903a 66bd
00000050: 5634 993d 2ec3 be3d e032 babc 801b 42bb
00000060: f62f e4bd 40ab e03b ace0 20bd 68b0 cebc
00000070: fa3f e93d 9a3a c8bd 008f fe3c 3841 aa3c
00000080: 6c45 cdbd 9874 c03c e036 9abd d823 a2bd
00000090: 2032 08bc c08c 88bd d402 413d 584f f0bc
000000a0: 180c 16bd d0d4 733c e452 913d f0f6 80bd
000000b0: 8655 edbd 8069 f7bc d075 503c 3cdb dc3d
000000c0: 5ccb 47bd 14ed 113d 04a8 fd3d f049 a9bd
000000d0: f80e febd 2869 b3bd 1c3d c13d e2b8 e8bd
000000e0: c430 d83d 6043 25bc 70b3 1ebc 142d 56bd
000000f0: 92f3 c5bd 90f3 5c3d 14ee d63d 68e0 e13d
00000100: aac2 fe3d ee9a 91bd a827 9cbd e049 b73c
00000110: d01d 25bd 5031 95bd c03e 27bc 6c3c 67bd
00000120: 3c48 bf3d 1485 5ebd 003b 903d 5296 aabd
00000130: 4cd8 a53d aa2b 9f3d 6ca4 3e3d 026b 8b3d
00000140: 8038 9bbb c034 c0bd 1860 21bd fcbb da3d
00000150: d8ae 6bbd 46ce debd 209a 483c a84e b3bc
00000160: e452 5cbd 1e47 e7bd 889a c63c def1 e23d
00000170: b093 773d 12ae dd3d 169e c6bd 9ec2 e4bd
00000180: b899 af3c 30ed e13c c8e6 c13c a4c8 c83d
00000190: e4fa 17bd b08f 6b3c f83c 7bbd 604b 65bd
000001a0: eaa2 873d 3086 0fbd a8f6 c0bc ec87 413d
000001b0: c0b2 b7bd 1080 433d ac4e 03bd 200e 2d3c
000001c0: e001 943d e8f0 703d 8086 3fbb be10 9a3d
000001d0: f036 a63c c4ac 743d 80a4 6bbd 4c9d a2bd
000001e0: f08e 97bc 9057 6ebc 003b a4ba 7868 63bd
000001f0: f280 b73d 181e b8bd a83a 30bd 8008 89bc
00000200: 98a7 df3c 8001 58bb 40e5 33bb 381a b2bd
00000210: 6074 62bd e044 5cbd 6066 713d b094 9d3d
00000220: f6e2 b6bd faa0 fbbd 746a ddbd 70ac e1bd
00000230: 503c e53d 1e5f f1bd b0d7 4e3c 5e0a bb3d
00000240: f86e c23c 5e01 d8bd 4cf4 aebd c8bc 803c
00000250: a278 c8bd 609c 9c3d ec99 6f3d 8afd b0bd
00000260: c0ad 0b3c 4c8b 703d 2cc5 3b3d d452 8a3d
00000270: 60b1 6fbc 887c d63d d0c8 f4bc 3abc b6bd
00000280: 70e6 7bbc 3008 a63d 686c 9bbd 003b 76bd
00000290: 2858 bbbd a048 7a3c 368d ca3d 2002 5ebc
000002a0: 507e 263c 80e3 833d 5a97 c7bd 1ca2 133d
000002b0: 963d e3bd fe69 df3d f0d8 a03d c836 2cbd
000002c0: 9645 c73d a2b9 ba3d 2090 fdbd b2f0 91bd
000002d0: f6d6 e7bd 1a1f 833d 5803 f63c 6233 c23d
000002e0: 6e04 fbbd d42a 75bd f0f7 45bd 38d0 cb3c
000002f0: 987b a03c 2e03 a2bd a43a 7e3d 68b3 8d3c
00000300: 886d 963d 8ade fa3d da64 d6bd 8c2e 4dbd
00000310: 2aee b7bd c054 fbbd 6468 8a3d 3014 2e3c
00000320: 2842 ebbc ca6b 8e3d a003 e5bd a06a 50bc
00000330: e859 27bd ec09 e13d 4802 8d3c 7895 b83d
00000340: 1478 85bd 30ba 94bd dcb7 7e3d 524e db3d
00000350: 96bc 9d3d 20a4 ff3b 62e4 e5bd d248 99bd
00000360: a8e4 f33d 0000 beb5 382f e93d 5032 eabc
00000370: c0f3 283b 40a3 d0bb be7a f53d 5c7d 7b3d
00000380: 709d 67bc 8078 42bd 3ef4 f13d f839 f93c
00000390: 1862 64bd 0af4 d2bd 7003 14bd 8ad1 efbd
000003a0: d8ef f03c 241c 21bd 7ef9 dfbd e840 cabd
000003b0: c42a eabd e4cc 813d 2492 91bd f084 b43d
000003c0: 987f 283d 1272 a73d 40d9 643c 80f7 e5bd
000003d0: 98b8 d13c 18b9 cf3d 80b7 e13b d42d 173d
000003e0: 2037 dcbb 60e5 61bd c0f0 16bc c0f2 f43c
000003f0: 6057 f2bd bc4a 963d c2be febd 6023 333d
-0.04909672 0.02341026 0.090390086 0.02213046 0.013721168 -0.026622295 -0.022540897 0.09300214
0.09422828 -0.001264602 0.026623085 -0.07212956 -0.046906173 0.10564962 -0.015109867 0.058663413
-0.023175538 0.027376547 -0.009791121 -0.056208193 0.074806854 0.09314571 -0.022729337 -0.0029618442
-0.1114196 0.006856352 -0.039276764 -0.025230601 0.11389156 -0.09776802 0.031074047 0.020783052
-0.10023007 0.023493096 -0.07529998 -0.07916993 -0.008312732 -0.06667471 0.047121838 -0.029334709
-0.036632627 0.014882281 0.07095888 -0.062970996 -0.11588578 -0.030201674 0.012723401 0.10784003
-0.048777923 0.035626486 0.12385562 -0.082660556 -0.12405199 -0.08760291 0.09435484 -0.113633886
0.10556176 -0.010086864 -0.009686336 -0.052289084 -0.09665598 0.053943217 0.104946285 0.1102913
0.12439473 -0.071096286 -0.07624751 0.022374094 -0.040311635 -0.07284796 -0.010207832 -0.056454107
0.093399495 -0.054326132 0.07042503 -0.083294526 0.08097896 0.07772 0.046543524 0.068075195
-0.00473696 -0.09385061 -0.039398283 0.106803864 -0.05753979 -0.10879187 0.0122437775 -0.021888092
-0.05378999 -0.112928614 0.024243608 0.11081289 0.06044358 0.10824217 -0.09698121 -0.11169933
0.021435603 0.02757892 0.023669615 0.09803894 -0.037104502 0.0143775195 -0.06133744 -0.055980086
0.0662287 -0.03504008 -0.023555115 0.047248766 -0.08969641 0.04772955 -0.03205745 0.01056245
0.0722692 0.058823496 -0.0029224455 0.075227246 0.020289868 0.059735075 -0.057529926 -0.07940158
-0.018500775 -0.014547244 -0.001252979 -0.05551955 0.08960141 -0.08990115 -0.04302469 -0.016727686
0.027301595 -0.0032959878 -0.0027449876 -0.08696407 -0.055286765 -0.05377662 0.058935523 0.076943755
-0.08930008 -0.12286563 -0.1081132 -0.11019218 0.11193144 -0.1178572 0.012624666 0.09132837
0.023734555 -0.10547136 -0.0854269 0.015715018 -0.09788634 0.07647014 0.0584964 -0.08642109
0.008525312 0.058726594 0.045842335 0.067540795 -0.014629692 0.10472971 -0.029880911 -0.0892262
-0.015374765 0.081070304 -0.07589036 -0.06011486 -0.09147674 0.015276104 0.09890215 -0.013550311
0.010161951 0.064398766 -0.09745665 0.03604327 -0.11095731 0.10908888 0.078538775 -0.04204443
0.09730069 0.09117438 -0.12381005 -0.07125987 -0.113202974 0.064024165 0.030030891 0.09482457
-0.12256704 -0.059855297 -0.048332155 0.02487956 0.019590184 -0.07910763 0.062067643 0.017297462
0.0734511 0.12249477 -0.10468455 -0.05009322 -0.08980973 -0.12272024 0.06758192 0.01062493
-0.02871807 0.06954153 -0.11182332 -0.012720734 -0.040857226 0.109882206 0.017213002 0.09012884
-0.06517044 -0.07262075 0.06218706 0.10708298 0.077019855 0.0078015476 -0.11225201 -0.074845925
0.11908847 -1.4156103e-06 0.113859594 -0.028588444 0.0025780052 -0.006367117 0.11986302 0.06139885
-0.014136657 -0.0474782 0.118141636 0.03042315 -0.055757612 -0.10300453 -0.03613609 -0.11709888
0.029411241 -0.039333478 -0.10936259 -0.09875661 -0.11433938 0.06337908 -0.07107952 0.08814418
0.041137308 0.08176054 0.013967812 -0.112288475 0.025600716 0.10142726 0.00688833 0.03690894
-0.0067204386 -0.05515039 -0.009212673 0.029900908 -0.11833072 0.07338473 -0.12438728 0.043734908

bias_ih_l0 f4 [256]
00000000: db35 06be 8d6b 413d 1c9b 793e 8b3e 763e
00000010: 3a71 193e 6f3a bdbd 7e50 2c3e 3374 c73d
00000020: 2e43 3b39 ded8 753e 59c5 1f3e aca8 963e
00000030: 952a 123e 2c8a e83d ec16 5d3e 4308 9c3d
00000040: 7890 963d d397 5abc e502 2e3e f4d3 a03d
00000050: 87fb c4bd 38f4 693e 8be7 43bc caeb 403e
00000060: 6bf6 183e 00b0 b63c abfb 0c3e 5448 a73d
00000070: 6c13 7c3d 9173 b63d c92d 3d3e 8938 923c
00000080: 681e 803d 3fce 013e ca7f 2fbd 23a8 f9bd
00000090: b427 603c 0e17 c63d af39 51bd 98f1 2e3e
000000a0: 2810 d23d f3c1 68bd 2ff4 9e3c a11d 493e
000000b0: 8157 7a3e 1ad4 863e c2b8 643d 3b3b 993d
000000c0: f83f 21bd 8378 4e3e aa53 463e 88ab 19bc
000000d0: 3324 793e 1643 b63d 5003 393d e2ba 863e
000000e0: 58f8 463e 0eab 963e 56bd 6e3e 6c2b 453e
000000f0: 6f20 293e e5fd 6c3e dd07 893e 61fd 9f3e
00000100: 9adb 8c3d 4046 263c e04e ad3b 8282 fa3d
00000110: e803 15bd c03d 9abd 80ac c2ba 0a65 c4bd
00000120: 2027 0dbc 66da 8b3d cc37 a0bd 047a 553d
00000130: d0ff 36bc 62c7 b1bd 98ee 903c fcb3 c63d
00000140: 22a1 d83d 9404 eebd 2268 c33d 58fc f73c
00000150: b429 d53d 508f 49bc 3ad1 8fbd 4a28 a7bd
00000160: 30df 33bc 300a dabd 4a56 afbd 78cf 553d
00000170: ba5b a7bd a8f8 bf3d 00f9 a73d f828 013d
00000180: b0b5 41bc 4cbb 4c3d b4fc c1bd 7cc5 91bd
00000190: ec4f 783d e843 b0bd 405c b6bc 94e5 1f3d
000001a0: d0c0 65bc 8409 41bd 08fe 8abc d2c2 b23d
000001b0: 3a18 9a3d 58a4 953d a03b 8fbb 00d1 b93d
000001c0: 3a28 b83d 3491 1cbd 58bc fc3d eeda 843d
000001d0: 08e9 adbd f212 aabd 0ca0 8c3d b8a1 3c3d
000001e0: 1c53 a93d 4828 f3bd 76fb de3d ce9f b53d
000001f0: 44ea 16bd e833 d93c 14c5 6c3d 800b 393c
00000200: b6df 9bbd 2655 b5bd deed 853d 1440 623d
00000210: 13cd d9bc 791c e83d 1c6c 733c feae a73d
00000220: eb9c 453d a3e8 6f3b b7a8 2bbd 6867 1ebb
00000230: ceb4 883d 08ee 2c3d 578b e4bd 4f83 75bd
00000240: 182d a3bd 917a 6f3d 0b77 87bd 3816 ddbd
00000250: 4110 893d 80ec 7bbd 98b4 9d3c c023 403d
00000260: 0c37 27bd 18f8 05bd ea75 b13d 94a0 a93b
00000270: 0004 e83d 957e 32bd 3fbc cb3d 6e11 c7ba
00000280: 811f be3d 3d50 373d 9d30 12bd c8fd fabd
00000290: 4352 4bbd 3420 e8bc 2461 bfbd 6e2d da3c
000002a0: 293d f3bc d53b f5bc 99f7 e43d 7cf1 d1ba
000002b0: c7eb 903c 1dfe 183e 8865 f5bd fa83 2abc
000002c0: b5be b7bd 44f4 3dbd 895a df3d b50a b73c
000002d0: d2a9 3c3c ca6c 8b3d 5b4b 5a3c 2a43 d3bd
000002e0: f6be 48bd 988a 2b3e 0e3b af3d 8d0f cfbc
000002f0: 890f 833d 0ad7 b53d 8dd8 993a 0067 09be
00000300: 68c8 00be c5e5 763d 3d19 853e 5354 4d3d
00000310: b6a2 893d 5760 7e3d 027d bf3d 6d67 413e
00000320: 88b8 c63a adff 1d3d 9157 843e 9320 8a3e
00000330: 9942 133e 07f0 7e3e 2047 833d 7dea 013e
00000340: 55e8 f13d a700 8b3c f69d 973d 149c 9cbd
00000350: 3fda d43d 13be f03d ca26 30be 59d2 383e
00000360: 2af6 493d a273 0f3e 5dc6 a73d d6a5 813d
00000370: 3677 95bd 1174 cc3d f09f 2b3d 44ef ca3c
00000380: adbd 2a3e 031e 923e e5e8 373d 46aa 12bc
00000390: 3e06 be3d ac55 fb3d e707 1d3d ea13 1e3e
000003a0: d79e b13d 7cd6 26bd 43b6 483c b581 623e
000003b0: d9b6 2f3e b140 393e 7f5b 5d3e 7efe 323d
000003c0: d7ea 5a3d 16a4 093e c05f d63d ca1b e5bd
000003d0: 2964 3c3e 3aa0 94bd cba2 eabc f10e 4b3e
000003e0: 4439 183d 56d8 683d ace4 873e 4b1a 2c3e
000003f0: 418e 693e 6f28 bd3d bb35 b63d d651 b43d
-0.13106482 0.04722171 0.24375576 0.24047296 0.14984599 -0.09239661 0.1682758 0.0973896
0.00017858736 0.2400851 0.15602626 0.2942556 0.14274056 0.11354479 0.21590775 0.07618763
0.07351774 -0.013341862 0.16993292 0.07852927 -0.096182875 0.22847068 -0.01195706 0.18839946
0.14937751 0.02230072 0.13767879 0.08168092 0.06154196 0.08908761 0.18474497 0.017849224
0.062557995 0.12676333 -0.04284648 -0.12190273 0.013681341 0.09672366 -0.051080402 0.17084348
0.10256988 -0.05682559 0.019403545 0.19640209 0.24447443 0.26333696 0.05584026 0.074820004
-0.039367646 0.20163159 0.19367853 -0.009379275 0.24330215 0.088995144 0.045169175 0.26314455
0.19430673 0.2942738 0.23314413 0.19254845 0.16516279 0.23143728 0.26763812 0.31248
0.06877823 0.010148585 0.0052889436 0.12231924 -0.03638068 -0.07531309 -0.0014852434 -0.09589584
-0.008615285 0.068287656 -0.078231424 0.052118316 -0.011169389 -0.086806074 0.017691895 0.09702298
0.10577609 -0.11621967 0.09541346 0.030271694 0.10408345 -0.012302235 -0.07022329 -0.081619814
-0.010978505 -0.10646474 -0.0856138 0.05219981 -0.08171792 0.09373599 0.0820179 0.03153321
-0.011823103 0.049983308 -0.094720274 -0.07117745 0.060623094 -0.08606702 -0.022260785 0.039037302
-0.014023021 -0.047128215 -0.016966835 0.08728565 0.07524152 0.07306737 -0.0043711215 0.09073067
0.089920476 -0.038224414 0.12340611 0.0648707 -0.08491713 -0.08304395 0.06866464 0.046052665
0.08267805 -0.118729174 0.10887806 0.08868371 -0.036844507 0.026514009 0.057805136 0.011294246
-0.07611029 -0.088541314 0.0653951 0.05523689 -0.026587045 0.11333556 0.014857318 0.08187674
0.04824535 0.0036607168 -0.041908946 -0.0024170522 0.06675111 0.04221919 -0.111593895 -0.05993968
-0.07967585 0.058466498 -0.066145025 -0.107952535 0.06692553 -0.06150484 0.019251153 0.046909094
-0.04082398 -0.032707304 0.086650684 0.005176613 0.11328888 -0.04357775 0.099480145 -0.001518769
0.09283353 0.044754256 -0.035690892 -0.12255436 -0.049638998 -0.028335668 -0.093447 0.02663299
-0.02969225 -0.029935757 0.11180038 -0.0016017403 0.017690552 0.14940687 -0.11982256 -0.010407442
-0.08971921 -0.046375528 0.1090594 0.022343973 0.011515098 0.06807859 0.01332363 -0.10315545
-0.04901024 0.16752088 0.08556186 -0.02527597 0.063994475 0.08878906 0.0011737511 -0.13418198
-0.12576449 0.06027772 0.25995818 0.050129246 0.06720488 0.062103596 0.09350015 0.1888711
0.0015161196 0.03857391 0.25848058 0.26977977 0.14380874 0.2489625 0.064100504 0.12687106
0.11811892 0.016968084 0.074031755 -0.07646957 0.1039319 0.11755004 -0.17202297 0.18048991
0.049307026 0.14008954 0.08192132 0.06330459 -0.07298128 0.099830754 0.041900575 0.024772294
0.16673918 0.28538522 0.04489984 -0.008951729 0.09278534 0.122722 0.038337614 0.15437284
0.086728744 -0.040731892 0.012250486 0.22119792 0.17159595 0.18091084 0.21616934 0.043699734
0.053446617 0.134415 0.104674816 -0.11186941 0.18397583 -0.07257123 -0.028642079 0.19829918
0.037163988 0.05684694 0.2654165 0.16806905 0.22808172 0.09236228 0.08896967 0.088046715

bias_hh_l0 f4 [256]
00000000: 7324 d23b d6de fa3d 62b2 523e a506 973e
00000010: 8333 913e 9b6d bebc 76af 813e bf51 c73d
00000020: 27a5 0bbc c5c4 7c3e ae85 023e 280c 8a3e
00000030: 277c 353d 12b5 363e c312 883e 2616 52bd
00000040: 12be 003e 8bff 0dbd 8fe4 f73d 9ab8 38bd
00000050: 2bf4 dbbd 9aef f53d 8d29 00be c2e9 613e
00000060: baa7 d83d 94ef 3a3e 7460 593e 5887 84bd
00000070: 8271 0e3e 84c5 8b3d f41e 143e 4a69 c03d
00000080: bbb8 403e 7f3b 583e 4a87 a73d 3497 973c
00000090: b63e 79bd 1fce 8f3d 1aef 843d fdd7 193d
000000a0: 21cb 153e 9869 fc3c 07f7 353e 41fc 143e
000000b0: 70c2 c53d 2c79 0f3e 08d9 8f3d a526 3d3d
000000c0: af7b 303b 9c21 d63d 9fd0 253d b12c 82bd
000000d0: 4f11 263e 6a0f b73d 7228 d1bd 3d43 913e
000000e0: 1b85 ca3d 7b77 d33d d247 7a3e 469e bd3d
000000f0: 43eb ddb9 3acc 063d 216e ba3d 4adc 943e
00000100: 0c42 b93d 70b0 bebc c44a 353d 1835 e7bd
00000110: d8ae aabc 106c bf3d 7481 10bd a834 cb3c
00000120: 9621 d2bd 20e7 dabc 7021 dbbd e6e0 ffbd
00000130: 404c 81bc dce6 6ebd c28b c83d 1e10 8fbd
00000140: 38d2 883d 0273 f23d c827 edbd ac52 9b3d
00000150: 6a78 9f3d d890 a0bc 04ad cb3d 24d5 e13d
00000160: c43f 2bbd 24a1 003d b848 993d 06c1 f6bd
00000170: 8c57 55bd b2ef d5bd eed8 bbbd 6cb9 bbbd
00000180: 2aff de3d 026d ac3d 68d5 dabc 382c df3d
00000190: 98f3 5b3d 56b0 b43d 4cec b2bd 465f 80bd
000001a0: f801 fa3d a2d1 a93d fe67 81bd a05e 83bb
000001b0: 5233 f43d e273 e73d 5a78 cdbd a0e4 d2bc
000001c0: 36c1 d6bd 4e6b 86bd 9069 94bd 48c4 a73d
000001d0: 38b8 d73c ea89 963d b69c cbbd 2c8c 713d
000001e0: 2a3a 943d 00b3 423b d040 603d 5614 ee3d
000001f0: ec59 b8bd 0054 8839 4ca8 e93d f87a 503d
00000200: 606e 09be c7a2 ad3d c2f8 42bd 237f 83bd
00000210: 029a 023d da05 25bd 798f 7e3d 1688 b3bd
00000220: 26c4 9cbc 40aa 4c3d a7c4 07bd 04cf 11be
00000230: aa4c cd3d fad6 a1bd c819 9c3d 2f9d 023a
00000240: e6cf 233d 6065 073e 01e4 aebd 035b c2bc
00000250: 4152 a0bd 0fda 133e d9c3 8bbc f651 74bd
00000260: 5d3d 39bd 6393 073d 86ad c53b 7d37 65bd
00000270: b4d9 0a3e 6897 943d 54f1 65bd e982 b9bc
00000280: de65 ba3d 118f d1bd bc92 f2bc a5a3 2dbc
00000290: d6c5 603c edd2 073d f0fc 25bd 8a9e a03d
000002a0: 0ed4 ad3d 5d52 a8bd e1d2 79bd b8d7 babb
000002b0: 45a1 3b3d 094e d03d 008e 1bbd de72 efbb
000002c0: bbed 97bb c284 f33d 5543 99bd b93f 47bd
000002d0: 0673 f33c 97c6 20bd 5653 773d 5c81 cfbd
000002e0: 6fa3 583d 9ca3 5cbd 1e55 5ebb 463b 88bd
000002f0: 4949 fa3d 8bb5 1dbd 6a10 03bd a433 633d
00000300: c57f 7a3d d212 5b3e 1767 f33d 12fe 723e
00000310: c697 923e 4e20 013c 76f0 853d 0e11 1b3e
00000320: 7950 c0bd 8de9 103e 8d71 5d3e e96c 523e
00000330: c576 953d 9a98 603e b95f 963e 98d4 bc3d
00000340: 66be c23c 0d1c 1bbd 5cde 1b3c c220 423d
00000350: f576 c6bd 7769 943e 06eb 6a3d bcc3 893e
00000360: 067c 803d 628c 363e 6ab3 7d3d 2e2f 4dbd
00000370: 9425 cc3d 4901 183d ca29 173e 1910 10bd
00000380: 076a 873e 6482 363e 4356 e63d ce06 eabd
00000390: 52ed d6bd aa22 523c 14ca d93d ba0d 503e
000003a0: e8e1 003e 7066 9e3d 2ec1 1c3e e9ef 2a3e
000003b0: cd8a 443e e0a3 993e 6868 873d 4d9b 2f3e
000003c0: 3da6 7a3d 5194 ab3d daf3 4a3d e683 963d
000003d0: 743f 7c3e 3091 ae3d a535 ccbd 9c90 d43d
000003e0: ac98 e03b b0cc 843e feb0 dc3d 26cb 643e
000003f0: 3619 363e 3a3d 613d e8ba 883e 374f 7b3e
0.0064130365 0.12249534 0.2057586 0.29497257 0.28359613 -0.023245623 0.2532918 0.09732389
-0.008523262 0.24684437 0.12746307 0.269624 0.044307854 0.1784251 0.26576814 -0.051290654
0.12572506 -0.034667533 0.12104141 -0.045097925 -0.10739931 0.12008591 -0.1251585 0.22061828
0.10578866 0.18255454 0.212282 -0.06471127 0.13910487 0.068247825 0.14464933 0.09395082
0.18820469 0.21116446 0.08180101 0.018504716 -0.06085082 0.07021736 0.064909175 0.037559498
0.14628269 0.03081207 0.17770015 0.14549352 0.09656227 0.14011067 0.07023817 0.046179432
0.002692919 0.10455629 0.04048216 -0.063561805 0.1621754 0.08938487 -0.102127925 0.2837161
0.09888669 0.103255235 0.2444146 0.09258704 -0.00042327688 0.03290961 0.09103037 0.29074317
0.090458006 -0.023277491 0.044260755 -0.11289424 -0.020835325 0.09346783 -0.035279706 0.024805382
-0.10260312 -0.026721537 -0.10699737 -0.12494068 -0.01578343 -0.058325633 0.09792282 -0.06985496
0.06680721 0.11838342 -0.11579853 0.07584128 0.07786639 -0.019600317 0.099451095 0.110269815
-0.04180886 0.031403676 0.07484573 -0.12048535 -0.052085444 -0.10446109 -0.091722354 -0.09166226
0.108885124 0.08419229 -0.026713088 0.10897106 0.053699106 0.08822696 -0.08736476 -0.06268172
0.12207407 0.082919374 -0.06318663 -0.004009083 0.11923851 0.113014 -0.10032721 -0.025743783
-0.10486071 -0.065634355 -0.07246697 0.081917346 0.02633296 0.07350524 -0.099419996 0.05897157
0.072376564 0.0029708743 0.05474931 0.116249725 -0.09001526 0.00026002526 0.11409053 0.050898522
-0.13421011 0.08478313 -0.047600515 -0.06420734 0.031885155 -0.040288784 0.062148545 -0.08766191
-0.0191365 0.04996705 -0.033146527 -0.14239126 0.10024388 -0.07902332 0.07622105 0.00049825286
0.03999319 0.13222265 -0.08539582 -0.023725038 -0.07828189 0.14438652 -0.01706116 -0.059648477
-0.045224536 0.033099543 0.0060326485 -0.05596112 0.1355961 0.07255441 -0.05613835 -0.02264543
0.09101461 -0.10232366 -0.029610984 -0.010598098 0.013719043 0.03316014 -0.040524423 0.07842739
0.08487712 -0.082188345 -0.060992125 -0.005701985 0.045808095 0.10171134 -0.03797722 -0.0073073944
-0.004636494 0.11890556 -0.07483546 -0.048644755 0.029717933 -0.03925189 0.06038221 -0.10132095
0.052890237 -0.053866968 -0.0033925246 -0.066519305 0.12221009 -0.03850321 -0.031998076 0.05546917
0.061157007 0.21393898 0.11884897 0.23729733 0.2863142 0.007881237 0.06540005 0.15143225
-0.09390349 0.14151593 0.21625347 0.20549358 0.07298044 0.21933213 0.29369906 0.092202365
0.02377243 -0.03786855 0.009513464 0.04739452 -0.09690658 0.28986713 0.057353042 0.26907146
0.062736556 0.1782699 0.06193868 -0.050093822 0.09968105 0.0371106 0.14762035 -0.035171602
0.2644808 0.17823178 0.11246922 -0.11427079 -0.10494484 0.012825647 0.106342465 0.20317736
0.12586176 0.07734382 0.15308067 0.16693081 0.19193573 0.3000784 0.06611711 0.17149086
0.061193693 0.083778985 0.04954896 0.073493764 0.2463358 0.08523786 -0.099711694 0.103791445
0.0068541374 0.25937414 0.10775946 0.2234312 0.17783055 0.05499003 0.26705098 0.24541937

weight f4 [1, 64]
00000000: f6d8 463d 3975 3c3e 2be5 5d3e 3367 fdbd
00000010: 0e6b 32be 349c 21bc 6085 3fbe 4046 22be
00000020: 372f f8bd 0b1e 16be c564 453e 7fdb 1e3e
00000030: ec5c 68bd f459 44be 6f99 053e b16e 713d
00000040: f0fe 22be 87e2 213e 4738 dcbd 5425 2abb
00000050: a3bf cc3d f18e 3ebe cbac 983c e825 7abe
00000060: e600 793d aaff 32be bb0c 40be e67f 27bd
00000070: 73e6 bcbd 957a 13be efd0 743e df5b 85bc
00000080: 4458 39be 53a9 1d3e aab7 14be 2abf c03c
00000090: b6ec f23c 1e06 4dbe 4ae0 003e dac9 033e
000000a0: e765 2ebe fc5c 5abd 3a66 223e 8629 5a3e
000000b0: c955 25be 09c6 4fbe 1b48 1bbe 0a09 0a3e
000000c0: 68fc e7bd e1f3 50be 0da4 993d 6503 953d
000000d0: a455 0fbe 7ee8 083e 6a6e 3b3b 4542 023e
000000e0: 328c 3d3e e2d0 21be 6ddd 923e 5ae1 2c3e
000000f0: 7404 66be 4505 00be 4b5c b23d fe01 2f3e
0.048546754 0.18404092 0.21669452 -0.12373199 -0.1742365 -0.009863902 -0.18703222 -0.15847111
-0.121183805 -0.14659898 0.19276722 0.15513419 -0.056729242 -0.1917494 0.13046812 0.058943454
-0.15917563 0.1580907 -0.107529216 -0.002596219 0.09997489 -0.18609215 0.018637082 -0.24428523
0.060791872 -0.1748034 -0.18754856 -0.040893458 -0.09223642 -0.1440223 0.23907827 -0.01627916
-0.18100077 0.15396623 -0.14523187 0.023528654 0.029653888 -0.20021865 0.1258556 0.12869969
-0.1703106 -0.053311333 0.15859309 0.21304902 -0.16146006 -0.20290388 -0.15164225 0.1348001
-0.113274395 -0.20405532 0.07501993 0.07276038 -0.13997513 0.13369939 0.0028599747 0.12720592
0.18510512 -0.15802339 0.2868456 0.1688284 -0.22462636 -0.1250201 0.0870901 0.17090604
