PV_prediction/modelpth/model_1A.pth (torch, 75295 bytes, 5 tensors)

weight_ih_l0 f4 [256, 4]
0.08939103 -0.111503385 -0.05964296 -0.04392554 -0.06384114 0.16435236 0.0076774973 0.14635469
0.050870683 -0.3822825 0.15589534 -0.23135838 -0.16062482 0.15010522 -0.062136956 -0.10376366
0.12131772 0.05271754 0.19206889 0.09119783 -0.040492423 -0.015040579 0.10314555 -0.046947252
0.09973486 0.12433923 0.03030599 0.012013023 0.24445337 -0.20656452 0.22588867 -0.11520454
0.21346574 -0.24637438 0.14204532 -0.12954977 0.06606291 0.13034604 0.046638317 0.16115566
0.01128639 -0.030543867 0.17972322 -0.099169835 0.09160672 0.23172124 0.3628035 -0.02057764
0.13991533 -0.024752762 0.08460893 -0.021690864 0.09510606 0.16540325 0.19144061 0.18810607
0.26267326 0.061462637 0.22778352 0.08415529 0.09467693 0.111912586 0.084736936 0.15495887
0.06429635 -0.18471439 0.081764236 -0.19124183 -0.045387935 0.10717692 0.051372137 -0.0030717216
0.23991466 0.24068229 0.29694518 0.026394924 0.031674918 0.14948666 0.15540013 -0.050838437
0.2799831 -0.24384099 -0.04748976 -0.14058685 -9.8700904e-05 0.19565329 0.037666827 0.018053936
-0.03831758 0.20044656 0.12528254 0.17560543 -0.017124819 0.10009079 0.16386761 0.010978182
0.23825122 0.18858907 0.0800147 -0.030636217 0.06902412 0.1021616 0.07816806 0.08749765
0.08922816 -0.12115601 0.1343883 -0.038009364 -0.034369282 0.02457967 0.11398937 -0.116710424
0.018702742 -0.055102542 0.121122055 0.046516687 0.06499063 -0.085702874 0.050036483 -0.23432247
0.25971857 0.10891786 0.10824775 0.13566878 -0.041377496 -0.02113197 -0.0014182723 0.031147778
0.10029988 0.15064222 -0.00097410707 -0.017547479 -0.066124976 -0.09160756 0.11581475 -0.18965541
0.0134975705 0.03626908 0.022724068 0.18628933 0.13283144 0.20511003 0.33447877 0.11949018
0.1978714 0.086541906 0.18488288 -0.048166346 0.15424637 0.23572353 0.08534791 0.09442967
0.16696028 -0.46613997 0.027511079 -0.28653848 0.18145974 0.13208322 0.20068921 -0.0834375
0.030927278 -0.18654598 0.26676276 -0.10190223 0.026351243 0.1941394 0.20946582 -0.03418156
0.035296045 0.034096453 0.25878888 0.034899153 0.007023374 -0.08000205 -0.20009083 -0.015171957
0.022809183 0.18558617 0.043773104 0.14501283 -0.025747774 0.16273756 0.101256706 0.117200434
-0.019822458 0.05631007 0.057718992 0.052648686 0.08828985 0.17523041 0.22714263 0.16923557
-0.03883403 -0.14713323 0.018678475 -0.10876966 0.18135023 -0.15037055 0.11345876 -0.20318669
0.121731594 0.19796677 0.18588893 0.15250237 0.15471667 0.23419851 0.1674686 0.08962128
0.061311048 -0.06177685 0.16227622 0.03148738 0.20989463 0.23630038 0.20490347 0.02559438
0.044103 -0.04404327 0.11831578 -0.028630607 0.09089274 0.0218849 0.21210468 -0.009751945
0.13321514 0.017479813 0.18986796 -0.0021347725 0.14573324 0.015290989 0.129817 0.16000667
0.1827602 -0.48469323 0.2082653 -0.273597 0.14450316 -0.03753028 0.022008749 -0.18880917
-0.028412856 -0.23137408 0.14900073 -0.18628241 0.12825365 0.15084267 -0.0033357774 0.011680987
0.113098435 0.18987848 0.35552475 0.03024942 -0.040369507 0.20305832 0.033798456 0.077304736
00000000: a512 b73d e35b e4bd 2d4c 74bd 44eb 33bd
00000010: 25bf 82bd fc4b 283e 8493 fb3b 01de 153e
00000020: c75d 503d 88ba c3be 07a3 1f3e 36e9 6cbe
00000030: d57a 24be 2fb5 193e 5283 7ebd 0b82 d4bd
00000040: 6d75 f83d 59ee 573d b5ad 443e eec5 ba3d
00000050: 62db 25bd c36c 76bc f93d d33d c34b 40bd
00000060: ca41 cc3d 91a5 fe3d 4444 f83c 45d2 443c
00000070: fc51 7a3e a685 53be 5c4f 673e 5cf0 ebbd
00000080: c396 5a3e 9149 7cbe 5474 113e b2a8 04be
00000090: fe4b 873d 6f79 053e d207 3f3d fd05 253e
000000a0: 8dea 383c 2237 fabc 5d09 383e 8e19 cbbd
000000b0: 4e9c bb3d 5548 6d3e 61c1 b93e 7092 a8bc
000000c0: f745 0f3e 4ec6 cabc 7247 ad3d 0ab1 b1bc
000000d0: f7c6 c23d 785f 293e 0209 443e e19e 403e
000000e0: 1c7d 863e 3fc0 7b3d 1540 693e 9c59 ac3d
000000f0: fae5 c13d 6d32 e53d 8f8a ad3d 8aad 1e3e
00000100: cead 833d c525 3dbe 0274 a73d e6d4 43be
00000110: b3e8 39bd 937f db3d 976b 523d f04e 49bb
00000120: 30ac 753e 6b75 763e 3309 983e 2b3a d83c
00000130: 8fbd 013d 0813 193e 3621 1f3e f73b 50bd
00000140: f259 8f3e 74b1 79be 9f84 42bd 00f6 0fbe
00000150: a5fd ceb8 5659 483e 8848 1a3d d9e5 933c
00000160: e5f2 1cbd dd41 4d3e 114a 003e e9d1 333e
00000170: 5949 8cbc 66fc cc3d e9cc 273e d5dd 333c
00000180: 21f8 733e 7e1d 413e bfde a33d cef8 fabc
00000190: 855c 8d3d 1a3a d13d 9316 a03d f831 b33d
000001a0: 41bd b63d a420 f8bd 169d 093e b5af 1bbd
000001b0: cec6 0cbd 4e5b c93c 4273 e93d e005 efbd
000001c0: 7e36 993c 34b3 61bd d70e f83d 4888 3e3d
000001d0: cf19 853d fd84 afbd 0ef3 4c3d 3bf2 6fbe
000001e0: d5f9 843e 5410 df3d ffb0 dd3d c2ec 0a3e
000001f0: 737b 29bd f41c adbc 52e5 b9ba a029 ff3c
00000200: 066a cd3d f441 1a3e 385b 7fba bbbf 8fbc
00000210: 886c 87bd bf9c bbbd 4930 ed3d 0735 42be
00000220: ea24 5d3c e38e 143d d327 ba3c a1c2 3e3e
00000230: f704 083e 5d08 523e cd40 ab3e 44b7 f43d
00000240: cd9e 4a3e e23c b13d f051 3d3e 134a 45bd
00000250: c3f2 1d3e 8261 713e e3ca ae3d 5864 c13d
00000260: a3f7 2a3e e6a9 eebe ea5e e13c 2cb5 92be
00000270: 95d0 393e d340 073e 7981 4d3e 48e1 aabd
00000280: 345b fd3c e905 3fbe 2195 883e 1eb2 d0bd
00000290: 90de d73c 7bcc 463e 357e 563e f701 0cbd
000002a0: 9692 103d b9a8 0b3d fa7f 843e 6af2 0e3d
000002b0: 5524 e63b 1dd8 a3bd 9ce4 4cbe cd93 78bc
000002c0: 53da ba3c 4d0a 3e3e 6d4b 333d 3e7e 143e
000002d0: ffec d2bc ada4 263e ad5f cf3d c806 f03d
000002e0: b562 a2bc 63a5 663d c06a 6c3d 26a6 573d
000002f0: 4fd1 b43d 9a6f 333e 1498 683e 174c 2d3e
00000300: 6f10 1fbd 18aa 16be 9a03 993c a1c2 debd
00000310: e0b3 393e bdfa 19be 115d e83d 2c10 50be
00000320: 6a4e f93d cdb7 4a3e ab59 3e3e 9529 1c3e
00000330: 0c6e 1e3e bcd1 6f3e e47c 2b3e 5d8b b73d
00000340: 4b21 7b3d b909 7dbd bd2b 263e e9f8 003d
00000350: 9eee 563e baf8 713e 37d2 513e 4eab d13c
00000360: 59a5 343d b766 34bd 8b4f f23d bc8a eabc
00000370: f925 ba3d f647 b33c f831 593e 9fc6 1fbc
00000380: 8d69 083e d331 8f3c bf6c 423e 8ae7 0bbb
00000390: 183b 153e 0e87 7a3c bfee 043e cad8 233e
000003a0: 7d25 3b3e b629 f8be 8043 553e e814 8cbe
000003b0: a3f8 133e 5ab9 19bd b14b b43c 3157 41be
000003c0: 14c2 e8bc 54ed 6cbe a693 183e d1c0 3ebe
000003d0: ed54 033e 8076 1a3e 0f9d 5abb 9c61 3f3c
000003e0: 27a0 e73d 816f 423e 5707 b63e a2cd f73c
000003f0: 7f5a 25bd 85ee 4f3e 4070 0a3d f251 9e3d

weight_hh_l0 f4 [256, 64]
0.03846468 -0.015672535 -0.009107947 -0.030462936 0.10693714 0.025672749 0.1244041 -0.052689284
0.02470988 0.12266673 0.095747724 -0.043725014 0.08465937 -0.06478448 0.1054676 0.00080890954
-0.025653929 -0.07691316 -0.050209045 -0.063256815 -0.123636514 0.063744575 -0.03842263 0.01092197
0.045551986 -0.11493829 -0.085191146 0.117458686 -0.017309979 0.11962788 0.016358495 0.048283905
-0.01412563 -0.02978605 -0.037752658 0.05553715 -0.046115264 0.041083425 -0.098778725 0.11963597
0.050337225 -0.038682237 -0.024717957 0.07958259 0.09443954 -0.072541356 -0.03760186 -0.01587157
0.03037569 -0.0026518255 0.030873522 0.013153285 0.03581859 0.08621308 0.0041649044 0.03513281
0.0991229 -0.047454566 -0.012662515 0.0991202 -0.054456443 0.12050694 0.07630618 0.115294114
-0.027303517 0.084134474 0.07803163 -0.007717401 -0.122746125 0.035630092 -0.025239184 -0.09458202
0.088028625 -0.11349161 -0.07385209 0.019671336 0.11353232 0.10201399 -0.0667917 0.036294267
-0.026776835 0.06335302 -0.11320877 -0.06452279 -0.04716079 -0.10165088 0.08709833 -0.037170798
-0.0102216005 -0.053219557 0.055985317 0.021768168 0.011582673 -0.025476888 -0.06077154 -0.027339503
0.027041018 0.06569977 0.10293642 0.10081659 -0.12189764 0.0003067255 -0.079735264 -0.0041822046
-0.03683819 0.032902062 -0.07767163 -0.08194098 -0.048535705 0.013210699 -0.04100363 -0.09007849
-0.0944221 -0.06968245 0.08161998 -0.10330233 0.08493553 0.088915974 0.051534146 0.029747352
-0.08601996 0.065851405 0.0047907084 -0.058313936 -0.09671798 -0.023322806 -0.011505216 -0.06696923
0.11160162 -0.08869994 -0.034424156 -0.018757537 -0.10037802 -0.0131774545 0.06053941 -0.105620325
0.11591631 0.014319703 0.075268194 -0.023653299 -0.0020160377 0.029528826 0.10031447 -0.10229403
0.094051555 0.08033031 0.11234349 0.12415612 0.055399135 0.10769576 0.08717775 -0.0134186
-0.045755044 -0.022383928 -0.017837152 -0.11299366 0.112883925 0.03207594 0.04621938 0.020354345
-0.043805897 -0.09653911 -0.11783238 -0.07342136 0.0015893579 -0.09419757 0.10610543 0.089863375
-0.09260346 0.046935067 -0.106235 -0.006204322 -0.0643668 0.074686065 0.04100105 0.12102875
-0.016509667 -0.10196702 -0.043265834 -0.055693045 -0.09477766 0.07527542 0.045749918 -0.009365872
-0.08084333 0.03913282 -0.05259618 -0.05054605 -0.020367011 0.121635884 0.08950102 -0.09848881
-0.077927634 0.07862832 -0.09757279 0.050174266 0.09205747 -0.029292628 0.00016655028 -0.07459636
-0.10191293 -0.051142022 -0.043809637 -0.07488178 0.012881443 0.10453229 -0.09972115 0.083560824
-0.076937094 0.100970924 -0.009612232 0.07105811 -0.0737907 -0.053133562 -0.03933692 -0.07066044
0.1201514 0.09548715 -0.11358978 -0.0011631697 -0.053765416 0.029441863 -0.055100128 -0.111460626
-0.054368228 0.0990731 -0.08904484 -0.022669196 0.012428939 -0.07633492 0.029112756 -0.07548857
0.09469831 0.094809756 0.10351327 0.08381398 0.004611537 -0.086094156 0.02446489 0.08328457
-0.074240625 -0.009341329 0.041717544 -0.09030862 0.1027766 0.008357897 0.06580818 0.06604084
0.041609526 0.013698667 0.11722647 0.024111629 -0.105422795 0.109374195 -0.052650467 -0.10296188
00000000: 248d 1d3d b063 80bc 8039 15bc 688d f9bc
00000010: dc01 db3d a84f d23c 94c7 fe3d b8d0 57bd
00000020: 606c ca3c b238 fb3d 6217 c43d 0019 33bd
00000030: e461 ad3d baad 84bd 66ff d73d 000d 543a
00000040: 3028 d2bc a684 9dbd 00a8 4dbd ca8c 81bd
00000050: 2435 fdbd 848c 823d 0c61 1dbd 10f2 323c
00000060: b894 3a3d c464 ebbd b278 aebd 2e8e f03d
00000070: a8cd 8dbc 76ff f43d 4002 863c 58c5 453d
00000080: 306f 67bc e001 f4bc 88a2 1abd ec7a 633d
00000090: 5ce3 3cbd 1847 283d 804c cabd b403 f53d
000000a0: 682e 4e3d 4471 1ebd 507d cabc 32fc a23d
000000b0: 8469 c13d 9090 94bd 6804 1abd 1805 82bc
000000c0: 70d6 f83c 40ca 2dbb 78ea fc3c e080 573c
000000d0: 84b6 123d 7c90 b03d c079 883b 6ce7 0f3d
000000e0: f200 cb3d b85f 42bd 7076 4fbc 88ff ca3d
000000f0: b80d 5fbd 58cc f63d 6a46 9c3d 521f ec3d
00000100: a0ab dfbc b24e ac3d 0ccf 9f3d 40e2 fcbb
00000110: 5262 fbbd dcf0 113d 68c2 cebc 38b4 c1bd
00000120: 5a48 b43d 4a6e e8bd c43f 97bd c825 a13c
00000130: a283 e83d b6ec d03d 16ca 88bd 4ca9 143d
00000140: 185b dbbc 3abf 813d 00da e7bd 8624 84bd
00000150: ac2b 41bd 562e d0bd 9c60 b23d 6840 18bd
00000160: 8078 27bc c0fc 59bd dc50 653d 2853 b23c
00000170: 40c5 3d3c e8b4 d0bc 94eb 78bd 18f7 dfbc
00000180: 2085 dd3c 9a8d 863d 54d0 d23d ee78 ce3d
00000190: 78a5 f9bd 00d0 a039 3e4c a3bd e00a 89bb
000001a0: a4e3 16bd 50c4 063d 4e12 9fbd acd0 a7bd
000001b0: 60cd 46bd b071 583c 6cf3 27bd 127b b8bd
000001c0: 6060 c1bd acb5 8ebd 6028 a73d 2c90 d3bd
000001d0: aef2 ad3d 9419 b63d 7815 533d b8b0 f33c
000001e0: 3c2b b0bd 1add 863d 60fb 9c3b 98da 6ebd
000001f0: 1414 c6bd 780f bfbc 6080 3cbc 2a27 89bd
00000200: 648f e43d 50a8 b5bd 5800 0dbd 68a9 99bc
00000210: fe92 cdbd 40e6 57bc 2cf8 773d 784f d8bd
00000220: 8865 ed3d 309d 6a3c 3626 9a3d 90c4 c1bc
00000230: 801f 04bb 70e6 f13c ac71 cd3d 887f d1bd
00000240: 1a9e c03d 3884 a43d 5814 e63d 9045 fe3d
00000250: 34ea 623d 988f dc3d 408a b23d b0d9 5bbc
00000260: a469 3bbd 805e b7bc 381f 92bc 3869 e7bd
00000270: b02f e73d 1062 033d 8850 3d3d 28be a63c
00000280: d06d 33bd 4cb6 c5bd 1a52 f1bd f05d 96bd
00000290: 0052 d03a a8ea c0bd ce4d d93d 4a0a b83d
000002a0: e2a6 bdbd fc3e 403d bc91 d9bd a04d cbbb
000002b0: bed2 83bd 02f5 983d b8f0 273d ecdd f73d
000002c0: 483f 87bc 16d4 d0bd 8437 31bd 641e 64bd
000002d0: ca1a c2bd 002a 9a3d 4464 3b3d 5073 19bc
000002e0: 3091 a5bd bc49 203d 186f 57bd 6009 4fbd
000002f0: b8d8 a6bc 3c1c f93d 504c b73d 80b4 c9bd
00000300: 8698 9fbd e207 a13d 3ed4 c7bd 8883 4d3d
00000310: a088 bc3d 18f7 efbc 00a4 2e39 fac5 98bd
00000320: bab7 d0bd 4c7a 51bd bc71 33bd 9e5b 99bd
00000330: b00c 533c 0615 d63d 9a3a ccbd f021 ab3d
00000340: 3291 9dbd d8c9 ce3d a07c 1dbc ea86 913d
00000350: 941f 97bd 94a2 59bd c01f 21bd 6cb6 90bd
00000360: f011 f63d c48e c33d c2a1 e8bd 8075 98ba
00000370: 2039 5cbd 1030 f13c acb0 61bd 7845 e4bd
00000380: 38b1 5ebd d6e6 ca3d 245d b6bd c0b4 b9bc
00000390: c0a2 4b3c 7c55 9cbd e07d ee3c c099 9abd
000003a0: 30f1 c13d 9e2b c23d c4fe d33d aaa6 ab3d
000003b0: 601c 973b 2252 b0bd 986a c83c 1a91 aa3d
000003c0: 780b 98bd 600c 19bc 04e0 2a3d baf3 b8bd
000003d0: 8a7c d23d 90ef 083c 70c6 863d 6c40 873d
000003e0: c06e 2a3d 6070 603c 6e14 f03d c085 c53c
000003f0: e8e7 d7bd 94ff df3d 04a8 57bd aedd d2bd

bias_ih_l0 f4 [256]
-0.06636869 0.03464956 0.08948863 -0.055049185 0.0579716 0.22785456 0.2107396 0.12737207
0.2134483 0.12956157 0.16366358 0.11253623 0.29709992 0.2874849 0.23174876 -0.038952246
-0.11129794 0.20314322 0.25946116 0.15874559 0.09655373 0.12941794 0.20792201 0.01013763
0.21634556 0.009181052 0.30799016 0.102706596 0.0008641089 0.26178813 0.17433123 -0.13271837
0.019201351 0.10953845 -0.013272452 0.14149836 0.2231859 0.21952662 0.060157187 0.29163417
0.06964179 0.20149975 0.10974193 0.046248578 -0.012972945 0.011568143 0.07990467 0.24862641
0.12060256 0.11943896 0.17707202 0.22191866 0.101504326 0.12038853 -0.022669874 0.03574428
0.09835102 -0.0006266779 0.21149835 0.15058649 0.06259298 0.106256545 0.2230967 0.041253414
-0.06010236 -0.12155023 -0.07601896 -0.11906442 -0.011041313 -0.060260236 0.117813155 0.0032374263
-0.057042092 -0.061516553 -0.09214711 0.035758972 -0.12360443 0.12261027 -0.0643186 0.043138817
0.08624096 0.052978307 -0.021580294 0.10657711 -0.019256234 -0.012161389 0.027026922 0.08400233
-0.06265226 0.013332173 0.08169542 -0.043474734 -0.11284731 0.012947395 -0.108977735 0.09164402
-0.0903119 -0.092547566 -0.017053768 -0.048725694 0.028789237 0.11867201 -0.010919765 -0.086426705
-0.114486516 0.10814558 -0.07772116 -0.10303263 0.07358977 -0.07822594 0.0011067688 -0.017484754
0.07234867 0.010513142 -0.073343486 -0.07803734 0.10675575 0.07904369 -0.026512027 -0.0016615838
-0.024881989 -0.008403271 0.011709362 -0.04109159 0.052152067 0.087226614 0.027790308 0.010146722
-0.14440922 0.09184766 0.09428238 -0.11390016 0.030320691 -0.07455703 -0.031723727 0.12081139
0.13684121 0.03412697 -0.012440244 -0.009701231 -0.009609558 -0.12245884 -0.08682297 -0.107758395
-0.051136024 -0.04377442 -0.040578295 0.0041377074 0.19796184 0.11077516 0.057207696 0.081194505
-0.07444308 0.020028546 0.02835119 -0.1258688 -0.1113999 0.08977739 -0.019385086 0.11906195
0.12152786 -0.05094994 -0.07497362 0.11084681 -0.067910574 0.010524905 -0.20878965 0.05426991
-0.032747705 -0.08991081 -0.003703045 0.13846134 -0.07056769 -0.12567447 -0.13852932 -0.1457051
0.05291305 -0.001191854 -0.036880814 -0.070590034 -0.03358722 0.049920347 0.13935095 -0.004070803
-0.04165175 -0.05312642 0.11247198 0.08358026 0.041187726 0.049389564 0.11012135 0.09748199
-0.0765406 0.06155775 0.20557968 0.0619205 0.10050539 0.026457805 0.24465589 0.08541078
0.17546946 0.16881904 0.10507405 0.2216155 0.24536538 0.18829104 0.2313755 0.12012573
-0.05747547 0.1776624 0.1346234 0.06657681 0.2912219 0.09655458 0.16198964 0.043089423
0.2299562 0.1382698 0.16190284 0.11209033 0.07915872 0.15219678 0.23568568 0.021889325
0.052296318 -0.013493509 0.03425956 0.08363987 0.050447788 0.20236754 0.122105315 0.2733978
0.1654962 0.24360599 0.10061993 -0.09583619 0.18417636 0.07256633 -0.14155346 0.24570823
0.06462656 0.22381584 0.18354097 0.24672471 0.046813417 0.16801555 0.016449725 0.062297884
0.16523914 0.041570798 0.26491082 0.12900361 -0.016998142 0.10144862 0.05913748 0.05231711
00000000: 4fec 87bd b2ec 0d3d d145 b73d 417b 61bd
00000010: a173 6d3d b552 693e 1fcc 573e d36d 023e
00000020: 3192 5a3e caab 043e 6d97 273e 6579 e63d
00000030: 7b1d 983e 3931 933e 8c4f 6d3e 648c 1fbd
00000040: 2df0 e3bd c704 503e 18d8 843e 348e 223e
00000050: f6bd c53d 2386 043e 82e9 543e 4d18 263c
00000060: b189 5d3e 206c 163c e3b0 9d3e d657 d23d
00000070: 5e85 623a 1809 863e e383 323e 53e7 07be
00000080: 274c 9d3c b255 e03d b374 59bc f2e4 103e
00000090: d88a 643e 96cb 603e 6267 763d 1351 953e
000000a0: 5ba0 8e3d f355 4e3e 61c0 e03d 266f 3d3d
000000b0: 7a8c 54bc 4f88 3d3c 0fa5 a33d ec97 7e3e
000000c0: 7afe f63d 6a9c f43d 5e52 353e a53e 633e
000000d0: 80e1 cf3d 438e f63d 2cb6 b9bc 9868 123d
000000e0: 426c c93d a447 24ba 0693 583e 5833 1a3e
000000f0: c030 803d 089d d93d 7673 643e 57f9 283d
00000100: e42d 76bd 54ef f8bd d4af 9bbd 0cd8 f3bd
00000110: a0e6 34bc 70d3 76bd 0648 f13d 002b 543b
00000120: f8a4 69bd c8f8 7bbd a0b7 bcbd 0078 123d
00000130: 5224 fdbd 181b fb3d 78b9 83bd 54b2 303d
00000140: 1a9f b03d c8ff 583d 28c9 b0bc 1a45 da3d
00000150: 40bf 9dbc 9040 47bc 9067 dd3c 6a09 ac3d
00000160: d44f 80bd 306f 5a3c ee4f a73d 9012 32bd
00000170: 7e1c e7bd 5021 543c b82f dfbd dcaf bb3d
00000180: 72f5 b8bd 9489 bdbd 58b4 8bbc 9894 47bd
00000190: 68d7 eb3c 500a f33d d0e8 32bc 7c00 b1bd
000001a0: e877 eabd 6e7b dd3d 462c 9fbd c602 d3bd
000001b0: 3cb6 963d ec34 a0bd 0011 913a 303c 8fbc
000001c0: 8a2b 943d 503f 2c3c 1c35 96bd 0ad2 9fbd
000001d0: c2a2 da3d a8e1 a13d c02f d9bc 80c9 d9ba
000001e0: 50d5 cbbc e0ad 09bc a0d8 3f3c a84f 28bd
000001f0: 689d 553d dea3 b23d 80a8 e33c 703e 263c
00000200: 03e0 13be a01a bc3d 1f17 c13d 7d44 e9bd
00000210: 1963 f83c 5bb1 98bd bdf0 01bd f66b f73d
00000220: 1a20 0c3e b9c8 0b3d 2ad2 4bbc e9f1 1ebc
00000230: 6871 1dbc b3cb fabd 3ed0 b1bd 6fb0 dcbd
00000240: 0274 51bd ce4c 33bd 6d35 26bd 9b95 873b
00000250: 82b6 4a3e 16de e23d 9e52 6a3d 4e49 a63d
00000260: 9d75 98bd e812 a43c c140 e83c c0e3 00be
00000270: a125 e4bd 35dd b73d 79cd 9ebc c0d6 f33d
00000280: 99e3 f83d e2b0 50bd c58b 99bd a703 e33d
00000290: b314 8bbd a770 2c3c f4cc 55be 204a 5e3d
000002a0: 7522 06bd 2923 b8bd c9ae 72bb cfc8 0d3e
000002b0: cb85 90bd cfb0 00be a1da 0dbe b833 15be
000002c0: 5bbb 583d fc37 9cba 5610 17bd 8291 90bd
000002d0: c192 09bd 4779 4c3d 04b2 0e3e 5f64 85bb
000002e0: 079b 2abd 179b 59bd b657 e63d 212c ab3d
000002f0: 76b4 283d b64c 4a3d 4d87 e13d a3a4 c73d
00000300: 51c1 9cbd fb23 7c3d 7b83 523e 5aa0 7d3d
00000310: c5d5 cd3d 0abe d83c 1387 7a3e d9eb ae3d
00000320: 44ae 333e e6de 2c3e 1031 d73d 2cef 623e
00000330: 1041 7b3e 5ecf 403e b3ed 6c3e 7b04 f63d
00000340: 666b 6bbd 22ed 353e b7da 093e 6c59 883d
00000350: 091b 953e 68be c53d 9de0 253e 897e 303d
00000360: a379 6b3e 9996 0d3e dcc9 253e 9d8f e53d
00000370: f81d a23d 79d9 1b3e 9657 713e 3e51 b33c
00000380: aa34 563d e113 5dbc c153 0c3d 614b ab3d
00000390: 57a2 4e3d 7039 4f3e 5a12 fa3d ccfa 8b3e
000003a0: d677 293e d973 793e d211 ce3d c445 c4bd
000003b0: ba98 3c3e a89d 943d 64f3 10be f09a 7b3e
000003c0: ee5a 843d fb2f 653e 2af2 3b3e 67a5 7c3e
000003d0: 6dbf 3f3d 450c 2c3e 93c1 863c 112c 7f3d
000003e0: 7334 293e 2446 2a3d 64a2 873e 8619 043e
000003f0: b03f 8bbc 4bc4 cf3d 243a 723d 774a 563d

bias_hh_l0 f4 [256]
0.107154585 0.02006049 0.16749907 -0.042173516 0.049094923 0.14978404 0.06690794 0.19352087
0.10053897 0.1925671 0.2315474 0.06048341 0.18427745 0.12247196 0.13125722 0.17600788
0.071156494 0.21423559 0.24333256 0.08332462 0.16467024 0.19170557 0.10787544 0.15782066
0.28021422 0.09497226 0.3201517 0.034583528 0.07730165 0.10325346 0.24685901 -0.17577659
-0.10554141 -0.10525089 -0.08897277 0.26802555 0.009329292 0.1681077 0.040625513 0.15796185
0.13505259 0.22077158 0.22158681 -0.10262649 0.040466927 0.059557725 -0.006748899 0.16747475
0.008095351 0.10917256 0.0693819 0.066469476 0.051010396 0.1744615 0.115928195 0.23873651
0.10603018 0.055414706 0.16877466 0.1573136 0.12598589 0.016262298 0.09029211 0.10738131
-0.09879412 0.004737973 0.016518533 -0.031184942 0.05679165 0.09066497 -0.02682735 -0.0512781
0.047546193 0.08071034 0.047890633 0.042260185 -0.057657793 -0.04811725 -0.032558694 0.08861767
-0.05429575 -0.084366664 0.017280161 -0.078566626 0.09759748 -0.005034268 -0.034191698 -0.09810701
-0.026729062 -0.061246246 0.11851819 0.08370373 0.06333804 0.09574312 0.10959014 -0.009384558
-0.007915974 -0.10140157 0.050915673 -0.10535607 -0.06765492 -0.03274612 -0.11392519 -0.080231056
0.04908687 0.046487033 -0.061599657 -0.100446716 -0.019959465 0.10311337 -0.07260901 0.07279977
-0.065085635 0.009572342 -0.115305156 -0.10608284 0.030292138 0.02637744 0.025759637 0.06325407
-0.09866372 -0.045937136 -0.07562159 -0.067854375 -0.045226723 0.09899239 -0.119498014 0.059432283
-0.115497336 -0.11900951 0.08774176 0.093772 -0.058983352 0.096621715 -0.019182626 0.14433625
0.07261799 0.082251586 -0.066812076 0.058818575 0.028210599 0.079431824 0.057236023 0.03180841
0.021378808 0.06522104 0.09702611 0.12815619 0.060027238 0.028610796 -0.093948744 0.064254284
0.052179452 0.0021745542 -0.045356985 -0.07654242 -0.10490463 0.05636222 -0.023400867 0.10358155
0.02601227 -0.11393365 -0.12043256 -0.10151405 -0.02152525 -0.1177899 -0.09346707 0.055369228
0.09196467 0.07702017 0.056188386 -0.034150034 -0.016524512 -0.007354075 0.027106674 0.103468716
-0.1494941 0.13874409 0.084863 -0.059414737 0.06298636 -0.13635373 0.12291872 0.094278276
0.065044634 -0.06547221 0.13857247 0.10158825 0.08851605 0.038803987 -0.10563988 0.002119294
-0.063271224 0.058270086 0.2385299 0.0031516426 -0.03329532 0.134855 0.008746862 0.12970196
0.2688018 0.053693302 0.2498721 0.13632996 0.19438142 0.22348458 0.3306564 0.12375507
0.12600608 0.2599266 0.1978776 0.11562 0.07981532 0.20031367 0.018329462 -0.023697767
0.34170243 0.1673777 0.15751451 0.09097312 0.06920809 0.024565788 0.25429782 -0.15961741
0.12028526 0.01994778 0.0034747587 0.21969011 0.15910108 0.22721034 0.15335539 0.13968626
0.005728968 0.18583454 0.017787408 0.023632757 0.16555828 0.117019184 0.019091157 0.13071594
0.13289775 0.119776234 0.17987046 0.13790652 0.16744761 0.052071005 0.03258118 0.11982375
0.015545985 0.10758204 0.15511756 0.16629806 0.07297816 0.22536689 0.17756058 0.1647146
00000000: dd73 db3d e655 a43c e084 2b3e 23be 2cbd
00000010: c217 493d fd60 193e 0807 893d 562a 463e
00000020: 60e7 cd3d 4f30 453e c31a 6d3e 74bd 773d
00000030: 3ab3 3c3e 94d2 fa3d 4b68 063e 693b 343e
00000040: 7fba 913d 9360 5b3e 2c2c 793e 19a6 aa3d
00000050: 519f 283e 774e 443e cced dc3d bd9b 213e
00000060: 3d78 8f3e d180 c23d ecea a33e 75a7 0d3d
00000070: 5450 9e3d 8d76 d33d 9cc8 7c3e c7fe 33be
00000080: 1826 d8bd c78d d7bd 5b37 b6bd a53a 893e
00000090: e3d9 183c 6d24 2c3e f066 263d c0c0 213e
000000a0: 3a4b 0a3e f211 623e a7e7 623e d62d d2bd
000000b0: a6c0 253d cdf2 733d de25 ddbb 807e 2b3e
000000c0: 5da2 043c dd95 df3d 1918 8e3d 2621 883d
000000d0: 47f0 503d 09a6 323e c36b ed3d 5877 743e
000000e0: 5a26 d93d 88fa 623d 44d3 2c3e d116 213e
000000f0: 7202 013e 8338 853c 12eb b83d bbea db3d
00000100: 9254 cabd 0041 9b3b e051 873c 9077 ffbc
00000110: 5c9e 683d 8eae b93d 08c5 dbbc fc08 52bd
00000120: ccbf 423d 764b a53d f828 443d 0419 2d3d
00000130: 942a 6cbd 9816 45bd 445c 05bd 2e7d b53d
00000140: 3865 5ebd 6ec8 acbd 208f 8d3c 8ae7 a0bd
00000150: 30e1 c73d 80f6 a4bb 980c 0cbd 54ec c8bd
00000160: e8f6 dabc 58dd 7abd aab9 f23d dc6c ab3d
00000170: 60b7 813d f814 c43d cc70 e03d b0c1 19bc
00000180: 00b2 01bc a0ab cfbd f48c 503d ecc4 d7bd
00000190: aa8e 8abd cc20 06bd 9c51 e9bd 2e50 a4bd
000001a0: 500f 493d 3069 3e3d ec4f 7cbd 02b7 cdbd
000001b0: 0882 a3bc 1a2d d33d 08b4 94bd 0c18 953d
000001c0: 9e4b 85bd 50d5 1c3c 1c25 ecbd f641 d9bd
000001d0: 3827 f83c 8015 d83c e005 d33c 5a8b 813d
000001e0: 3410 cabd 9428 3cbd 7edf 9abd 3cf7 8abd
000001f0: a83f 39bd 86bc ca3d 60bb f4bd 446f 733d
00000200: de89 ecbd 42bb f3bd f4b1 b33d 890b c03d
00000210: 8798 71bd 9be1 c53d e224 9dbc e2cc 133e
00000220: beb8 943d 8573 a83d c5d4 88bd bfeb 703d
00000230: ea19 e73c 27ad a23d 5270 6a3d 8949 023d
00000240: 9c22 af3c 9c92 853d a0b5 c63d 603b 033e
00000250: 1fdf 753d 3061 ea3c 3368 c0bd c097 833d
00000260: 1fba 553d f782 0e3b 3fc8 39bd 46c2 9cbd
00000270: 3dd8 d6bd 12dc 663d 2db3 bfbc 9022 d43d
00000280: af17 d53c 0c56 e9bd 59a5 f6bd 99e6 cfbd
00000290: b955 b0bc d53b f1bd aa6b bfbd d8ca 623d
000002a0: f957 bc3d c0bc 9d3d cb25 663d e8e0 0bbd
000002b0: 6a5e 87bc 74fa f0bb d10e de3c 68e7 d33d
000002c0: fb14 19be ee12 0e3e a7cc ad3d de5c 73bd
000002d0: fefe 803d 50a0 0bbe cfbc fb3d f814 c13d
000002e0: 1f36 853d 4b16 86bd f1e5 0d3e 800d d03d
000002f0: e747 b53d eef0 1e3d b959 d8bd dae3 0a3b
00000300: 5894 81bd 9dac 6e3d 2f41 743e ca8b 4e3b
00000310: ac60 08bd 6e17 0a3e 004f 0f3c 97d0 043e
00000320: 64a0 893e 82ed 5b3d 79de 7f3e 159a 0b3e
00000330: ec0b 473e 24d9 643e cc4b a93e 4c73 fd3d
00000340: bd07 013e 1915 853e 6da0 4a3e 2eca ec3d
00000350: 3776 a33d 071f 4d3e ab27 963c d221 c2bc
00000360: 9ff3 ae3e 0f65 2b3e 7c4b 213e 1d50 ba3d
00000370: f9bc 8d3d 313e c93c 5333 823e bf72 23be
00000380: 1e58 f63d 8769 a33c c7b8 633b 72f6 603e
00000390: 65eb 223e d4a9 683e 3209 1d3e ea09 0f3e
000003a0: 11ba bb3b 694b 3e3e e6b6 913c 7c99 c13c
000003b0: 1c88 293e c1a7 ef3d 0f65 9c3c 66da 053e
000003c0: 5916 083e 3e4d f53d f62f 383e 5e37 0d3e
000003d0: 6377 2b3e 6848 553d d873 053d 2766 f53d
000003e0: 96b4 7e3c f953 dc3d 23d7 1e3e 0a4a 2a3e
000003f0: 9375 953d 94c6 663e 71d2 353e f2aa 283e

weight f4 [1, 64]
0.14525226 -0.21839389 -0.23125577 0.030987607 0.17792761 0.21100225 0.22734444 -0.1735524
-0.16437095 0.14296456 0.12270264 -0.25644383 -0.2648003 0.16122071 0.29810318 -0.17987028
0.09688625 -0.15711068 0.20260262 0.17142943 -0.16089049 0.16321744 -0.1270838 0.1486799
-0.34235176 -0.19357671 0.14856467 0.06651404 0.05925686 -0.1666445 -0.27319363 0.0072286134
-0.058581322 0.13697134 -0.12879017 -0.15335451 0.19250976 -0.1896893 0.12685135 -0.12019096
-0.09973851 -0.14809819 0.18943335 -0.06287934 -0.1842251 -0.13573328 0.035225708 -0.22030868
0.14828455 -0.17596972 -0.22183974 -0.0990385 -0.15779033 -0.2160963 -0.15727375 -0.1725706
0.21424216 -0.1959528 -0.21582097 -0.10967806 -0.1668041 0.09957056 0.19383954 0.14280152
00000000: 02bd 143e a6a2 5fbe 50ce 6cbe b9d9 fd3c
00000010: a832 363e f910 583e fbcc 683e b8b7 31be
00000020: dc50 28be 4d65 123e 864b fb3d 9b4c 83be
00000030: e893 87be 0b17 253e fba0 983e ea2f 38be
00000040: 4c6c c63d 9fe1 20be 1077 4f3e 328b 2f3e
00000050: 7ac0 24be 7922 273e 4122 02be 8b3f 183e
00000060: bb48 afbe f938 46be 5621 183e 8338 883d
00000070: 52b7 723d dba4 2abe 09e0 8bbe 01de ec3b
00000080: f8f2 6fbd 3742 0c3e 92e1 03be f708 1dbe
00000090: 4721 453e e93d 42be 52e5 013e ae26 f6bd
000000a0: b443 ccbd 0da7 17be d1fa 413e e2c6 80bd
000000b0: 81a5 3cbe aafd 0abe d548 103d 9998 61be
000000c0: e8d7 173e 6831 34be f529 63be b2d4 cabd
000000d0: ca93 21be 5948 5dbe 5f0c 21be 59b6 30be
000000e0: 4c62 5b3e daa7 48be 2c00 5dbe e49e e0bd
000000f0: b2ce 2abe a6eb cb3d df7d 463e 903a 123e
