PV_prediction/modelpth/model_1B.pth (torch, 75295 bytes, 5 tensors)

weight_ih_l0 f4 [256, 4]
-0.096969046 -0.101604305 -0.009224446 -0.054725617 0.13918887 0.2124979 -0.10594413 0.04986611
0.08911811 0.2924204 -0.14650379 0.24833706 0.23275983 -0.15886018 0.014642213 0.25767416
0.09429697 0.09665729 -0.028822264 0.2119272 -0.024803383 -0.020326046 -0.08952301 -0.20968522
0.115419015 0.24407086 -0.08771297 0.07048078 -0.012874013 0.10622974 0.18200593 -0.06182753
-0.18100566 -0.03259343 0.07545536 -0.2439706 0.51357746 0.08798466 -0.075016595 0.5255039
0.070963494 0.27995345 0.14345464 -0.07766899 -0.16367935 -0.098604254 -0.18876202 0.13118553
0.030801233 0.038863756 0.08004927 -0.2278262 0.2763311 -0.08460817 0.12212406 0.20031247
0.12595314 0.31325388 -0.0805014 0.073938094 -0.01346662 0.17196512 -0.27079365 0.22196431
0.13124254 0.32401142 0.006904982 0.110632114 0.123703696 0.121967025 -0.13840216 -0.049646515
-0.15077761 -0.279224 -0.13257508 -0.18068181 -0.031530775 -0.28130192 -0.076331764 0.0718774
0.05383973 0.23237169 0.19047949 0.06771425 -0.11968991 0.049852937 -0.16519427 -0.10786195
0.1746886 0.33830664 0.04271464 0.053542748 0.0037142432 -0.14840731 0.042366426 -0.13355954
-0.011316053 -0.18792398 -0.14318766 -0.003707188 -0.046667077 -0.18024836 -0.025301976 -0.07185798
-0.03810142 -0.2700959 -0.10938954 -0.2515488 -0.002232785 0.20345248 -0.014957489 0.08673206
0.3408327 0.12012641 0.046652284 0.24036206 0.014767693 0.05721292 -0.052093577 -0.07457016
0.51075137 0.07313235 -0.20210929 0.3494492 0.03867667 0.0107466355 0.084906854 -0.2087434
0.032322295 0.27841723 0.116151616 0.042095196 0.30089957 -0.11280074 0.208772 0.34871387
-0.018106448 0.048205245 0.0052940985 -0.0877647 -0.046081513 -0.3128538 -0.026860492 -0.33005938
-0.067621075 0.18613113 -0.006342846 0.25379536 0.032347586 0.3393733 -0.22770216 0.18127629
0.10468996 0.24130414 -0.07861003 -0.058891222 0.11105243 0.2207169 0.009867612 -0.06328176
-0.07059475 -0.13067289 -0.19040163 0.17492151 -0.15184799 -0.26556656 -0.08544126 -0.33249936
0.008432577 -0.2616243 -0.17415145 -0.053334903 -0.13033316 0.059409652 -0.034779202 -0.22270307
0.094816335 0.17042176 0.23601443 0.10766134 0.10646707 0.19366276 0.1849693 -0.02843274
0.064343356 0.065151684 -0.10718189 -0.2447129 0.4425423 -0.11077258 0.4407798 0.13314082
0.032427497 0.15379135 -0.05646436 -0.010318123 0.17836285 0.32396537 -0.027209021 -0.04700855
0.108722724 0.26582026 -0.14744794 0.05872957 -0.055939723 0.24538812 -0.15890361 0.20444609
0.12199115 0.22497904 -0.13043378 0.35356966 0.14088708 0.12308482 0.05168104 0.010600711
-0.0730972 0.118101306 -0.059084043 0.16764562 -0.08352795 -0.24064156 -0.20153542 0.07567709
-0.084704116 -0.055639535 -0.076396875 -0.0631855 -0.10250216 0.25745478 -0.027202472 -0.044398535
0.059357822 -0.036754534 0.111320734 -0.115258746 0.049167853 0.12420033 -0.18339889 0.21953918
-0.10887668 -0.019473605 -0.1829111 0.039387997 0.22054009 -0.09481497 -0.15276343 0.57764643
0.11382307 0.20582609 0.15179189 -0.1263632 0.01602588 0.1548281 0.05940489 0.08415606
00000000: b597 c6bd eb15 d0bd 2122 17bc f827 60bd
00000010: 8787 0e3e 0d99 593e 3cf9 d8bd 6840 4c3d
00000020: 8e83 b63d 20b8 953e 1705 16be 124c 7e3e
00000030: 9858 6e3e 3eac 22be e4e5 6f3c deed 833e
00000040: c51e c13d 42f4 c53d ab1c ecbc 7203 593e
00000050: 7730 cbbc cf82 a6bc d757 b7bd b9b7 56be
00000060: ce60 ec3d b6ed 793e dca2 b3bd 3a58 903d
00000070: 86ed 52bc fa8e d93d c35f 3a3e dd3e 7dbd
00000080: 8c59 39be b080 05bd 5788 9a3d 6ed3 79be
00000090: d079 033f 4d31 b43d 4da2 99bd 6c87 063f
000000a0: 4f55 913d 0f56 8f3e c6e5 123e eb10 9fbd
000000b0: 8f9b 27be 07f1 c9bd d54a 41be 8055 063e
000000c0: de52 fc3c 9a2f 1f3d dff0 a33d 454b 69be
000000d0: 457b 8d3e 0c47 adbd 2e1c fa3d b61e 4d3e
000000e0: dcf9 003e d062 a03e ebdd a4bd db6c 973d
000000f0: 19a3 5cbc a017 303e 77a5 8abe 9d4a 633e
00000100: 7264 063e d3e4 a53e 3043 e23b 1793 e23d
00000110: 5d58 fd3d d9c9 f93d 4cb9 0dbe 255a 4bbd
00000120: 7265 1abe 73f6 8ebe c3c1 07be a704 39be
00000130: 6a26 01bd ce06 90be d453 9cbd 7534 933d
00000140: 0c87 5c3d d8f2 6d3e 0e0d 433e c5ad 8a3d
00000150: fc1f f5bd 9832 4c3d b028 29be bae6 dcbd
00000160: 91e1 323e 8736 ad3e 8cf5 2e3d a44f 5b3d
00000170: a96a 733b 16f8 17be 6b88 2d3d d5c3 08be
00000180: f766 39bc 256f 40be c99f 12be 4bf4 72bb
00000190: fa25 3fbd 0793 38be 1746 cfbc 472a 93bd
000001a0: 3c10 1cbd 034a 8abe a007 e0bd 01cb 80be
000001b0: eb53 12bb d955 503e 4210 75bc 94a0 b13d
000001c0: a081 ae3e d604 f63d 7716 3f3d 7921 763e
000001d0: 32f4 713c 1858 6a3d 1360 55bd 3db8 98bd
000001e0: 9ac0 023f 6ac6 953d bdf5 4ebe 01eb b23e
000001f0: 6e6b 1e3d a812 303c a5e3 ad3d d4c0 55be
00000200: 6264 043d b48c 8e3e e6e0 ed3d 036c 2c3d
00000210: 820f 9a3e 1304 e7bd 54c8 553e a08a b23e
00000220: f953 94bc dd72 453d 1e7a ad3b fbbd b3bd
00000230: f8bf 3cbd 602e a0be 890a dcbc 8bfd a8be
00000240: eb7c 8abd 2999 3e3e a6d7 cfbb 77f1 813e
00000250: e77e 043d 56c2 ad3e c12a 69be 7ea0 393e
00000260: b167 d63d 6f18 773e 4cfe a0bd ec37 71bd
00000270: 756f e33d 9c03 623e c4ab 213c de99 81bd
00000280: fb93 90bd 1dcf 05be a5f8 42be a01e 333e
00000290: 0a7e 1bbe 57f8 87be d4fb aebd 5b3d aabe
000002a0: cb28 0a3c 9ff3 85be c254 32be b375 5abd
000002b0: 0e76 05be 8957 733d a374 0ebd 460c 64be
000002c0: 112f c23d 0b83 2e3e c4ad 713e 8c7d dc3d
000002d0: 680b da3d 884f 463e 9868 3d3e c7eb e8bc
000002e0: 73c6 833d 3f6e 853d 2e82 dbbd 0596 7abe
000002f0: e894 e23e bcdc e2bd e4ad e13e 1156 083e
00000300: b2d2 043d 7b7b 1d3e 2c47 67bd 580d 29bc
00000310: c0a4 363e cade a53e 74e5 debc 0a8c 40bd
00000320: 05aa de3d 9819 883e 98fc 16be 6b8e 703d
00000330: 0d21 65bd 0647 7b3e a1b7 22be 515a 513e
00000340: 7fd6 f93d e860 663e 6f90 05be 1507 b53e
00000350: b444 103e e513 fc3d 80af 533d 9bae 2d3c
00000360: fcb3 95bd 19df f13d 1c02 72bd 4bab 2b3e
00000370: b410 abbd be6a 76be 4d5f 4ebe 97fc 9a3d
00000380: 5a79 adbd 48e6 63bd f775 9cbd 6667 81bd
00000390: a7ec d1bd 1dd1 833e b8d7 debc 3ddb 35bd
000003a0: 3021 733d ec8b 16bd 20fc e33d c70c ecbd
000003b0: 3b64 493d be5c fe3d ebcc 3bbe e1ce 603e
000003c0: bdfa debd 1c87 9fbc 0c4d 3bbe 4f55 213d
000003d0: 43d5 613e 5a2e c2bd 046e 1cbe a3e0 133f
000003e0: 121c e93d 13c4 523e 556f 1b3e 5b65 01be
000003f0: b548 833c 428b 1e3e 8b52 733d 035a ac3d

weight_hh_l0 f4 [256, 64]
0.004025638 0.12232314 -0.07782698 0.032110974 -0.024291888 0.038163185 0.031275213 -0.025207207
0.12186633 -0.11271419 0.041503444 0.073094055 0.066919595 -0.03452219 0.06699367 -0.116039336
0.040981174 -0.02535458 0.023067027 0.02830419 0.024628267 -0.11752874 0.011628449 -0.08162424
0.11415057 0.03111747 0.046075553 -0.073007956 0.096356586 -0.08257042 -0.09452687 0.10144335
0.0714414 0.002644673 -0.0138326585 -0.0700278 -0.00867717 -0.10877368 -0.12081185 0.11597477
0.10365775 0.0723086 0.08966048 0.031813145 0.031926364 -0.04078518 -0.030826524 -0.074816674
-0.02205114 -0.029668316 0.013362035 -0.08930215 -0.08403537 -0.0074412674 0.089539915 0.020563886
-0.07828647 0.039547488 -0.0034568757 0.0046612024 0.056399778 0.032872558 0.06664857 0.005270794
-0.0038942546 -0.07783663 0.11525896 0.10714096 -0.017401919 0.046706304 0.09457256 -0.02316016
0.12374914 0.078381866 -0.0016623884 0.09403312 0.050911263 0.07141212 -0.041741952 -0.06905474
-0.008880705 -0.024085298 -0.022468701 0.051076815 0.062206075 0.04733582 0.051166266 -0.034939423
0.11752096 0.094487116 -0.051542893 -0.08878094 0.01812531 -0.0008804351 0.08265345 0.018615976
0.013584867 0.103519246 0.04311624 -0.012608096 0.099985346 0.10844658 0.08412036 0.008345097
0.09700136 -0.107314646 0.042808324 -0.049682155 -0.07345192 0.00070670247 0.1209487 0.09869331
-0.023735061 -0.059485003 -0.11764559 -0.0915253 0.057649344 -0.022410855 0.04075724 0.019442603
0.10062103 -0.017187178 -0.028179884 -0.11793065 0.101828754 -0.05004622 -0.0021793693 0.041361302
0.098805666 0.06150198 -0.109400705 0.042083874 -0.0775592 -0.005654454 -0.08600208 0.0352879
-0.10370508 -0.04683718 0.04521355 -0.06324509 0.051067322 -0.051822335 0.00943917 0.071497396
0.083647236 -0.11038239 0.07201868 -0.112208456 -0.06451464 -0.10594259 0.051942304 0.086444706
0.07368888 0.070971295 -0.10674526 0.077345654 -0.09918909 0.12102945 -0.0818287 0.07182521
0.09205286 0.121919766 0.1217507 0.1089306 0.0022731423 0.01715757 0.00034327805 -0.107857436
0.019342273 0.115590855 0.019385844 0.11902274 -0.010836095 0.023480818 -0.11762501 -0.042446375
-0.073212445 0.09769809 0.09492651 -0.0323423 -0.008284122 0.01170145 -0.05569625 0.004971549
-0.07319878 -0.086852014 0.03918326 0.12435299 -0.10526468 0.05081165 0.07809074 0.02144581
-0.032351553 -0.005347848 0.06097649 0.097693086 0.08861005 -0.11012776 -0.057998672 0.021497324
0.009425104 -0.07376702 -0.073039755 0.013128564 -0.0015759468 0.11349021 0.023875907 -0.014978439
-0.05395907 -0.11662795 -0.044301003 -0.048807442 0.07002604 0.041310385 0.08082682 0.08272438
0.080005065 -0.030338347 0.06990491 0.009038731 0.058135197 0.02335307 -0.08199096 0.043964565
0.08540796 -0.007276714 -0.017542094 0.004513502 -0.030856237 0.024399444 -0.0018520206 -0.047585294
-0.0906917 -0.10131396 0.09685664 0.07081212 0.08582449 0.07208033 -0.10630609 0.10803157
0.054374814 -0.02186796 -0.10561094 0.050007224 -0.05438918 0.05977595 -0.051730752 0.008748323
0.07441741 0.08195935 0.10803734 -0.1163695 0.106476545 -0.0712997 0.06445883 -0.11063278
00000000: 80e9 833b 8e84 fa3d c063 9fbd cc86 033d
00000010: c8ff c6bc 0051 1c3d 701a 003d 587f cebc
00000020: 0e95 f93d b2d6 e6bd 84ff 293d 56b2 953d
00000030: 240d 893d 2467 0dbd fa33 893d 08a6 edbd
00000040: e0db 273d 68b4 cfbc 10f7 bc3c 30de e73c
00000050: 38c1 c93c e8b2 f0bd 4085 3e3c 9c2a a7bd
00000060: c6c7 e93d 10ea fe3c b8b9 3c3d 3285 95bd
00000070: 9a56 c53d ae1a a9bd 4e97 c1bd 88c1 cf3d
00000080: de4f 923d 4052 2d3b 60a2 62bc bc6a 8fbd
00000090: b02a 0ebc bcc4 debd 346c f7bd 2e84 ed3d
000000a0: 844a d43d 8816 943d ea9f b73d 804e 023d
000000b0: 38c5 023d 5c0e 27bd e887 fcbc 7c39 99bd
000000c0: 98a4 b4bc f80a f3bc 70ec 5a3c 0ce4 b6bd
000000d0: bc1a acbd e0d5 f3bb b460 b73d 9875 a83c
000000e0: a854 a0bd 8cfc 213d c08c 62bb 00bd 983b
000000f0: 7403 673d 60a5 063d 0c7f 883d a0b6 ac3b
00000100: c036 7fbb d068 9fbd e40c ec3d b86c db3d
00000110: 788e 8ebc 1c4f 3f3d 42af c13d 60ba bdbc
00000120: 3070 fd3d ac86 a03d 80e4 d9ba 7094 c03d
00000130: 5488 503d 8440 923d 9cf9 2abd 926c 8dbd
00000140: 6080 11bc 884e c5bc 4810 b8bc ec35 513d
00000150: cccb 7e3d 34e3 413d b893 513d a41c 0fbd
00000160: d4ae f03d 7682 c13d a41e 53bd c8d2 b5bd
00000170: 887b 943c 00cd 66ba 3646 a93d 8880 983c
00000180: 1093 5e3c e601 d43d a89a 303d 3092 4ebc
00000190: 1ec5 cc3d 3e19 de3d 4c47 ac3d e0b9 083c
000001a0: a6a8 c63d c8c7 dbbd c857 2f3d 847f 4bbd
000001b0: f66d 96bd 0042 393a f4b3 f73d b81f ca3d
000001c0: 0870 c2bc 8ca6 73bd 2cf0 f0bd 9e71 bbbd
000001d0: b821 6c3d f896 b7bc 10f1 263d 1846 9f3c
000001e0: 6612 ce3d 20cc 8cbc 80d9 e6bc a085 f1bd
000001f0: 988b d03d 44fd 4cbd c0d3 0ebb 786a 293d
00000200: a05a ca3d 80e9 7b3d 7a0d e0bd 2460 2c3d
00000210: 5cd7 9ebd 0049 b9bb dc21 b0bd 0c8a 103d
00000220: 5463 d4bd 58d8 3fbd d831 393d a486 81bd
00000230: f82b 513d a843 54bd c0a6 1a3c 3a6d 923d
00000240: 3e4f ab3d 2a10 e2bd 887e 933d 8ccd e5bd
00000250: 4020 84bd 6ef8 d8bd 74c1 543d ec09 b13d
00000260: 32ea 963d 6659 913d 429d dabd 6667 9e3d
00000270: a623 cbbd 4ade f73d ce95 a7bd 1819 933d
00000280: 3686 bc3d 12b1 f93d 6e58 f93d 0217 df3d
00000290: 00f9 143b 088e 8c3c 00fa b339 5ce4 dcbd
000002a0: b073 9e3c e6ba ec3d 10cf 9e3c 32c2 f33d
000002b0: e089 31bc d85a c03c 62e5 f0bd 40dc 2dbd
000002c0: 68f0 95bd f015 c83d d468 c23d 5c79 04bd
000002d0: 20ba 07bc 70b7 3f3c c021 64bd 60e8 a23b
000002e0: 3ee9 95bd 78df b1bd a07e 203d c8ac fe3d
000002f0: 0295 d7bd e01f 503d 0aee 9f3d 20af af3c
00000300: 1083 04bd 003d afbb 7cc2 793d 5013 c83d
00000310: 3079 b53d aa8a e1bd 0490 6dbd 281b b03c
00000320: c06b 1a3c 2a13 97bd de95 95bd 3019 573c
00000330: 0090 ceba 8e6d e83d 6897 c33c 2068 75bc
00000340: 3004 5dbd a2da eebd f874 35bd 50ea 47bd
00000350: d069 8f3d 1435 293d 8888 a53d 666b a93d
00000360: b2d9 a33d 2088 f8bc 4e2a 8f3d 3017 143c
00000370: 2c1f 6e3d f04e bf3c e0ea a7bd 3014 343d
00000380: 5eea ae3d 8071 eebb 70b4 8fbc 00e6 933b
00000390: 38c6 fcbc 58e1 c73c 80bf f2ba cce8 42bd
000003a0: 92bc b9bd b27d cfbd c65c c63d f205 913d
000003b0: c0c4 af3d da9e 933d 02b7 d9bd a83f dd3d
000003c0: 20b8 5e3d 7024 b3bc 8c4a d8bd 60d4 4c3d
000003d0: 30c7 5ebd a0d7 743d a0e3 53bd 2055 0f3c
000003e0: 2868 983d 4eda a73d ae42 dd3d 2253 eebd
000003f0: 6010 da3d 9405 92bd fe02 843d 7093 e2bd

bias_ih_l0 f4 [256]
-0.06409356 0.20145051 -0.07718984 -0.017491307 -0.20086212 0.030454712 -0.035056658 0.10574663
-0.05281247 -0.12642454 0.19092116 -0.05782866 0.0022985104 0.09608594 0.04447628 -0.16114938
0.020877663 0.06752517 -0.12461734 0.00023791376 0.32817766 0.01640508 0.14451502 0.015693747
-0.027128486 -0.16948108 0.0008781867 0.08746697 -0.12799177 0.02513503 -0.11337694 0.19179757
0.114839025 0.015313202 0.14122793 -0.05461758 -0.1563821 0.029004669 0.054141592 0.13951243
0.053827584 0.12004271 -0.16171117 -0.025858974 0.33778548 0.34279153 0.20754723 0.075403996
-0.07348632 0.030971758 0.012899632 -0.07049341 -0.1569703 0.23537455 -0.063319124 -0.06605748
0.04036532 0.20150624 0.087544076 -0.102347516 -0.2347101 0.118066005 0.15222418 0.13798708
0.11353649 -0.047810882 0.119161606 -0.094462335 0.07849693 -0.025604606 0.05609198 0.04435569
-0.030895263 -0.023208573 -0.035095483 -0.02171421 0.09070383 0.0683528 0.013326809 0.09726341
-0.123019025 0.07179168 0.022422642 0.047969326 0.012867957 -0.023410514 -0.124443784 -0.016273782
0.06797263 -0.0965838 0.05929844 -0.12405226 0.087182075 0.09282516 -0.05205424 0.028480768
0.11345948 0.09081295 -0.03793791 -0.0017047524 -0.101275146 -0.040899754 -0.027182266 0.12024501
-0.06842175 -0.11093174 0.0079218 -0.067113325 -0.10058549 -0.08746703 -0.06658678 -0.103689626
-0.03264539 0.1028637 -0.08288522 0.1005443 0.10257906 -0.03005062 -0.12414633 -0.0920136
0.057775334 -0.030504197 0.11993213 -0.007847816 0.04501538 0.11958882 -0.08393592 -0.018541142
0.010886322 -0.0845609 -0.057193656 -0.009417843 0.03430326 0.015395366 -0.10593637 -0.022746462
0.024208762 -0.105371855 -0.10801347 0.013857184 -0.048719496 0.034544315 0.068756804 -0.07911552
0.09130378 0.07678642 0.0042448267 0.06950345 -0.05120878 -0.054348234 0.050022334 -0.07468258
0.034211162 -0.09594088 -0.033765964 0.0156121105 -0.076452 -0.045335084 -0.05407461 0.066525005
-0.05531334 -0.027405547 -0.09253049 0.020117277 -0.010708321 0.08843405 -0.03612792 0.01389351
-0.060847875 -0.011037977 0.11706577 -0.05999802 0.022510735 -0.039457303 -0.029768419 -0.03909269
0.093612716 0.04320668 0.112821266 0.052107442 0.14510868 -0.036220912 0.0068441452 -0.1198574
-0.055480506 -0.047870666 0.12174351 0.06839003 0.025176104 0.10398711 0.051287927 -0.035809405
-0.05330506 0.16406135 -0.12121658 -0.02843523 -0.1899113 0.065278515 -0.076751016 0.21796131
-0.20780076 0.062376726 0.12942198 -0.20309205 0.0757636 -0.027871575 0.09196433 0.0054524504
-0.062421944 0.10391511 -0.005311783 -0.106099166 0.2578311 0.004725574 0.24775536 0.24276693
0.007197071 -0.06661485 0.046786606 0.031735227 0.060521707 0.079283625 -0.14578825 0.17492175
0.13717344 0.14408731 0.310001 0.13327798 -0.10593119 -0.0013066666 0.09939523 0.12648158
0.08896567 0.011748985 0.003034411 0.047076385 0.3497683 0.18622069 0.24592479 0.087751485
0.03731284 0.03323722 0.09806589 0.044015642 -0.2790487 0.18518658 -0.03268116 -0.15963806
-0.0019382089 0.24411888 0.17982557 -0.032950923 -0.24187677 0.036786743 0.3593835 0.06019784
00000000: 7c43 83bd 0b49 4e3e b515 9ebd ee49 8fbc
00000010: cdae 4dbe 297c f93c 9297 0fbd b091 d83d
00000020: e351 58bd 6f75 01be d680 433e bfdd 6cbd
00000030: 9ba2 163b b5c8 c43d c32c 363d 5804 25be
00000040: a207 ab3c a34a 8a3d 6037 ffbd 7d78 7939
00000050: e706 a83e f263 863c bffb 133e 2c90 803c
00000060: 8f3c debc 738c 2dbe 1d36 663a e221 b33d
00000070: 4610 03be fae7 cd3c 2b32 e8bd 9566 443e
00000080: b930 eb3d 39e4 7a3c 0e9e 103e afb6 5fbd
00000090: a122 20be 339b ed3c 93c3 5d3d 59dc 0e3e
000000a0: 507a 5c3d f4d8 f53d 9d97 25be 33d6 d3bc
000000b0: 38f2 ac3e 5f82 af3e 4387 543e 696d 9a3d
000000c0: ff7f 96bd 7cb8 fd3c fa58 533c d95e 90bd
000000d0: d3bc 20be 0706 713e 75ad 81bd 2549 87bd
000000e0: 1b56 253d a757 4e3e 4f4a b33d 939b d1bd
000000f0: d857 70be 97cc f13d a8e0 1b3e 7c4c 0d3e
00000100: d285 e83d 58d5 43bd 000b f43d 7875 c1bd
00000110: 00c3 a03d c0c0 d1bc b4c0 653d 50ae 353d
00000120: 1018 fdbc e81f bebc 48c0 0fbd 00e2 b1bc
00000130: eec2 b93d 8efc 8b3d b058 5a3c 0a32 c73d
00000140: 66f1 fbbd 8407 933d b0af b73c 7c7b 443d
00000150: 20d4 523c 68c7 bfbc 62dc febd 9850 85bc
00000160: 3c35 8b3d bacd c5bd ece2 723d 1c0f febd
00000170: 848c b23d 1e1b be3d d436 55bd 8050 e93c
00000180: 725d e83d 24fc b93d c864 1bbd 0072 dfba
00000190: 5869 cfbd 8086 27bd 58ad debc 0443 f63d
000001a0: b420 8cbd 2e30 e3bd 70ca 013c b672 89bd
000001b0: c4ff cdbd ea21 b3bd a65e 88bd 3a5b d4bd
000001c0: 2cb7 05bd 34aa d23d babf a9bd 2cea cd3d
000001d0: f814 d23d b82c f6bc 6e40 febd a071 bcbd
000001e0: d4a5 6c3d f0e3 f9bc fa9e f53d 2094 00bc
000001f0: 0c62 383d fcea f43d 98e6 abbd 98e3 97bc
00000200: 8b5c 323c 442e adbd e543 6abd 4c4d 1abc
00000210: 9381 0c3d d83c 7c3c 2bf5 d8bd ca56 babc
00000220: 7451 c63c 33cd d7bd 2b36 ddbd 3e09 633c
00000230: 188e 47bd 577e 0d3d 5ed0 8c3d 5107 a2bd
00000240: 7afd ba3d 3342 9d3d 3018 8b3b d357 8e3d
00000250: 4cc0 51bd 419c 5ebd 38e4 4c3d 2ef3 98bd
00000260: 0121 0c3d a77c c4bd 2e4e 0abd f0c9 7f3c
00000270: de92 9cbd 48b1 39bd 577d 5dbd 433e 883d
00000280: 3e90 62bd 9981 e0bc a080 bdbd fdcc a43c
00000290: f471 2fbc e91c b53d dffa 13bd 9ba1 633c
000002a0: 9f3b 79bd a2d8 34bc 2ec0 ef3d 7cc0 75bd
000002b0: 6f68 b83c fb9d 21bd e6dc f3bc a81f 20bd
000002c0: 06b8 bf3d 7df9 303d d60e e73d 9d6e 553d
000002d0: 5f97 143e 615c 14bd da44 e03b cc77 f5bd
000002e0: 873f 63bd 0814 44bd a954 f93d 1210 8c3d
000002f0: 1e3e ce3c 32f7 d43d 4a13 523d e2ac 12bd
00000300: 6856 5abd b3ff 273e 6640 f8bd 00f1 e8bc
00000310: 1c78 42be beb0 853d a32f 9dbd 4031 5f3e
00000320: b9c9 54be bd7e 7f3d 3287 043e 5df7 4fbe
00000330: f229 9b3d ee52 e4bc cb57 bc3d 78aa b23b
00000340: 27ae 7fbd 72d1 d43d 770e aebb 854a d9bd
00000350: 7002 843e fdd8 9a3b 95b3 7d3e e597 783e
00000360: 68d5 eb3b 5e6d 88bd 50a3 3f3d ccfc 013d
00000370: 9ce5 773d 745f a23d 8449 15be b01e 333e
00000380: 3277 0c3e a08b 133e 73b8 9e3e 067a 083e
00000390: 74f2 d8bd 7544 abba ba8f cb3d 6384 013e
000003a0: a233 b63d d17e 403c f8dc 463b 2bd3 403d
000003b0: d514 b33e a3b0 3e3e b5d3 7b3e 0db7 b33d
000003c0: 59d5 183d c023 083d c5d6 c83d bf49 343d
000003d0: 79df 8ebe 8da1 3d3e aedc 05bd 2978 23be
000003e0: 800b feba 4dfa 793e 3224 383e 8cf7 06bd
000003f0: 8bae 77be b2ad 163d 1d01 b83e 0392 763d

bias_hh_l0 f4 [256]
0.03810227 0.2855041 -0.037589606 0.101672545 -0.03544883 0.12678629 -0.026353 0.100372955
0.026194913 0.047561903 0.18887165 -0.1162415 -0.06775776 0.09522989 -0.02822154 -0.114113
-0.10479874 0.15911524 0.08237094 0.00066417776 0.09629938 -0.0050436747 0.21226701 0.1689826
0.0410082 -0.058388777 0.015426712 -0.07722626 0.0073394678 -0.017721355 0.06383471 0.22850831
0.24577866 0.073577665 0.25616413 0.09142963 -0.058859475 -0.022491815 0.15405972 0.018231282
-0.013958909 0.017018931 -0.10593585 -0.005237156 0.10765869 0.24753581 0.16139325 0.10225027
0.009772295 0.14099604 0.14686222 -0.029805558 -0.10237376 0.18189736 0.105465256 -0.040006496
-0.013400473 0.26602045 0.043188058 -0.03452946 -0.18380278 0.071844466 0.2531539 0.07958439
-0.12131123 -0.021409914 -0.014671668 -0.12218185 -0.112307 0.008568853 -0.08866207 0.058668867
-0.05002053 -0.08193919 0.04724662 -0.07887627 0.12438379 -0.03661257 0.012371495 -0.109478846
-0.121279836 0.1208802 0.057538286 0.018686369 -0.0030985028 -0.019942924 0.023781419 -0.013099164
0.0710102 -0.039480314 0.09915441 0.097388834 0.010546759 -0.027389526 0.09508394 0.0027164072
0.06385584 -0.11267121 0.07372294 -0.11954315 0.015318811 -0.044365034 -0.111264214 -0.06372197
-0.028978363 0.11307901 -0.044105545 0.06857224 -0.12055671 0.11553031 -0.07005739 -0.11972351
0.020056918 -0.023219153 -0.117227465 0.07019678 -0.0403675 -0.10474242 0.07544251 0.066511095
-0.10459493 0.09273718 0.058061257 -0.1057093 0.07214798 0.103768274 -0.02476649 -0.07050939
-0.02450866 0.06917858 -0.08823054 0.09203932 0.09035326 0.04676761 -0.04606507 -0.11094305
0.01532809 0.00638749 0.07862935 -0.1290432 0.028443664 0.010410769 0.016818954 -0.07719033
0.06557508 -0.056492258 0.09919627 0.074397326 0.11087352 0.059109148 -0.082665235 -0.044793967
-0.043656033 -0.048173994 0.1130603 -0.07726076 0.003664917 -0.111179054 -0.037381623 0.11710189
0.043253005 0.11275399 -0.039834592 0.13076425 0.09212181 -0.024471773 0.09502043 -0.00020810132
-0.0698382 -0.0187176 0.09313771 -1.7419068e-05 -0.0103095425 -0.043341476 0.04309287 -0.01052765
-0.12141354 0.05465027 -0.06836727 0.043572977 0.09139605 0.08651722 -0.019283198 -0.11073975
0.05480116 0.038001142 -0.034589875 0.09639217 0.12835966 0.07691949 0.0014574204 0.058082357
0.05955622 0.26295856 0.04168791 0.019757777 -0.12130234 0.14719456 -0.098117165 0.32739362
-0.09674572 -0.06182753 0.16811062 -0.26960856 -0.07806097 -0.112266935 0.029464921 0.003931761
0.0014111177 -0.013088157 0.045640048 -0.010109098 0.3140674 0.09200464 0.1709708 0.06430102
-0.028176276 -0.02176824 -0.09429587 0.06265217 0.05404204 0.065287195 0.0626387 0.092963815
0.108661935 0.14368024 0.17624989 0.083522215 -0.0104325395 0.09343284 0.0027654313 0.13986519
-0.016983053 0.05913191 -0.13971303 -0.014489964 0.26944894 0.28982517 0.22294833 0.1903314
0.04261191 0.13576888 0.049860794 -0.007499287 -0.10764594 0.12035051 0.071082026 -0.019860338
-0.0945706 0.18188597 0.19100618 0.0660608 -0.1819935 0.030174589 0.29923192 0.16560447
00000000: 2011 1c3d 982d 923e 8ff7 19bd b239 d03d
00000010: cb32 11bd 44d4 013e 3fe2 d7bc 5690 cd3d
00000020: b796 d63c 45d0 423d 9267 413e 0610 eebd
00000030: 95c4 8abd e307 c33d dc30 e7bc 14b4 e9bd
00000040: b9a0 d6bd 1bef 223e 18b2 a83d 371c 2e3a
00000050: 9c38 c53d 6945 a5bb 865c 593e c609 2d3e
00000060: 37f8 273d 1229 6fbd 52c0 7c3c cd28 9ebd
00000070: eb7f f03b 602c 91bc c6bb 823d 15fe 693e
00000080: 67ad 7b3e e3af 963d f227 833e 753f bb3d
00000090: a216 71bd c140 b8bc d5c1 1d3e c559 953c
000000a0: e8b3 64bc 496b 8b3c e5f4 d8bd 739c abbb
000000b0: 297c dc3d 077a 7d3e 4644 253e 9768 d13d
000000c0: fa1b 203c 4461 103e 0d63 163e c92a f4bc
000000d0: 55a9 d1bd 4d43 3a3e 2bfe d73d dadd 23bd
000000e0: a88d 5bbc d533 883e f6e5 303d c36e 0dbd
000000f0: cc36 3cbe 3123 933d 639d 813e 24fd a23d
00000100: 0672 f8bd d863 afbc 7061 70bc 7a3a fabd
00000110: 3601 e6bd 6064 0c3c 7694 b5bd c44e 703d
00000120: 54e2 4cbd bccf a7bd ac85 413d e289 a1bd
00000130: eebc fe3d 10f7 15bd d0b1 4a3c 7236 e0bd
00000140: 9061 f8bd 0a90 f73d 44ad 6b3d 2814 993c
00000150: 4010 4bbb 585f a3bc 40d1 c23c e09d 56bc
00000160: cc6d 913d 1cb6 21bd 7811 cb3d cc73 c73d
00000170: 50cc 2c3c 0060 e0bc 5ebb c23d c005 323b
00000180: dac6 823d 2ac0 e6bd 0efc 963d 0ad3 f4bd
00000190: c0fb 7a3c 1cb8 35bd 7ede e3bd aa80 82bd
000001a0: 0864 edbc f895 e73d 04a8 34bd 9a6f 8c3d
000001b0: 70e6 f6bd 289b ec3d 407a 8fbd 9a31 f5bd
000001c0: 684e a43c 1836 bebc f414 f0bd 54c3 8f3d
000001d0: 6458 25bd 3283 d6bd 9a81 9a3d f836 883d
000001e0: de35 d6bd feec bd3d a4d1 6d3d 1e7e d8bd
000001f0: 52c2 933d 7684 d43d 18e3 cabc 3a67 90bd
00000200: 63c6 c8bc 80ad 8d3d 37b2 b4bd 1c7f bc3d
00000210: 210b b93d 658f 3f3d baae 3cbd 1c36 e3bd
00000220: ab22 7b3c 264e d13b 6d08 a13d e723 04be
00000230: b002 e93c ee91 2a3c e7c7 893c f715 9ebd
00000240: 3a4c 863d 6d64 67bd 6a27 cb3d a05d 983d
00000250: a811 e33d 6f1c 723d 644c a9bd e179 37bd
00000260: abd0 32bd 1852 45bd 298c e73d e43a 9ebd
00000270: 1b2f 703b d8b1 e3bd 791d 19bd 1ed3 ef3d
00000280: 102a 313d 90eb e63d 9929 23bd 10e7 053e
00000290: 5caa bc3d 0779 c8bc 129a c23d c635 5ab9
000002a0: 5507 8fbd a755 99bc fcbe be3d 2a1f 92b7
000002b0: 5be9 28bc d586 31bd 2682 303d 2a7c 2cbc
000002c0: a9a7 f8bd f6d8 5f3d 2404 8cbd 9479 323d
000002d0: da2d bb3d f12f b13d ccf7 9dbc 86cb e2bd
000002e0: 2e77 603d 16a7 1b3d 1dae 0dbd 4269 c53d
000002f0: b770 033e f787 9d3d ea06 bf3a c4e7 6d3d
00000300: 39f1 733d 81a2 863e f1c0 2a3d 10db a13c
00000310: 5c6d f8bd 2cba 163e a7f1 c8bd 23a0 a73e
00000320: 9f22 c6bd dd3e 7dbd 3125 2c3e 220a 8abe
00000330: 6ede 9fbd 35ec e5bd 6b60 f13c 00d6 803b
00000340: 41f5 b83a b66f 56bc 0ff1 3a3d a1a0 25bc
00000350: 71cd a03e ee6c bc3d f812 2f3e 41b0 833d
00000360: efd1 e6bc 4f53 b2bc 311e c1bd c84f 803d
00000370: 305b 5d3d 4bb5 853d b848 803d d063 be3d
00000380: 268a de3d ea20 133e da7a 343e b20d ab3d
00000390: 3eed 2abc b859 bf3d 3d3c 353b d238 0f3e
000003a0: 0b20 8bbc 4d34 723d ef10 0fbe 5067 6dbc
000003b0: 36f5 893e f763 943e 914c 643e 3ce6 423e
000003c0: d389 2e3d ff06 0b3e d53a 4c3d 94bc f5bb
000003d0: 7975 dcbd 547a f63d 7493 913d 26b2 a2bc
000003e0: 3bae c1bd 5140 3a3e 2097 433e e24a 873d
000003f0: 815c 3abe b330 f73c ed34 993e 3894 293e

weight f4 [1, 64]
0.12487598 0.26167053 -0.027998885 -0.14017022 -0.018444415 -0.19440724 -0.17646205 0.21008606
0.0076878117 0.11623702 -0.32206106 0.08905154 0.13710614 0.14850307 0.19424328 0.007761135
0.06561618 0.13068704 -0.13114998 -0.0768394 0.27300614 0.12677114 -0.28034493 0.1877281
-0.055161797 0.012465405 -0.13875082 -0.12562083 0.101376355 -0.06746317 0.08164385 -0.23976545
-0.26537794 -0.1636292 0.26334137 -0.1959713 -0.004887427 0.12913251 0.15205534 -0.20187277
0.12225782 0.15212649 -0.0908847 -0.1499708 0.24028571 0.26362452 -0.22309436 0.22918575
0.10956027 0.24509856 0.18071197 -0.009982236 -0.04559246 -0.17996116 -0.14718816 0.13463189
-0.06881358 -0.22423244 -0.19310191 0.0916557 -0.08244552 -0.16669829 -0.3343085 -0.248989
00000000: fabe ff3d aef9 853e eb5d e5bc c888 0fbe
00000010: be18 97bc b112 47be 78b2 34be cd20 573e
00000020: 0aea fb3b ad0d ee3d 30e5 a4be a760 b63d
00000030: 8d65 0c3e 3011 183e b6e7 463e 1f51 fe3b
00000040: c761 863d d3d2 053e 2e4c 06be fa5d 9dbd
00000050: 76c7 8b3e 4bd0 013e 5f89 8fbe cc3b 403e
00000060: 56f1 61bd b33b 4c3c b214 0ebe bfa2 00be
00000070: 689e cf3d 212a 8abd e434 a73d 1385 75be
00000080: 9edf 87be 6a8e 27be aed4 863e b3ac 48be
00000090: b626 a0bb 503b 043e 65b4 1b3e bcb7 4ebe
000000a0: 4f62 fa3d 0cc7 1b3e c221 babd f291 19be
000000b0: 750d 763e cbf9 863e d972 64be abaf 6a3e
000000c0: 2361 e03d 1efb 7a3e 8f0c 393e 888c 23bc
000000d0: 29bf 3abd bd47 38be 7eb8 16be f1dc 093e
000000e0: 22ee 8cbd 309d 65be 82bc 45be fcb5 bb3d
000000f0: 32d9 a8bd f5b2 2abe 7c2a abbe f9f6 7ebe
