PV_prediction/modelpth/model_5.pth (torch, 75295 bytes, 5 tensors)

weight_ih_l0 f4 [256, 4]
0	0x3d438b24	0.047740117
1	0x3d8368f2	0.06416501
2	0x3e5d0cb9	0.21586885
3	0x3e2c283c	0.16812223
4	0x3e8985d3	0.26859912
5	0x3e599728	0.21249068
6	0x3d6054f6	0.054768525
7	0x3c9a90a6	0.018867802
8	0x3dbab452	0.091164246
9	0x3e789254	0.2427457
10	0x3e2853c0	0.16438198
11	0x3e119d3c	0.14220136
12	0x3dc27721	0.09495378
13	0x3e0c8f09	0.13726439
14	0xbdbdb915	-0.09263817
15	0x3e79e224	0.24402672
16	0x3e0bc95f	0.13651036
17	0x3ddac1ea	0.106815174
18	0x3e2b4f8c	0.16729563
19	0x3d687e37	0.056760993
20	0x3e0bb9d6	0.1364511
21	0x3ea06ed5	0.31334558
22	0x3d8ef241	0.069798
23	0x3d839b2f	0.06426083
24	0x3daa7a95	0.08324162
25	0x3de06a31	0.109577544
26	0xbcbed8cd	-0.023296738
27	0x3d328334	0.043582156
28	0x3e561f59	0.20910396
29	0x3e6b4ddd	0.22978921
30	0x3dea8ece	0.11453019
31	0x3dcb6707	0.0993176
32	0x3c079bd7	0.008276901
33	0xbd43411c	-0.047669515
34	0x3d11aa20	0.035562634
35	0x3cdeefa9	0.027213888
36	0x3e618b58	0.22025812
37	0x3e0cbb1f	0.13743256
38	0x3ea58362	0.323268
39	0x3dc24f3f	0.09487771
40	0xbd316ca6	-0.043316506
41	0x3cf63bb6	0.03005777
42	0xbdac0119	-0.08398647
43	0xbe0684d0	-0.13136601
44	0x3d01498b	0.031564277
45	0xbd4ce517	-0.050023165
46	0xbe216e74	-0.15764791
47	0xbd878885	-0.06617836
48	0xbc53df78	-0.012931697
49	0x3e8f803b	0.2802752
50	0x3e33aa82	0.17545512
51	0x3e5da2a0	0.21644068
52	0x3d6dc97d	0.058053482
53	0x3d8c5bdc	0.06853458
54	0x3d688a5b	0.05677257
55	0xbaa1df03	-0.0012349788
56	0x3e940766	0.28911895
57	0xbef9e380	-0.4880638
58	0xbe197511	-0.14986064
59	0x3e86693b	0.2625216
60	0xbd882957	-0.0664851
61	0x3de9401d	0.11389182
62	0xbdca6d93	-0.09884181
63	0x3e206677	0.15664087
64	0xbca3efc7	-0.020011796
65	0xbad86374	-0.0016509132
66	0xbd4f5cc1	-0.050625566
67	0x3d44ce1d	0.048048127
68	0x3e7a9282	0.24469951
69	0x3e9930b5	0.29919973
70	0x3d0b0631	0.03394145
71	0x3e09ad31	0.13444974
72	0xbe1172ce	-0.14203951
73	0xbe0ee9f5	-0.13956435
74	0xbd9ed58d	-0.07755575
75	0xbe1274c7	-0.1430236
76	0x3e097f29	0.13427414
77	0x3db42122	0.08795382
78	0x3e03ec87	0.12883197
79	0x3cc9163f	0.02454674
80	0xbd9f42c2	-0.07776405
81	0xbda06a43	-0.07832768
82	0x3cc92b61	0.024556817
83	0xbd7a172a	-0.061057247
84	0x3d8dc7a3	0.06922843
85	0x3e36bbd8	0.17845094
86	0x3e14815d	0.14502473
87	0x3e2e93a4	0.17048508
88	0x3e682e64	0.22673947
89	0x3e01fa14	0.12693053
90	0x3e42785b	0.18991224
91	0x3cf79b54	0.030225433
92	0x3da267d7	0.07929962
93	0x3e97b212	0.29628044
94	0x3e6d5a5c	0.23179
95	0x3e58f8f8	0.21188724
96	0xbdf38db9	-0.11892266
97	0xbddbd3b9	-0.10733742
98	0x3d276236	0.040865146
99	0xbe1e96f2	-0.15487269
100	0x3ce02c31	0.027364822
101	0x3e5e37f5	0.21701033
102	0x3e2e96be	0.17049691
103	0x3e55ae2b	0.20867221
104	0x3c4109e6	0.011782145
105	0x3e5d115d	0.21588655
106	0xbd3a2d41	-0.045453314
107	0x3e121198	0.14264524
108	0x3e16c326	0.1472288
109	0x3cebfab0	0.02880606
110	0xbd88957a	-0.066691354
111	0x3e174dc4	0.14775759
112	0x3ef9f99f	0.48823258
113	0x3ec7967d	0.38982
114	0x3ebb6907	0.36603567
115	0x3e98b13e	0.29822725
116	0x3e18a720	0.14907503
117	0x3e005449	0.12532152
118	0x3d2870da	0.04112325
119	0x3e383150	0.17987561
120	0x3eb098a0	0.34491444
121	0x3ea5ec30	0.3240676
122	0x3e040b82	0.12895015
123	0x3e259ee0	0.16173887
124	0x3d62baf3	0.05535407
125	0x3dd72c36	0.105064794
126	0x3e08a665	0.13344724
127	0x3d8850a7	0.06656008
128	0x3dd26cd7	0.10274666
129	0x3de77b74	0.11302844
130	0xbd486df9	-0.048933003
131	0x3d65213f	0.05593991
132	0x3cf154d7	0.0294594
133	0x3e7060ab	0.23474376
134	0x3e9ffa84	0.31245816
135	0xbe170b80	-0.1475048
136	0x3d711395	0.058856566
137	0x3d7e116a	0.062028326
138	0xbce9c60c	-0.028536819
139	0x3d8269af	0.06367814
140	0x3e2a6568	0.16640246
141	0x3e717d3e	0.23582932
142	0x3e816efa	0.2527998
143	0x3e2649b3	0.16239052
144	0xbd02f2e1	-0.03196991
145	0xbdc01f15	-0.093809284
146	0x3d987bdf	0.074455015
147	0x3e117d05	0.14207847
148	0x3e9697f2	0.294128
149	0x3e948288	0.29005837
150	0x3dfc76d8	0.12327355
151	0x3e695be1	0.22788955
152	0x3d0932ac	0.03349559
153	0xbbfb5aca	-0.007670735
154	0xbe0e3d9e	-0.13890693
155	0x3cb9479a	0.02261715
156	0x3e14e8f1	0.14541985
157	0x3dfefd78	0.12450689
158	0xbc57308c	-0.013134133
159	0x3e6da69d	0.23208089
160	0x3e9674ff	0.29386136
161	0x3eae86c5	0.34087196
162	0x3e11c61d	0.1423573
163	0x3dafe385	0.08588318
164	0x3e08d848	0.13363755
165	0x3e29c518	0.16579092
166	0xbd7abe39	-0.061216567
167	0x3e1fffbb	0.15624897
168	0x3ca0b70e	0.019618537
169	0x3e9ad05c	0.3023709
170	0xbd0980c9	-0.033570085
171	0x3e430001	0.1904297
172	0xbd2683e9	-0.040653143
173	0x3cfdad4b	0.030966422
174	0xbdb9ae33	-0.09066429
175	0x3dc67ccb	0.09691771
176	0x3abdec7b	0.0014490032
177	0xbd0cab7d	-0.03434323
178	0xbd4a97af	-0.049461063
179	0x3b3c0285	0.0028688025
180	0x3e826e89	0.25474957
181	0x3e6cfc45	0.23143108
182	0x3d97f453	0.07419648
183	0x3e052bbb	0.13004963
184	0x3d8dd638	0.069256246
185	0xbe028712	-0.12746838
186	0x3e080194	0.13281852
187	0xbc32a5b7	-0.010903767
188	0x3db271d9	0.08713121
189	0xbdadc6ad	-0.0848516
190	0xbddeb3ae	-0.10874115
191	0xbda8bc47	-0.08239036
192	0xbcff3b95	-0.03115634
193	0x3daf3bb3	0.085563086
194	0x3dba796a	0.09105189
195	0x3d67aff0	0.05656427
196	0x3df83c0a	0.121208265
197	0x3e1d9950	0.15390515
198	0x3c387734	0.011258889
199	0xbcfc2934	-0.030781366
200	0x3d44562b	0.04793374
201	0x3d906e63	0.070523046
202	0xbca6e39c	-0.020372204
203	0x3e38caa0	0.18046045
204	0x3d937ba0	0.07201314
205	0x3e4513ac	0.19245785
206	0x3e420f63	0.18951182
207	0x3e1e06af	0.15432237
208	0x3e309dff	0.1724777
209	0x3e1763b5	0.14784129
210	0x3d925d16	0.07146661
211	0x3e66e103	0.22546773
212	0x3ece9777	0.40349934
213	0xbe91eeb5	-0.28502432
214	0x3e44b557	0.192098
215	0x3eca278e	0.39483303
216	0x3db3a64e	0.087719545
217	0x3da03620	0.078228235
218	0x3e9e4a9c	0.30916297
219	0x3d9499b4	0.07255879
220	0x3d150426	0.03638091
221	0x3d8f1730	0.069868445
222	0xbe12d3e8	-0.14338648
223	0x3d72276a	0.05911962
224	0x3cb8a427	0.022539211
225	0x3cca1297	0.024667067
226	0x3d04317c	0.032273754
227	0xbcbd3d62	-0.023100559
228	0x3c83a6dd	0.016070778
229	0x3e6c1de0	0.23058271
230	0x3d8d0470	0.06885612
231	0x3dfff5af	0.12498032
232	0x3d27faf5	0.041010816
233	0x3d62b7d7	0.055351105
234	0xbd873dc9	-0.066035815
235	0x3e3f2a4f	0.18668483
236	0x3e2cf864	0.16891629
237	0x3da589fc	0.08082959
238	0x3e282c75	0.16423209
239	0x3dd72f32	0.10507049
240	0xbd67d2c9	-0.056597505
241	0x3e660931	0.22464444
242	0xbde2f32d	-0.11081538
243	0x3e1c8606	0.15285501
244	0x3e098ef2	0.13433436
245	0xbe3e446f	-0.18580793
246	0x3be485ac	0.0069739427
247	0x3dc4bb1b	0.09606
248	0x3e848100	0.2587967
249	0x3ebb7ba0	0.36617756
250	0x3e205579	0.15657605
251	0x3da99a1d	0.08281348
252	0x3d8bef09	0.06832702
253	0xbe7090eb	-0.23492782
254	0xbd614a1c	-0.055002317
255	0xbe0e9572	-0.13924196

weight_hh_l0 f4 [256, 64]
0	0xbd83e0d8	-0.0643937
1	0x3c372c80	0.011180043
2	0xbda99728	-0.08280784
3	0x3d81d98c	0.06340322
4	0x3d426fa4	0.04746975
5	0x3de0b8fe	0.109727845
6	0x3dc7fc04	0.09764865
7	0xbdb01cfc	-0.08599278
8	0xbda04a40	-0.07826662
9	0x3dcb87ca	0.09938009
10	0x3df3b0a2	0.118989244
11	0x3a814e00	0.0009865165
12	0x3a9a2680	0.0011760741
13	0xbdfe9956	-0.1243159
14	0xbda96ae4	-0.08272341
15	0x3d90af9c	0.07064745
16	0x3df22b2a	0.11824639
17	0xbd636610	-0.055517256
18	0xbc046e90	-0.008083001
19	0x3d06b01c	0.032882795
20	0xbd7905f4	-0.060796693
21	0xbdd1ecfa	-0.10250278
22	0xbbde6a40	-0.0067875683
23	0x3a25ef00	0.0006329864
24	0xbdf583ae	-0.119880065
25	0x3d5230a0	0.051315904
26	0x3d985fb4	0.07440129
27	0xbd3ec868	-0.04657784
28	0xbc19bc60	-0.009383291
29	0xbdd7aadc	-0.10530636
30	0xbdace42c	-0.08441958
31	0xbd4c56b4	-0.049887374
32	0x3d723254	0.059130028
33	0x3cb78488	0.022402063
34	0x3de4003c	0.11132857
35	0xbd3cf598	-0.046132654
36	0xbd75ad18	-0.05997953
37	0x3d9bde72	0.076107875
38	0x3d66dcd8	0.056362957
39	0xbcb244f8	-0.021761402
40	0x3d6d5c00	0.057949066
41	0x3da699fa	0.081348374
42	0x3d04735c	0.032336578
43	0xbdadbd12	-0.08483328
44	0x3da87b7e	0.08226679
45	0xbd61f64c	-0.055166528
46	0x3df71432	0.12064399
47	0x3d2fee3c	0.042951807
48	0x3d6307d4	0.055427387
49	0x3d99be68	0.0750702
50	0xbd97cc40	-0.074120045
51	0xbdf75f22	-0.12078692
52	0x3d8ffc44	0.07030538
53	0x3dfb5ba8	0.122733414
54	0xbcda44e8	-0.026644185
55	0x3b5e2200	0.0033894777
56	0x3dfcbd00	0.123407364
57	0x3db3f16c	0.08786282
58	0x3d728a20	0.059213758
59	0x3dc21ed8	0.09478539
60	0xb9941e00	-0.00028251112
61	0xbda9c694	-0.08289829
62	0xbd3e16bc	-0.0464084
63	0xbda552ba	-0.080724195
64	0x3d5fb650	0.054617226
65	0x3cd78d20	0.02631241
66	0xbd5d7680	-0.05406809
67	0xbdd280f8	-0.10278505
68	0x3de40dd6	0.111354515
69	0xbdaf4e54	-0.08559862
70	0x3de18faa	0.1101373
71	0x3d8442a2	0.06458022
72	0x3d54cdac	0.051953956
73	0x3dd04a06	0.10170369
74	0x3d1f5a04	0.038904205
75	0xbdfe7c3e	-0.12426041
76	0x3de5acaa	0.11214574
77	0x3cb2a540	0.021807313
78	0x3d941654	0.07230821
79	0xbd8896fc	-0.06669423
80	0xbdaa3230	-0.08310354
81	0x3d536918	0.051613897
82	0xbdfbb0c8	-0.12289578
83	0x3cf88bd8	0.03034012
84	0x3ce11870	0.027477473
85	0x3dddfc22	0.10839106
86	0xbdafa69c	-0.085767
87	0x3c887c00	0.01666069
88	0x3dcc0c44	0.09963277
89	0xbdc1f686	-0.09470849
90	0x3cc75000	0.02433014
91	0xbd3d714c	-0.046250626
92	0xbdf4a112	-0.11944784
93	0xbde7e832	-0.113235846
94	0xbc761530	-0.0150197
95	0xbdec07ee	-0.1152495
96	0xbca21e10	-0.019789726
97	0x3d919d58	0.07110089
98	0x3db1bac6	0.08678202
99	0xbdd4ceb4	-0.10390988
100	0x3d127040	0.03575158
101	0x3d65ebac	0.056132957
102	0xbd8a812c	-0.06762919
103	0x3d455508	0.048176795
104	0xbd71d5f4	-0.059041932
105	0x3da019fa	0.07817455
106	0xbb180840	-0.0023198277
107	0x3c0d1040	0.008609831
108	0xbc82fd00	-0.01598978
109	0x3de01876	0.109421656
110	0x3cdc7540	0.026911378
111	0x3be3f920	0.0069571882
112	0xbc2d6ae0	-0.010584563
113	0x3dd4e076	0.10394375
114	0x3d03a774	0.032142118
115	0xbde89168	-0.11355859
116	0x3db2f0dc	0.087373465
117	0x3c835e60	0.016036212
118	0x3b3261c0	0.0027218908
119	0xbdf214c4	-0.11820367
120	0x3dd3c564	0.10340384
121	0xbd12e220	-0.03586018
122	0xbd4c7a94	-0.049921587
123	0x3d4cc984	0.049996868
124	0xbddddce2	-0.10833146
125	0x3dd62304	0.104558975
126	0x3da11c72	0.07866754
127	0xbd6dcc94	-0.05805643
128	0x3d06694c	0.032815263
129	0x3cce7468	0.025201991
130	0x3da772ac	0.08176169
131	0x3d06fc78	0.032955617
132	0x3d6d404c	0.057922646
133	0xbded87de	-0.1159818
134	0x3c41bcd0	0.011824802
135	0x3d04b7a4	0.032401696
136	0xbd3a8198	-0.045533746
137	0x3de80442	0.11328937
138	0xbdd23828	-0.10264617
139	0x3b344ec0	0.002751276
140	0x3d115bec	0.035488054
141	0x3dbeb86c	0.093125194
142	0x3d75342c	0.059864208
143	0xbd5345a0	-0.05158007
144	0xbdb57f3a	-0.08862157
145	0x3cbd88e8	0.023136571
146	0x3cbc5bf8	0.022993073
147	0xbd9024fe	-0.07038306
148	0xbde29eec	-0.11065468
149	0xbda7b402	-0.08188631
150	0xbd10e888	-0.03537801
151	0x3d93a65e	0.072094664
152	0xbdd23afa	-0.10265155
153	0x3dbadbe0	0.09123969
154	0xbd89ce38	-0.06728786
155	0xbd7f1510	-0.062275946
156	0xbd655330	-0.055987537
157	0x3c5bcb20	0.013415128
158	0xbd9684a0	-0.07349515
159	0xbd393004	-0.045211807
160	0x3de88dca	0.11355169
161	0xbd9c7758	-0.076399505
162	0x3db11272	0.08646096
163	0x3d55aa58	0.052164406
164	0xbdc5b716	-0.096540615
165	0xbd2f0638	-0.04273054
166	0x3c03a6c0	0.008035362
167	0x3c6ce3e0	0.0144586265
168	0x3d4522e0	0.048128963
169	0xbdc5191c	-0.0962393
170	0xbdad346c	-0.08457264
171	0xbb927fc0	-0.0044707954
172	0x3d54976c	0.05190222
173	0xbda9a786	-0.08283906
174	0x3c28f910	0.010313287
175	0x3ddacc94	0.106835514
176	0x3d97bae0	0.074086905
177	0xbbf71ac0	-0.0075410306
178	0xbdf9d276	-0.12198345
179	0x3d4a2e60	0.049360633
180	0xbdbfc7b4	-0.09364262
181	0x3df5b4f4	0.11997405
182	0xbd818f8c	-0.063262075
183	0xbdb23628	-0.08701736
184	0xbd86ff92	-0.06591715
185	0x3a051700	0.00050769746
186	0x3dffe72c	0.124952644
187	0xbd53fa10	-0.05175215
188	0xbd9d425c	-0.07678673
189	0xbc8a0228	-0.016846731
190	0xbd1ac178	-0.037782162
191	0xbb678140	-0.0035324842
192	0xbdf3e2c0	-0.119084835
193	0x3df720a0	0.120667696
194	0xbd82b5f2	-0.063823596
195	0xbdb31110	-0.08743489
196	0x3da949ea	0.08266051
197	0x3dbdcf0a	0.09268005
198	0x3df37106	0.11886792
199	0xbd05d8d4	-0.032677487
200	0xbdead8d0	-0.11467135
201	0x3d2c0d0c	0.04200463
202	0xbdba6790	-0.09101784
203	0xbdaf2f06	-0.08553891
204	0x3d08e0ac	0.03341739
205	0xbd8250c8	-0.06363064
206	0xbdb754de	-0.08951734
207	0xbd9be346	-0.07611708
208	0x3de8bbc4	0.113639385
209	0xbd9941ac	-0.07483229
210	0x3cd3b5b8	0.025843486
211	0x3bdfc7e0	0.006829247
212	0x3de67404	0.11252597
213	0x3dee8ade	0.116475806
214	0x3d8e4d12	0.06948294
215	0xbd06735c	-0.03282486
216	0xbdc80072	-0.0976571
217	0xbc444fa0	-0.011981875
218	0xbdd85072	-0.10562219
219	0xbca8f580	-0.020624876
220	0xbdb9f622	-0.09080149
221	0x3d9e32a4	0.07724503
222	0xbbd66020	-0.0065422207
223	0x3dfd3fc2	0.123656765
224	0x3def70b4	0.11691418
225	0xbcbb87c0	-0.02289188
226	0x3df6bf06	0.120481536
227	0xbd8143b2	-0.0631174
228	0x3d0947e0	0.03351581
229	0x3d86ad94	0.06576076
230	0xbdc5e134	-0.09662095
231	0x3d98c79c	0.074599475
232	0x3da760b0	0.081727386
233	0xbc138110	-0.009002939
234	0x3cd4a010	0.02595523
235	0x3dc9497e	0.09828471
236	0x3dfabe6a	0.1224335
237	0xbd5a1e20	-0.053251386
238	0x3dc20170	0.094729304
239	0xbb22dfc0	-0.0024852604
240	0x3dce3bc4	0.10069993
241	0xbdbe3712	-0.092878476
242	0x3d764454	0.060123757
243	0xbd3fd8c8	-0.046837598
244	0xbd520f50	-0.051284134
245	0xbd92152e	-0.07132946
246	0xbc4007f0	-0.011720642
247	0xbde2a1fc	-0.11066052
248	0x3cd94f88	0.026527181
249	0x3d400418	0.046878904
250	0xbdfea160	-0.124331236
251	0x3da18c82	0.07888128
252	0xbdf635a6	-0.120219514
253	0xbc693130	-0.014232919
254	0x3d7737dc	0.060356006
255	0x3df37dc8	0.11889225

bias_ih_l0 f4 [256]
0	0x3e80edc4	0.251814
1	0x3e69a61a	0.22817269
2	0x3dc614fc	0.09671971
3	0xbded360a	-0.11582573
4	0x3eacfa4d	0.33784714
5	0x3e54cd00	0.20781326
6	0x3d13848e	0.036015086
7	0x3d952c75	0.0728387
8	0xbdf3e62a	-0.11909135
9	0x3e96b5a2	0.2943545
10	0x3dfea8ef	0.12434565
11	0xbe04636b	-0.1292855
12	0x3c39e1bb	0.011345322
13	0xbda23f13	-0.07922187
14	0x3e486ca7	0.19572698
15	0xbdcccc17	-0.099998645
16	0xbd97e872	-0.07417382
17	0x3ea03911	0.31293538
18	0x3dbce294	0.09222904
19	0x3d66023b	0.05615447
20	0x3ccd5f89	0.025069969
21	0x3e454180	0.19263268
22	0x3dbd23de	0.09235357
23	0x3e5ca7a6	0.21548328
24	0x3b998499	0.0046849963
25	0x3e873225	0.26405445
26	0x3d695716	0.056967817
27	0x3e02f418	0.12788427
28	0x3f1adaa1	0.6048985
29	0x3e1ad4d2	0.15120247
30	0x3eab1e82	0.33421713
31	0x3db63c4c	0.088982195
32	0x3e637bde	0.2221522
33	0x3e65bff7	0.2243651
34	0x3d4f582d	0.0506212
35	0x3e34da08	0.17661297
36	0xbc2fb71a	-0.010724807
37	0x3e919559	0.28434256
38	0x3e182684	0.14858443
39	0x3e0213a7	0.1270281
40	0x3e558159	0.20850123
41	0x3e1380a0	0.14404535
42	0x3cd8efde	0.026481565
43	0xbdf52d1d	-0.11971495
44	0x3d85b99b	0.06529542
45	0x3dc3fbfa	0.09569545
46	0xbd89a29d	-0.06720469
47	0x3c2dfe31	0.010619686
48	0x3e2b4de9	0.16728939
49	0x3e753a8a	0.23948112
50	0xbd0fbdb7	-0.035093036
51	0x3e2047a0	0.15652323
52	0x3e70bbf5	0.235092
53	0x3ebc8608	0.36821008
54	0x3ddf5e40	0.10906649
55	0xbe10f711	-0.14156748
56	0x3ca1a327	0.019731117
57	0xbc19ce2d	-0.009387535
58	0x3bb680a2	0.0055695334
59	0x3ddcf68b	0.10789212
60	0xbe09cdfb	-0.13457482
61	0x3c4a0261	0.012329669
62	0x3ef499b7	0.47773525
63	0xbda72fcc	-0.081634134
64	0x3df2ea46	0.1186109
65	0x3baed8e0	0.005335912
66	0xbc4a7df0	-0.012359127
67	0x3ca66fc8	0.020316973
68	0xbdaf5bd4	-0.08562437
69	0xbdef2ba6	-0.11678247
70	0x3da64550	0.08118689
71	0xbcef9818	-0.029247329
72	0xbd2e1e38	-0.042509288
73	0xbd32a8ac	-0.04361789
74	0xba181d00	-0.0005802661
75	0x3d116bd0	0.03550321
76	0xbd8d3ac8	-0.06895977
77	0x3dea9df8	0.114559114
78	0xbddd1802	-0.10795595
79	0x3d0b80e4	0.034058467
80	0x3d38a91c	0.04508315
81	0xbdc486a8	-0.09595996
82	0x3daa7402	0.08322908
83	0x3daf5e78	0.0856294
84	0x3d3ba908	0.045815498
85	0x3dcba0b2	0.099427596
86	0x3c2ccb90	0.01054658
87	0xbdcdac8e	-0.10042678
88	0xbd85ab70	-0.0652684
89	0xbda76188	-0.081728995
90	0x3ddeab64	0.10872534
91	0xbd92b2a2	-0.07162978
92	0x3dde3eea	0.10851844
93	0x3d9bb92c	0.07603678
94	0x3dc0adf4	0.09408179
95	0x3d803554	0.062601715
96	0xbca2e158	-0.019882843
97	0x3bb74ee0	0.0055941194
98	0xbcb76dd8	-0.022391245
99	0xbb6d0700	-0.0036167502
100	0x3d94ae9a	0.07259865
101	0xbc45e870	-0.012079343
102	0xbd9404b6	-0.07227461
103	0x3d0c4304	0.0342436
104	0x3d4f75c8	0.050649434
105	0x3c8a0bf8	0.01685141
106	0x3cda9ed0	0.026687056
107	0xbc8a2e08	-0.016867653
108	0x3dafc192	0.085818425
109	0xbd33d76c	-0.043906614
110	0x3989d400	0.0002628863
111	0x3ccb24a0	0.024797738
112	0x3d3bcc40	0.045849085
113	0xbc2553f0	-0.010090813
114	0x3dda6b4a	0.10664995
115	0xbdc88d66	-0.097925946
116	0x3dc9451c	0.09827635
117	0xbd0ed06c	-0.034866735
118	0xbdfadf32	-0.122496024
119	0xbd8408c6	-0.06446986
120	0x3dc26b0a	0.09493072
121	0xbd19ccbc	-0.037548766
122	0x3dba7b34	0.091055304
123	0xbc97fe70	-0.018553942
124	0xbba34a80	-0.0049832463
125	0x3bc9c440	0.006157428
126	0xbdd7ed4e	-0.10543309
127	0xbd207f64	-0.03918399
128	0xbd9f34c6	-0.077737376
129	0x3d597948	0.05309418
130	0x3d8119f0	0.06303775
131	0x3e18e241	0.14930059
132	0xbd688f35	-0.056777198
133	0xbd8bc07e	-0.06823824
134	0x3ce97ee6	0.028502893
135	0xbddf63a0	-0.10907674
136	0xbd5e8786	-0.054328464
137	0x3d151ce1	0.036404494
138	0x3d857869	0.06517107
139	0xbd4fd8df	-0.050743934
140	0xbd2f65e7	-0.04282179
141	0xbdae2a9a	-0.08504219
142	0x3e7dd7dc	0.24789375
143	0xbcda3e4b	-0.026641032
144	0xbb599a6e	-0.003320362
145	0x3db0a677	0.08625501
146	0xbc821bd6	-0.015882414
147	0x3dc57bbe	0.096427426
148	0xbddfb4b7	-0.109231405
149	0xbd6f1371	-0.05836815
150	0xbcb508b2	-0.022098873
151	0x3db75d04	0.08953288
152	0x3c217478	0.0098544285
153	0xbc90836c	-0.017640792
154	0xbe0f3d60	-0.13988256
155	0x3d14c927	0.036324646
156	0xbe0a8b83	-0.13529782
157	0xbd0459a3	-0.032312047
158	0x3d870349	0.065924235
159	0x3d8f6219	0.070011325
160	0xbd9db5a6	-0.07700662
161	0x3c3ce44e	0.011529041
162	0xbcc37d82	-0.023863558
163	0xbccfd62f	-0.025370685
164	0x3df8d004	0.12149051
165	0xbdae6d7f	-0.085169785
166	0xbcd676cc	-0.026179694
167	0xbdc7e673	-0.097607516
168	0x3d75bc10	0.059993804
169	0x3dacfd2e	0.08446728
170	0x3c56bd39	0.013106638
171	0x3ddfff61	0.109373815
172	0x3deab3db	0.11460086
173	0x3def4b39	0.116842695
174	0xbd7ac852	-0.061226197
175	0x3c8dbc2e	0.017301645
176	0xbdb1dd56	-0.086847946
177	0xbd1700a0	-0.03686583
178	0x3e01838b	0.12647836
179	0x3de93dfd	0.113887765
180	0x3d662abd	0.056193102
181	0xbe391f90	-0.18078446
182	0x3dd49104	0.10379222
183	0xbdb3ef42	-0.08785869
184	0xbddaf11e	-0.10690521
185	0xbd2eafdc	-0.04264818
186	0x3d93f6ba	0.07224794
187	0x3c540bf6	0.012942305
188	0x3d0c5da5	0.034268994
189	0xbcbff8b8	-0.023434028
190	0xbd983196	-0.07431333
191	0xbdcae17a	-0.099062875
192	0x3e1b3291	0.15156008
193	0x3dd9d24a	0.106358126
194	0x3e5718c1	0.21005537
195	0x3d79be6e	0.060972624
196	0x3e9eece2	0.31040102
197	0x3ea12f1f	0.31481263
198	0x3e453101	0.19256975
199	0x3e151c9d	0.14561696
200	0xbd8e88e9	-0.06959707
201	0x3ed4f7a9	0.415952
202	0x3de46906	0.11152844
203	0xbdab0895	-0.08351246
204	0x3cd60ce2	0.02612919
205	0x3d8cecbb	0.0688109
206	0x3dd1fb09	0.10252959
207	0xbddb98f8	-0.10722536
208	0x3ce43a51	0.027859839
209	0x3e870267	0.2636902
210	0xbcbe5c30	-0.023237318
211	0x3d65be2d	0.05608957
212	0xbdd9db9a	-0.10637589
213	0x3de7a5fc	0.11310956
214	0x3e00155b	0.12508146
215	0x3ddbd18a	0.10733326
216	0xbe05e381	-0.13075067
217	0x3e0f1746	0.13973722
218	0x3ce83bd3	0.028348839
219	0xbd5da476	-0.05411192
220	0x3ed4e6b9	0.41582277
221	0x3d6fe58d	0.058568526
222	0x3f0b932a	0.5452143
223	0x3e1118d3	0.14169626
224	0x3b472e77	0.0030392685
225	0x3d885311	0.06656469
226	0x3d1b989b	0.037987333
227	0x3e5d5652	0.2161496
228	0x3ddb4fd6	0.10708587
229	0x3e8ee77d	0.27910987
230	0x3d4493e8	0.047992617
231	0x3e2daac2	0.1695967
232	0x3e06b17d	0.13153644
233	0x3dd48bd2	0.10378231
234	0x3e6f228f	0.23353027
235	0x3d1b18a9	0.037865315
236	0x3dc86af0	0.09786022
237	0x3e95b4f8	0.2923963
238	0x3dcaff95	0.0991203
239	0xbc99d5e1	-0.018778743
240	0x3dcfb9c1	0.101428516
241	0x3e5cb80d	0.21554585
242	0xbd6166e1	-0.055029754
243	0x3baa5d05	0.005199077
244	0x3e1ae225	0.1512533
245	0x3ed46ac0	0.41487694
246	0x3e3741eb	0.1789624
247	0x3d5f7d7a	0.054563023
248	0x3d4efd9c	0.05053483
249	0xbc3d2bba	-0.01154607
250	0x3e3a2441	0.18177892
251	0x3e1fa5a4	0.1559053
252	0x3c662187	0.0140460795
253	0x3b6c314c	0.0036040125
254	0x3e9c6b67	0.3055069
255	0x3d1ac597	0.037786093

bias_hh_l0 f4 [256]
0	0x3e79052d	0.2431838
1	0x3d8d0649	0.068859644
2	0x3b5967ca	0.0033173435
3	0x3c90f0e5	0.017692992
4	0x3eae71e3	0.34071264
5	0x3e6e1aa8	0.23252356
6	0xb9037e1f	-0.00012540117
7	0x3d2d0593	0.042241644
8	0xbdedda2c	-0.116138786
9	0x3ec3a0d9	0.38208655
10	0x3cf99e9c	0.030471139
11	0x3c57f014	0.013179798
12	0x3d6baab1	0.05753583
13	0xbc6feaf8	-0.014643423
14	0x3e86a45e	0.26297277
15	0xbdb0f860	-0.08641124
16	0xba9b0c3a	-0.0011829205
17	0x3e839cf6	0.2570569
18	0xbde5df52	-0.112242356
19	0x3da6326c	0.08115086
20	0x3dc0ec45	0.09420065
21	0x3e9d6ade	0.30745596
22	0x3dd017ea	0.10160811
23	0x3dae7894	0.08519092
24	0xbdee5c98	-0.116387546
25	0x3e6123fc	0.21986383
26	0xbdadf66e	-0.08494268
27	0x3e08de0d	0.13365956
28	0x3f0c4abd	0.5480154
29	0x3ce5046e	0.027956214
30	0x3ec8fc0d	0.392548
31	0x3e4b82b3	0.19874077
32	0x3ddbc186	0.10730271
33	0x3dbd3280	0.09238148
34	0x3e4521b4	0.19251138
35	0x3e7bb409	0.24580397
36	0x3d0b567f	0.034018036
37	0x3e03ea22	0.12882283
38	0x3e0cd3dc	0.13752693
39	0x3e6fbafb	0.23411171
40	0x3e1ba294	0.15198737
41	0x3d43445b	0.04767261
42	0x3e4f5447	0.20246993
43	0x3dac240e	0.084053144
44	0x3d50c8b7	0.050972667
45	0x3e7cb6fb	0.24679177
46	0x3ce71d15	0.02821211
47	0xbd473a46	-0.04863956
48	0xbd23061f	-0.03980076
49	0x3e8dbb19	0.27681807
50	0x3c0e7981	0.008695961
51	0xbcc09ecf	-0.023513226
52	0x3e1a24e0	0.15053129
53	0x3e9e6f34	0.30944216
54	0x3e8523f6	0.26004
55	0x3c41e441	0.011834205
56	0xbce7a151	-0.028275164
57	0x3e29ee31	0.16594769
58	0x3d58695b	0.05283485
59	0x3cee3ffd	0.029083246
60	0xbe01d5b2	-0.12679175
61	0xbdd0f781	-0.102034576
62	0x3ee324d2	0.4436403
63	0x3daa4464	0.08313826
64	0x3d3a9ba0	0.04555857
65	0x3da14efc	0.07876393
66	0xbd94d990	-0.07268059
67	0xbc3ebd70	-0.011641845
68	0xbd7dc644	-0.06195666
69	0xbdcae780	-0.09907436
70	0x3da4eb08	0.08052641
71	0x3d2d1670	0.042257726
72	0x3db836f4	0.089948565
73	0x3d6cbda0	0.057798028
74	0xbbc22700	-0.0059250593
75	0xbde9335e	-0.11386751
76	0xbcf2c5f8	-0.029635414
77	0x3cfc5f78	0.030807242
78	0x3c6496e0	0.013951987
79	0xbccc3b18	-0.024930522
80	0xbcac3e80	-0.021025896
81	0x3db07934	0.08616868
82	0x3ded9630	0.116009116
83	0x3dd0a05c	0.10186836
84	0x3c7e5550	0.01552327
85	0x3c477340	0.012173474
86	0x3d0410bc	0.03224252
87	0xbd015930	-0.031579196
88	0xbdd08930	-0.101824164
89	0x3da121dc	0.07867786
90	0x3d8bd00e	0.06826793
91	0x3cc96160	0.024582565
92	0xbd41da18	-0.04732713
93	0xbd69f978	-0.057122678
94	0x3df03d40	0.117304325
95	0xbc87cab0	-0.016576141
96	0xbd7d79bc	-0.061883673
97	0x3c8e7380	0.017389059
98	0xbd505588	-0.05086282
99	0xbd22b70c	-0.03972535
100	0x3dda5658	0.10661
101	0xbd9c468a	-0.07630642
102	0x3dc40b6e	0.095724925
103	0xbd69aee8	-0.05705157
104	0x3def1aaa	0.11675008
105	0xbd5fcbb4	-0.054637626
106	0xbdcc1eb2	-0.09966792
107	0x3d070c00	0.03297043
108	0x3d808154	0.062746674
109	0xbc437500	-0.01192975
110	0xbdd59b8a	-0.10430057
111	0x3db99ac6	0.09062724
112	0xbd2201d0	-0.03955251
113	0xbdf0ad52	-0.11751808
114	0xbd6355d4	-0.055501774
115	0xbcb7b990	-0.02242735
116	0x3dbad268	0.09122163
117	0x3dbbe8de	0.09175275
118	0xbcdd88d8	-0.027042791
119	0x3ca1f960	0.019772232
120	0x3c9f5a38	0.0194522
121	0xbd2b86c0	-0.041876554
122	0xbd116ebc	-0.035505995
123	0x3b2f5200	0.0026751757
124	0xbd77c4d4	-0.060490444
125	0x3d9cec84	0.07662299
126	0xbb850760	-0.004059717
127	0x3ce052e0	0.027383268
128	0x3da76e5d	0.08175347
129	0x3c938cc7	0.018011464
130	0x3c9648d8	0.018345281
131	0x3d8aca20	0.067768335
132	0x3e1ecec8	0.15508568
133	0x3d9fd732	0.07804717
134	0xbc6e9524	-0.014561925
135	0x3dfda533	0.12385025
136	0xbcd28c8e	-0.025701787
137	0xbd869ec8	-0.06573254
138	0xbcd20012	-0.0256348
139	0x3e013544	0.12617975
140	0xbde0164f	-0.10941755
141	0x3dcf9b3e	0.10137032
142	0x3e021d19	0.12706412
143	0xbe091e74	-0.13390523
144	0x3baceed0	0.005277492
145	0x3caaa9e1	0.020832958
146	0xbdb062af	-0.086125724
147	0xbd3cd9ac	-0.046106026
148	0xbd914685	-0.07093529
149	0x3dd96552	0.106150284
150	0x3e030140	0.12793446
151	0x3c3b0ac7	0.011416144
152	0x3db98533	0.09058609
153	0xbd2cdda1	-0.04220355
154	0xbcf3d031	-0.02976236
155	0x3dc05c72	0.093926325
156	0x3d9cf674	0.07664195
157	0x3d427179	0.047471497
158	0x3da83ef7	0.082151346
159	0x3e11e5bb	0.14247791
160	0xbd519961	-0.051171664
161	0xbc867e81	-0.016417744
162	0xbdbc1f00	-0.091856
163	0xbcc76075	-0.024337986
164	0x3cd27b56	0.025693577
165	0xbdc57765	-0.09641913
166	0xbd9d3c2a	-0.07677491
167	0x3d6c8214	0.05774124
168	0xbdaea85d	-0.085282065
169	0xbda5d69e	-0.080975756
170	0x3d1535cb	0.036428254
171	0x3d945ea5	0.072446145
172	0x3c58f391	0.0132416645
173	0x3d19f9d6	0.037591778
174	0xbc4d487e	-0.0125294905
175	0x3d8913c0	0.0669322
176	0xbdb5a545	-0.08869413
177	0xbda8ef22	-0.08248736
178	0x3bd13153	0.0063840537
179	0xbdc251a9	-0.09488232
180	0x3d5ee16b	0.054414194
181	0x3d2ad433	0.041706275
182	0x3c56abd5	0.013102491
183	0xbccbd927	-0.02488382
184	0x3dce811a	0.10083218
185	0x3d86f147	0.06588989
186	0x3c4f3054	0.0126458
187	0xbd07eef2	-0.03318686
188	0x3deeae7c	0.11654374
189	0xbe02c1bf	-0.12769221
190	0xbc280e2f	-0.010257288
191	0xbdb580da	-0.08862467
192	0x3e582e35	0.21111377
193	0x3e899e20	0.26878452
194	0x3e2a36b9	0.16622438
195	0x3cb69a19	0.022290276
196	0x3e21d2e6	0.15803108
197	0x3eacbced	0.3373789
198	0x3d67ee56	0.05662378
199	0x3ddb97c8	0.10722309
200	0xbda5bb96	-0.0809242
201	0x3e8bb387	0.27285406
202	0x3d12d54a	0.03584794
203	0x3d192122	0.037385114
204	0x3c26d242	0.010181965
205	0xbdb85a62	-0.09001614
206	0x3e350cc2	0.17680648
207	0xbe19c367	-0.15015946
208	0xbe073864	-0.13205105
209	0x3e74886f	0.2388017
210	0x3d96972b	0.07353052
211	0x3b86984a	0.0041075097
212	0xbdc64fd5	-0.096831955
213	0x3dfab2e6	0.122411534
214	0x3d8eaf95	0.06967083
215	0x3e805480	0.25064468
216	0xbe080d5b	-0.13286345
217	0x3e649dba	0.22325793
218	0xbd6c57e1	-0.057700995
219	0x3cda6719	0.026660489
220	0x3f1732e8	0.5906205
221	0x3be7b78e	0.007071442
222	0x3f0af6d7	0.542829
223	0x3e1c02f0	0.15235496
224	0x3e6f2aac	0.23356122
225	0x3e7e5098	0.24835432
226	0x3d8ffed3	0.07031026
227	0x3e64c13d	0.2233934
228	0xbd05ccce	-0.03266602
229	0x3e32a675	0.17446311
230	0x3d8e1fc9	0.06939656
231	0x3e5a8486	0.21339616
232	0x3e9d76f8	0.30754828
233	0xbca05655	-0.019572416
234	0x3e66cb7b	0.22538559
235	0x3bd75d39	0.0065723923
236	0x3d9df29b	0.07712289
237	0x3e5decc1	0.21672346
238	0xbe023142	-0.12714103
239	0xbdf7933a	-0.12088628
240	0x3df46255	0.11932818
241	0x3e4f1975	0.20224555
242	0x3d83dcb8	0.06438583
243	0x3e411ea0	0.18859339
244	0x3ea21440	0.31656075
245	0x3eb95f4d	0.3620552
246	0x3e574c6f	0.21025251
247	0x3d804158	0.06262463
248	0x3d9d0493	0.07666888
249	0x3e0f3d87	0.13988315
250	0x3b68db3c	0.0035531064
251	0x3d560597	0.052251425
252	0xbd9f0142	-0.07763912
253	0xbb010f44	-0.0019692937
254	0x3ef22bb3	0.47298965
255	0x3d328a75	0.043589074

weight f4 [1, 64]
0	0x3e4aed52	0.19817093
1	0xbe6a03d2	-0.2285302
2	0x3e5ce637	0.21572195
3	0xbce11fa3	-0.027480906
4	0xbe1de3c5	-0.15418918
5	0xbe298cc5	-0.16557606
6	0x3e19b502	0.15010455
7	0xbe259bbf	-0.16172694
8	0x3d6d3f07	0.057921436
9	0x3e877445	0.26455894
10	0xbd8491aa	-0.06473096
11	0xbd2e8d8a	-0.04261545
12	0xbe3470c6	-0.17621145
13	0x3ca9617b	0.020676365
14	0xbe4f9e98	-0.20275342
15	0xbd1561bd	-0.036470164
16	0x3d8d0c1d	0.06887076
17	0x3e8a4e49	0.27012852
18	0x3d054ce5	0.032544035
19	0x3e1310de	0.14361903
20	0x3dc883b4	0.097907454
21	0x3e735402	0.23762515
22	0xbe955c12	-0.29171807
23	0x3e640a4b	0.22269551
24	0xbdc78296	-0.09741704
25	0xbe657abe	-0.22410104
26	0xbda9386e	-0.08262716
27	0xbd627fc1	-0.055297617
28	0xbea937e5	-0.33050457
29	0x3e006a21	0.12540485
30	0x3eb2f22a	0.34950382
31	0xbe357077	-0.17718683
32	0x3e59491e	0.21219298
33	0x3e12d0c8	0.14337456
34	0x3e47bfb4	0.19506723
35	0xbe4bf0e3	-0.1991611
36	0xbe31ac60	-0.17350912
37	0x3e3785e9	0.17922176
38	0x3d596755	0.05307706
39	0xbe22b42d	-0.15889044
40	0x3e6981d9	0.22803439
41	0x3e432038	0.19055259
42	0x3e27a680	0.16372108
43	0xbc535bc5	-0.0129002975
44	0xbdeb0a39	-0.11476559
45	0xbe2bee88	-0.16790211
46	0x3d56d15e	0.05244576
47	0xbdbe22a2	-0.092839494
48	0xbe4305dd	-0.19045205
49	0xbd80962b	-0.06278642
50	0xbd9c8dac	-0.07644209
51	0x3e25fe8c	0.16210383
52	0x3e5362b9	0.20643128
53	0x3e87f596	0.26554555
54	0xbe221e54	-0.15831882
55	0x3d2818c3	0.04103924
56	0xbd657f50	-0.056029618
57	0xbdfb333b	-0.12265631
58	0x3e357f24	0.17724282
59	0xbe0b54d0	-0.13606572
60	0x3cac3628	0.021021917
61	0x3d83765e	0.06419061
62	0xbe989999	-0.29804686
63	0x3dffcb21	0.12489916
